pthfiles/BASIS_corrWeighting.pt (torch, 39554 bytes, 25 tensors)

clamp_param f4 [3]
0	0x3f666666	0.9
1	0x3f666666	0.9
2	0x3f666666	0.9

H f4 [11, 3]
0	0xbe913aaf	-0.28365085
1	0xbed84fcb	-0.42248377
2	0x3caf5f61	0.021407785
3	0x3e1df06c	0.15423745
4	0x3f4b847d	0.79499036
5	0xbd9a90b5	-0.07547132
6	0xba9bc0a4	-0.0011882973
7	0x3c5f4c73	0.013629067
8	0x3c12603e	0.008934079
9	0xbe1a38f6	-0.15060791
10	0xbed1e3cf	-0.40994117
11	0x3bb56e70	0.005536847
12	0xbe514c03	-0.20439152
13	0xbe95f35f	-0.2928724
14	0x3d69fbbd	0.057124842
15	0xbebfeaa2	-0.37483698
16	0xbf135ffc	-0.57568336
17	0xbe3c2ceb	-0.1837651
18	0x3e0d6cae	0.1381099
19	0x3f316e04	0.69308496
20	0x3d856008	0.06512457
21	0xbde793f8	-0.1130752
22	0xbe5add3f	-0.21373461
23	0x3dd5a60b	0.10432061
24	0x3e5c71ce	0.21527788
25	0x3f56c4f5	0.8389428
26	0x3d0fb846	0.035087846
27	0x3ea6efd1	0.3260484
28	0x3f294e2a	0.66134894
29	0x3e3cff9d	0.18456884
30	0xbcc31768	-0.023814872
31	0x3da521d0	0.0806309
32	0x3b391df8	0.0028246623

clamp_min f4 [3]
0	0x3f333333	0.7
1	0x3f333333	0.7
2	0x3f333333	0.7

clamp_max f4 [3]
0	0x3f8ccccd	1.1
1	0x3f8ccccd	1.1
2	0x3f8ccccd	1.1

branch_theta_y.0.weight f4 [64, 11]
0	0x3dd982cb	0.1062065
1	0x3e9ec5b9	0.31010225
2	0x3eb71a8e	0.35762447
3	0x3dd1efb0	0.10250795
4	0x3cc08f27	0.02350576
5	0x3e9c25ba	0.30497533
6	0x3d9e341c	0.07724783
7	0x3eec72e4	0.46181405
8	0xbcb24071	-0.021759244
9	0x3e38869c	0.180201
10	0x3ec441a6	0.38331336
11	0x3e128403	0.14308171
12	0xbe12f202	-0.14350131
13	0xbe1cd1b2	-0.15314367
14	0xbe809836	-0.25116128
15	0x3e80a629	0.2512677
16	0xbdb0de75	-0.0863618
17	0xbd6db5dd	-0.058034766
18	0x3e924773	0.28570136
19	0xbeb1911e	-0.34681028
20	0x3e130d94	0.14360648
21	0xbe98befc	-0.2983321
22	0xbe6acb28	-0.2292906
23	0xbe2e1579	-0.17000379
24	0xbd77b35b	-0.06047378
25	0x3d3356ba	0.04378388
26	0xbe9bb11c	-0.3040856
27	0x3daf7321	0.08566881
28	0xbe8eeb5c	-0.2791394
29	0xbec0a1d9	-0.3762348
30	0xbabd5a5f	-0.0014446488
31	0xbe3384bb	-0.17531101
32	0xbe0b80c1	-0.13623334
33	0x3c35695b	0.011072482
34	0xbe8fa2b5	-0.28053823
35	0x3e0ad6b4	0.13558465
36	0xbe2e4188	-0.17017186
37	0xbe933b04	-0.28755963
38	0x3e89c6b6	0.26909417
39	0xbea85219	-0.32875136
40	0xbe513df4	-0.2043379
41	0xbde7c091	-0.11316026
42	0x3e1bb58b	0.15205972
43	0x3e20ca5c	0.15702194
44	0x3e11cac8	0.14237511
45	0x3c88ebc4	0.016713984
46	0xbeeb0a19	-0.4590614
47	0xbe60f12d	-0.21967001
48	0x3d5ba6f5	0.05362602
49	0x3bff6c07	0.0077948603
50	0xbb436388	-0.0029813964
51	0xbdc32c76	-0.095299646
52	0x3e921979	0.2853506
53	0xbd4d0333	-0.05005188
54	0xbe97a438	-0.29617476
55	0xbbf9a1bd	-0.0076181577
56	0x3ed67c24	0.41891587
57	0x3edbe299	0.42946318
58	0x3ce666dd	0.02812522
59	0x3ec3b4f7	0.38224003
60	0xbe03cecc	-0.12871855
61	0x3d38bd93	0.045102667
62	0x3ed03637	0.40666363
63	0xbf15a6d9	-0.58457714
64	0x3e3da114	0.18518478
65	0x3ee91bfa	0.45529157
66	0xbe6f1137	-0.2334641
67	0xbd98b98e	-0.07457267
68	0xbe1ab401	-0.15107729
69	0x3e11b551	0.14229323
70	0xbe7df7e0	-0.24801588
71	0x3e2f9edc	0.17150444
72	0xbd25fb9c	-0.040523157
73	0xbe599551	-0.21248366
74	0xbd1bc76c	-0.03803198
75	0xbdffa626	-0.12482862
76	0x3a9a672c	0.0011780015
77	0xbe97f767	-0.2968094
78	0x3cd200b8	0.025635108
79	0x3ecb7d88	0.3974421
80	0xbe9957d9	-0.29949835
81	0xbc6768b0	-0.014124081
82	0xbdf5a979	-0.11995215
83	0xbd00b5e9	-0.031423483
84	0xbe4f46cf	-0.20241855
85	0x3e5ace05	0.21367653
86	0x3dece8ca	0.115678385
87	0x3d7b1e0c	0.06130795
88	0x3e18871f	0.14895295
89	0x3daee5ac	0.085399
90	0x3e8dbad8	0.27681613
91	0x3ea52772	0.32256657
92	0x3e8a0ccd	0.2696289
93	0x3dfa4c43	0.12221577
94	0x3ea76d2c	0.3270048
95	0x3e2891fe	0.16461942
96	0x3e184b40	0.14872456
97	0xbeb0d969	-0.3454087
98	0x3eaad207	0.33363363
99	0x3ea28e9b	0.31749424
100	0x3e057563	0.1303306
101	0xbe09f050	-0.13470578
102	0x3ba2b378	0.004965242
103	0x3eb9b7cd	0.3627304
104	0xbe699500	-0.22810745
105	0xbece56c8	-0.40300584
106	0xbe529545	-0.20564754
107	0xbf04b207	-0.5183415
108	0xbe5150eb	-0.20441024
109	0x3d1cf9e8	0.038324267
110	0xbe0234e0	-0.12715483
111	0x3d011590	0.031514704
112	0x3e7d6365	0.24744947
113	0xbd88b262	-0.06674649
114	0x3e7fdb0c	0.24985904
115	0x3e6c586a	0.23080602
116	0xbdd9fb8d	-0.10643683
117	0x3dd81f9d	0.10552905
118	0x3debe50e	0.11518298
119	0xbe4319a9	-0.19052757
120	0x3eb24aac	0.34822595
121	0x3e9e04b1	0.30862954
122	0xbf080fda	-0.5314919
123	0xbf07386a	-0.52820456
124	0xbe9c5b17	-0.30538246
125	0x3e6c42ae	0.23072311
126	0x3ceb125d	0.02869528
127	0x3a041e6f	0.00050399353
128	0xbf2b99a3	-0.67031306
129	0x3e61071b	0.21975367
130	0xbd1b7011	-0.03794867
131	0xbeb6dbf3	-0.35714683
132	0x3e6353b6	0.22199902
133	0xbe3a0723	-0.18166785
134	0xbe807209	-0.25087002
135	0xbe39d5d1	-0.1814797
136	0x3c805383	0.015664821
137	0xbe7fe0f1	-0.24988152
138	0xbe99658a	-0.2996028
139	0xbdd535aa	-0.10410626
140	0xbe9525fd	-0.29130545
141	0x3ebb578d	0.36590233
142	0x3df89d0d	0.1213933
143	0xbe5771d6	-0.21039519
144	0x3d28e196	0.04123076
145	0xbecd1ef7	-0.40062687
146	0x3e4a74b1	0.19771077
147	0x3e50b24c	0.20380515
148	0xbd6255b6	-0.05525752
149	0xbeaf1adf	-0.3420019
150	0xbbb282cf	-0.0054477225
151	0x3e399562	0.18123391
152	0xbb9d4639	-0.004799631
153	0xbed97ce5	-0.424781
154	0x3e8c7191	0.27430394
155	0xbe89a9fd	-0.26887503
156	0xbde59982	-0.1121092
157	0xbd2ad91f	-0.04171097
158	0xbe840339	-0.2578371
159	0x3e325a31	0.17417218
160	0x3e2f2c41	0.17106725
161	0xbd5918d5	-0.053002197
162	0xbe1c4da8	-0.15263999
163	0x3c569ca5	0.01309887
164	0x3e424640	0.18972111
165	0xbdb3b44b	-0.087746225
166	0xbe543fcf	-0.20727466
167	0xbeae4d27	-0.34043238
168	0xbe2a1b7b	-0.16612045
169	0x3ddf4ff4	0.10903922
170	0x3e4cc35c	0.19996399
171	0x3d754a27	0.05988517
172	0xbd9806d2	-0.07423176
173	0x3e51301b	0.20428507
174	0xbbc5fb62	-0.00604193
175	0xbd20fb2f	-0.039302047
176	0x3e840a52	0.25789124
177	0xbddcd190	-0.107821584
178	0x3e67f097	0.22650371
179	0x3e00acd4	0.12565929
180	0xbd3ce55c	-0.04611717
181	0x3e590785	0.21194275
182	0x3e2f0686	0.17092332
183	0xbcbe3d6d	-0.02322265
184	0xbe6470d9	-0.22308673
185	0xbe079fb2	-0.13244513
186	0xbacb9851	-0.0015533065
187	0xbe6c08b0	-0.23050189
188	0x3bb175cf	0.005415655
189	0xbe8b8347	-0.27248594
190	0x3e8d12fe	0.27553552
191	0x3eb9d288	0.36293435
192	0xbe5459c1	-0.20737363
193	0xbe95b8e5	-0.29242626
194	0xbe561634	-0.20906907
195	0x3d5c06a6	0.053717278
196	0xbd0395e6	-0.032125376
197	0x3d2850bb	0.041092616
198	0x3e56bcc9	0.20970453
199	0x3e3d893a	0.18509379
200	0x3df44ab1	0.11928309
201	0x3d446022	0.047943242
202	0x3dfed70a	0.12443359
203	0x3ec34206	0.3813631
204	0x3e82f3c1	0.25576594
205	0x3e344228	0.17603362
206	0x3d5aeba8	0.053447396
207	0xbeff8e4b	-0.49913248
208	0x3ea85e18	0.32884288
209	0xbd874654	-0.06605211
210	0x3d5a13b8	0.05324146
211	0x3f15c40e	0.5850228
212	0x3ea90c96	0.33017415
213	0xbd8be040	-0.06829882
214	0x3ed54185	0.4165155
215	0x3e4ef636	0.2021111
216	0x3f0aa118	0.5415206
217	0xbe400cc7	-0.18754874
218	0xbe79b04c	-0.24383658
219	0x3e81ff26	0.25389975
220	0x3cb4f486	0.022089254
221	0x3f4628d3	0.7740604
222	0x3e6d99ee	0.23203251
223	0x3e234459	0.15944041
224	0x3e303a59	0.17209758
225	0xbdd8ec4f	-0.10591947
226	0x3e89fe56	0.26951855
227	0x3f9262d4	1.143641
228	0xbe90f6b1	-0.2831321
229	0xbe0a9bf7	-0.13536058
230	0x3f39a758	0.7252097
231	0xbe54353b	-0.20723431
232	0x3ea84486	0.3286478
233	0x3d76397e	0.060113423
234	0xbe4f7e4d	-0.20263024
235	0x3da8fa1f	0.08250832
236	0x3e60252e	0.21889183
237	0x3e79feff	0.2441368
238	0xbc6f75df	-0.014615505
239	0xbe35823f	-0.17725466
240	0x3e87f783	0.26556024
241	0xbe631cb2	-0.22178915
242	0x3dd2470b	0.102674566
243	0x3e78b96a	0.2428948
244	0xbecb66a5	-0.3972675
245	0x3d933501	0.07187844
246	0xbda05e1c	-0.0783045
247	0xbe9c5c26	-0.30539054
248	0x3c19a494	0.009377617
249	0xbe16080b	-0.14651506
250	0xbe3fc299	-0.18726577
251	0x3e8adbe7	0.27120897
252	0xbed2a41f	-0.4114084
253	0x3de9b443	0.11411335
254	0x3e2a2905	0.1661721
255	0x3e0130c2	0.12616256

branch_theta_y.0.bias f4 [64]
0	0x3d0b736d	0.034045625
1	0xbd4484b5	-0.04797812
2	0x3e14b490	0.14522004
3	0x3b5232b2	0.0032073674
4	0xbd83e049	-0.064392634
5	0x3e2be44d	0.16786309
6	0xbee8d50e	-0.45475048
7	0x3e1e4741	0.15456869
8	0xbc696d82	-0.0142473
9	0xbd802b00	-0.062582016
10	0x3e9ba0fd	0.30396262
11	0x3d3ecfde	0.046584956
12	0xbe5c6dbd	-0.21526237
13	0x3cd98eb7	0.02655731
14	0xbe2f68fb	-0.1712989
15	0xbebdb732	-0.3705383
16	0xbe0d6f9d	-0.13812108
17	0xbe081a7f	-0.13291357
18	0x3e62d4c0	0.2215147
19	0x3d40bafd	0.047053326
20	0x3e49ee18	0.19719732
21	0xbea4a651	-0.3215814
22	0xbdad8bfd	-0.08473966
23	0x3db46d7c	0.08809945
24	0x3e865d9a	0.26243287
25	0x3d198017	0.03747567
26	0xbd8677bf	-0.065658085
27	0xbe1221b7	-0.14270674
28	0xbcd58068	-0.026062205
29	0x3e3060fd	0.17224498
30	0x3eac007d	0.33594123
31	0xbd4db5c3	-0.05022217
32	0xbd8797a9	-0.06620724
33	0xbe51e87c	-0.20498842
34	0x3e88f2f3	0.26747856
35	0xbdda7138	-0.10666126
36	0xbe10c357	-0.14137016
37	0x3d9dfeee	0.077146396
38	0x3d19336b	0.03740255
39	0x3eacbfb5	0.3374001
40	0xbe5f14a1	-0.21785213
41	0x3c949b6e	0.01814052
42	0xbe4e030c	-0.2011835
43	0x3e539fb8	0.20666397
44	0xbdb56248	-0.08856636
45	0xbe95c2d3	-0.29250202
46	0x3e7be0e5	0.24597509
47	0xbd37462f	-0.044744667
48	0x3e4439e7	0.19162713
49	0x3cc3a5f2	0.02388284
50	0xbcc4be9f	-0.024016676
51	0xbec2d159	-0.38050345
52	0xbd5a969d	-0.053366292
53	0xbe33ca8c	-0.17557734
54	0xbf00f202	-0.50369275
55	0x3e9e7c23	0.30954084
56	0xbe985ef3	-0.2975994
57	0xbd10ee5d	-0.03538357
58	0x3e027169	0.12738575
59	0xbcf74d2a	-0.030188162
60	0x3e22ed53	0.15910845
61	0x3d1b1181	0.03785849
62	0xbeb5445b	-0.35403714
63	0x3d738bc7	0.059459474

branch_theta_y.2.weight f4 [16, 64]
0	0xbdb61d3e	-0.08892296
1	0xbe1c7e31	-0.15282513
2	0x3b890e12	0.0041825855
3	0xbd95a8db	-0.07307597
4	0x3d1e8f32	0.03871078
5	0x3e13ff86	0.14452943
6	0x3c4c6695	0.012475629
7	0x3b96046c	0.004578164
8	0x3d724370	0.059146345
9	0xbe95215b	-0.2912701
10	0x3bdc6ae6	0.0067266105
11	0xbdbbe0ac	-0.09173712
12	0x3e9dc3e5	0.30813518
13	0x3deeede4	0.11666468
14	0x3d8085b6	0.06275503
15	0x3de618ef	0.112352245
16	0xbdc5537d	-0.09635065
17	0x3b8ea182	0.0043527493
18	0x3e95a597	0.29227898
19	0xbe873b59	-0.26412466
20	0x3e0fd380	0.14045525
21	0x3de3bb38	0.111196935
22	0x3e3ed535	0.1863602
23	0x3df4989c	0.119431704
24	0x3d9cd081	0.076569565
25	0x3d17c608	0.03705409
26	0xbed5c499	-0.41751555
27	0x3dbcef4b	0.09225329
28	0xbc38a1d8	-0.011269055
29	0x3d9fa251	0.07794631
30	0x3e3ee44b	0.18641774
31	0x3ea6aced	0.32553807
32	0x3ce11bdd	0.027479107
33	0x3e660d57	0.22466026
34	0xbd59eb37	-0.053202834
35	0x3d3d8b10	0.0462752
36	0xbd48214c	-0.04885988
37	0x3d9219fd	0.07133863
38	0x3e3b11af	0.18268465
39	0x3def5900	0.11686897
40	0xbddf5275	-0.10904399
41	0xbdbfbc1a	-0.093620494
42	0xbda49674	-0.08036509
43	0x3e93799e	0.28803724
44	0x3e65bea8	0.22436011
45	0x3c6fff11	0.014648215
46	0x3d8e7cfa	0.06957431
47	0xbea7ed41	-0.32798198
48	0xbcca1c1b	-0.024671605
49	0x3e6486cf	0.2231705
50	0xbf9ee888	-1.2414713
51	0x3d7a15b0	0.06105584
52	0xbde31f77	-0.11089986
53	0x3defd16f	0.11709868
54	0x3df2cd7a	0.11855598
55	0xbc1835f2	-0.009290205
56	0x3d41c32a	0.047305264
57	0xbd419a78	-0.047266454
58	0x3e01e514	0.12685043
59	0xbc1277d5	-0.008939703
60	0x3e588a7b	0.21146576
61	0xbd772b79	-0.060344193
62	0xbda9a1a7	-0.08282786
63	0xbe03d632	-0.12874678
64	0x3e03bbf4	0.12864667
65	0x3e4dd9cc	0.20102614
66	0x3da86c85	0.082238235
67	0xbda5506e	-0.08071981
68	0x3d1c9b4e	0.038234048
69	0xbe1786e2	-0.14797547
70	0xbdd84b78	-0.105612695
71	0x3d094de9	0.033521567
72	0xbde814ca	-0.1133209
73	0x3edc9f8c	0.43090475
74	0x3dc28898	0.094987094
75	0x3dbf4479	0.09339232
76	0xbdf00ec2	-0.11721565
77	0x3c1a2bd2	0.009409862
78	0xbd759ad8	-0.059962124
79	0xbdeed2ac	-0.11661276
80	0xbdb2d2b1	-0.087315924
81	0xbb63314f	-0.0034666841
82	0xbdee14b0	-0.116250396
83	0x3ec88392	0.3916288
84	0xbe1ab6ae	-0.1510875
85	0xbddecae7	-0.10878544
86	0xbe1a1ab0	-0.15049243
87	0xbce40606	-0.027834903
88	0xbc263f05	-0.010146861
89	0xbdcfe422	-0.10150935
90	0x3ec046af	0.37553927
91	0xbcc40706	-0.02392913
92	0x3d80282c	0.06257662
93	0xbd8884ea	-0.06665976
94	0xbc01193f	-0.007879554
95	0xbebb1bda	-0.36544687
96	0x3ce5914c	0.028023385
97	0xbe4e5618	-0.2015003
98	0xbc3a3a5e	-0.011366455
99	0xbdd6fa7b	-0.10496994
100	0xbb6ad8f7	-0.0035834888
101	0xbd2684a8	-0.040653855
102	0xbe614a50	-0.22001004
103	0x3d020fa6	0.031753205
104	0x3d3194b6	0.043354712
105	0xbcaad207	-0.020852102
106	0x3df151f1	0.11783207
107	0xbe6aa530	-0.22914577
108	0xbe9d15c0	-0.30680656
109	0x3da25505	0.079263724
110	0x3afed182	0.00194411
111	0x3ea0eec1	0.31432155
112	0x3e4fd106	0.2029458
113	0xbd7ed29f	-0.062212583
114	0x3f4af22e	0.79275787
115	0xbb74b414	-0.003733878
116	0x3d98c3b5	0.07459203
117	0xbdc6fdb1	-0.097163565
118	0x3d368005	0.044555683
119	0x3d8b894b	0.06813296
120	0xbc42d1d7	-0.01189085
121	0x3dd47126	0.10373144
122	0xbeade5d4	-0.33964407
123	0x3e01f31c	0.12690395
124	0xbe93a4ce	-0.28836673
125	0x3dec0ad9	0.115255065
126	0x3dc12d9a	0.09432526
127	0x3d29477f	0.04132795
128	0x3ded0820	0.11573815
129	0x3e86178e	0.26189846
130	0x3bc372fc	0.005964635
131	0xbdf3c340	-0.11902475
132	0xbd07b555	-0.033131916
133	0xbe68200f	-0.2266848
134	0xbd8043dd	-0.06262944
135	0x3d41588c	0.047203586
136	0xbe444531	-0.1916702
137	0x3f144ea7	0.57932514
138	0x3da4502b	0.08023103
139	0x3d5e9c41	0.054348234
140	0xbe0b1351	-0.13581587
141	0x3dc428f3	0.09578123
142	0xbde8b9d0	-0.11363566
143	0x3d3579fa	0.04430578
144	0xbd399547	-0.045308378
145	0xbda72ef6	-0.08163254
146	0xbe512a9b	-0.20426409
147	0x3e3cddf5	0.18444045
148	0xbcc89214	-0.024483718
149	0x3db30343	0.087408565
150	0xbdabec78	-0.08394712
151	0xbd9078ad	-0.07054267
152	0x3e0d10d4	0.1377595
153	0xbdfa8c18	-0.12233752
154	0x3ea37b2f	0.3192992
155	0x3d280af4	0.04102607
156	0x3e03762d	0.12838049
157	0x3c080a36	0.008303216
158	0xbe05e900	-0.13077164
159	0xbec146a5	-0.3774921
160	0x3df42a7e	0.11922167
161	0xbddc614c	-0.107607454
162	0x3d64a262	0.055818923
163	0xbcc10ce8	-0.023565724
164	0xbe22a56d	-0.15883417
165	0x3c47d2ae	0.012196226
166	0xbea1418c	-0.3149532
167	0x3debf4cd	0.115213014
168	0xbdf7e300	-0.12103844
169	0x3d47da35	0.048792083
170	0x3cdf5964	0.027264304
171	0xbe7d64f5	-0.24745543
172	0xbe7330b4	-0.23749048
173	0xbdb73561	-0.08945728
174	0x3def7b58	0.11693448
175	0x3eb591b0	0.35462713
176	0x3de17c3f	0.11010026
177	0xbd71e035	-0.05905171
178	0x3f560527	0.8360161
179	0xbde33b47	-0.11095291
180	0x3ce7c275	0.028290967
181	0x3d6afd76	0.057370625
182	0x3dceed5a	0.10103865
183	0x3db88599	0.09009857
184	0x3d27537e	0.04085111
185	0x3da232d8	0.07919854
186	0xbe6efe22	-0.23339131
187	0xbc920395	-0.017823974
188	0xbe9433af	-0.2894568
189	0x3e278bd2	0.16361931
190	0x3dbb864e	0.09156476
191	0x3e1eb028	0.15496886
192	0x3e833214	0.25624144
193	0x3d12ba7a	0.03582237
194	0xbd2dcfc9	-0.042434487
195	0x3db0a417	0.08625048
196	0xbb2a10bd	-0.0025949918
197	0x3ecda5c0	0.4016552
198	0xbdad26a6	-0.08454637
199	0x3d283803	0.041069042
200	0xbdeb9515	-0.115030445
201	0xbd2d4f6f	-0.042312082
202	0x3dbc5ab2	0.09196986
203	0xbf56b478	-0.83869123
204	0xbdab4390	-0.08362496
205	0xbdb04c19	-0.086082645
206	0xbda7be3e	-0.08190583
207	0xbcb39fe9	-0.021926837
208	0x3d956396	0.07294385
209	0x3e752ac7	0.239421
210	0xbd25d507	-0.04048636
211	0x3ea35818	0.31903148
212	0x3f085cc0	0.53266525
213	0xbde1fa0d	-0.110340215
214	0x3e1b4f73	0.15167026
215	0xbe03ba29	-0.12863983
216	0x3e67bb9d	0.22630163
217	0xbf6b325c	-0.9187372
218	0x3e0ec4a9	0.13942207
219	0xbde5171a	-0.11186047
220	0xbd98e3de	-0.07465337
221	0x3ceca5a4	0.028887577
222	0xbc3aadd2	-0.011393981
223	0x3c8f19bb	0.017468324
224	0xbdcee2af	-0.1010183
225	0x3c238bf2	0.009982096
226	0x3da7829b	0.08179208
227	0xbbc441f2	-0.0059893066
228	0x3eae7dc7	0.34080335
229	0xbe155f56	-0.14587149
230	0xbf4bbc26	-0.79583967
231	0xbbf6abdb	-0.007527811
232	0x3de84899	0.11341972
233	0x3daa65f8	0.0832023
234	0x3df6aba8	0.120444596
235	0x3ee3ecc2	0.4451657
236	0xbe0cff43	-0.1376925
237	0xbd46773b	-0.04845355
238	0xbd071605	-0.032979984
239	0x3df2f661	0.11863399
240	0xbdbb0c5f	-0.09133219
241	0xbf5d6f99	-0.8649841
242	0xbd649d5a	-0.055814125
243	0xbd688f22	-0.056777127
244	0x3e1ee69c	0.15517658
245	0x3c0f3725	0.008741175
246	0xbd4d9009	-0.05018619
247	0x3d8aa84a	0.0677038
248	0x3e0ef43a	0.13960353
249	0x3e163644	0.14669138
250	0x3d190843	0.037361395
251	0xbdb412d3	-0.08792653
252	0x3ea2366f	0.31682155
253	0x3df7c30f	0.12097751
254	0x3cf98bd6	0.030462187
255	0x3d9c8720	0.076429605

branch_theta_y.2.bias f4 [16]
0	0xbde925f3	-0.11384191
1	0x3e366fc1	0.17816068
2	0x3d9cc27f	0.07654285
3	0xbd713f9e	-0.05889856
4	0x3ddfa25c	0.109196395
5	0x3e07f3ae	0.1327655
6	0x3e0c88be	0.13724038
7	0x3df136ab	0.11778005
8	0x3e52150e	0.20515844
9	0xbdb40b19	-0.08791179
10	0xbb3d113d	-0.0028849386
11	0xbe1db0e3	-0.15399508
12	0x3e539125	0.20660837
13	0x3cea78c7	0.028622044
14	0xbde43e73	-0.11144724
15	0xbe073233	-0.13202743

branch_theta_y.4.weight f4 [1, 16]
0	0xbec3012e	-0.38086838
1	0x3e4ccc94	0.19999915
2	0x3e252a05	0.1612931
3	0x3f599b36	0.8500246
4	0x3e511931	0.20419766
5	0x3e6df968	0.23239672
6	0xbefe1196	-0.49622792
7	0x3ebafc24	0.36520493
8	0xbf34937d	-0.7053755
9	0xbeadb6ad	-0.33928433
10	0x3e357bb7	0.17722975
11	0xbec2003f	-0.37890813
12	0x3f066f30	0.5251341
13	0xbee5ffb1	-0.4492164
14	0x3f4e48e0	0.8057995
15	0xbe2c8390	-0.16847062

branch_theta_z.0.weight f4 [64, 11]
0	0x3cc4a94f	0.024006514
1	0x3e4ffa75	0.20310386
2	0x3dee23eb	0.116279446
3	0x3e607885	0.21920975
4	0xbe4b4dd5	-0.1985391
5	0xbe0de81d	-0.13858075
6	0x3d50689f	0.050881024
7	0xbe306e01	-0.17229463
8	0xbe954a21	-0.29158118
9	0x3cc569d3	0.024098312
10	0x3e8470d8	0.25867343
11	0xbc8bb7ea	-0.01705547
12	0xbdff2b95	-0.124594845
13	0x3e84a3fe	0.25906366
14	0x3db882c9	0.0900932
15	0x3c9a6c0f	0.018850354
16	0x3e91cc76	0.28476304
17	0x3ddbda16	0.10734956
18	0x3ca5efdc	0.020255975
19	0x3c13af6a	0.00901399
20	0x3ae5d14e	0.0017533691
21	0x3dc3ce9a	0.095608905
22	0x3e2336ae	0.15938827
23	0x3d79c78c	0.06098132
24	0xbda14515	-0.078745045
25	0xbd240478	-0.040043324
26	0x3e46b7bb	0.19406025
27	0xbe09ccd4	-0.13457042
28	0xbe31d84f	-0.17367671
29	0xbe734338	-0.2375611
30	0xbe31b7ae	-0.17355224
31	0x3e452c97	0.19255291
32	0x3e13fa5e	0.14450976
33	0xbd7f5549	-0.062337194
34	0xbcdff982	-0.027340654
35	0x3e555354	0.20832568
36	0x3e73bcde	0.23802516
37	0x3e32c297	0.17457043
38	0x3e20429f	0.15650414
39	0x3da6a1d8	0.08136338
40	0xbcc1405c	-0.02359026
41	0x3e39eeeb	0.18157546
42	0xbe95ed39	-0.2928255
43	0xbd4c6954	-0.049905136
44	0x3e3f29b9	0.1866826
45	0x3d096620	0.03354466
46	0xbe03d048	-0.12872422
47	0xbe482a1e	-0.19547316
48	0x3e60522e	0.21906349
49	0x3e458cea	0.19292036
50	0x3e758c29	0.23979248
51	0x3da611e4	0.08108881
52	0x3e83091e	0.25592893
53	0xbe894780	-0.26812363
54	0x3db22ade	0.086995825
55	0x3dc54652	0.09632553
56	0xbe2a84c6	-0.16652212
57	0xbe47ebad	-0.19523497
58	0xbd8cf342	-0.06882335
59	0x3c60314a	0.013683626
60	0x3e90977c	0.28240573
61	0x3e903e51	0.28172544
62	0x3e3bfe54	0.18358737
63	0xbe41e793	-0.18935995
64	0x3e81326f	0.2523379
65	0xbdb842f6	-0.08997147
66	0xbd0275bc	-0.03185056
67	0x3d87d7de	0.0663297
68	0x3e6b406a	0.22973791
69	0x3e0e84f5	0.13917907
70	0xbdf15e44	-0.11785558
71	0xbd010a73	-0.031504106
72	0xbd9b82e6	-0.07593326
73	0xbe0b9fbd	-0.13635154
74	0xbe178533	-0.14796905
75	0xbe6985d8	-0.22804964
76	0xbe941f4e	-0.28930134
77	0xbe066034	-0.13122636
78	0x3e55e703	0.20888905
79	0x3e7b030d	0.24512883
80	0x3e72e9ba	0.23721972
81	0x3e90bf2e	0.2827086
82	0xbac867f7	-0.0015289773
83	0x3ccf41c8	0.025299922
84	0xbe286311	-0.16444041
85	0x3d1a8f2f	0.037734207
86	0x3d6bdbc2	0.057582624
87	0x3ca54fc1	0.020179631
88	0x3e682e6c	0.22673959
89	0xbe8768ac	-0.26447046
90	0xbe80c865	-0.2515289
91	0x3e4a80df	0.19775723
92	0x3dc66a12	0.096882
93	0xbe6ab902	-0.22922137
94	0xbe305d6c	-0.17223138
95	0xbe997be8	-0.29977345
96	0x3e8fe28a	0.28102523
97	0x3c236b00	0.009974241
98	0xbe8c30c4	-0.27380955
99	0xbe88b19c	-0.26698005
100	0xbda35c05	-0.07976536
101	0x3e539019	0.20660438
102	0x3e1ea28b	0.15491693
103	0xbe8180e7	-0.25293657
104	0x3ded1602	0.11576463
105	0xbe7e49c0	-0.24832821
106	0xbe597527	-0.21236096
107	0xbd1d99c3	-0.038476717
108	0xbd9c3335	-0.076269545
109	0xbdfd7bea	-0.1237715
110	0x3e0e869b	0.13918535
111	0xbdef9683	-0.1169863
112	0xbe5820ac	-0.21106213
113	0xbe84902e	-0.2589125
114	0x3d8f0d58	0.06984967
115	0x3e3598b7	0.17734037
116	0xbe0a3fad	-0.13500853
117	0xbe2a80ad	-0.16650648
118	0xbdb083e2	-0.08618905
119	0x3d04c3f1	0.032413427
120	0xbe973d38	-0.29538894
121	0xbe2482f2	-0.16065577
122	0xbe2efb6e	-0.170881
123	0x3db6c92f	0.089250915
124	0x3d814d93	0.06313624
125	0x3e84f2c8	0.25966477
126	0xbe0f7efc	-0.14013284
127	0xbd626331	-0.055270378
128	0xbe98212f	-0.29712817
129	0x3e80b985	0.2514154
130	0x3d64bbcd	0.055843163
131	0xbe709c24	-0.23497063
132	0xbd327ea6	-0.043577813
133	0xbe0ce529	-0.13759293
134	0xbbb4a49b	-0.0055127866
135	0x3e594a73	0.21219806
136	0x3e6d90fd	0.2319984
137	0x3e744128	0.2385298
138	0x3dc859c6	0.09782748
139	0x3e8c3e15	0.27391115
140	0x3da4f5f1	0.08054722
141	0x3cc14bd1	0.023595722
142	0x3e1cb643	0.15303902
143	0xbd2fd54f	-0.042928036
144	0xbe345c97	-0.17613445
145	0x3d958f61	0.07302738
146	0x3db189a2	0.086688295
147	0xbe8c3972	-0.27387577
148	0xbe5a9e37	-0.21349417
149	0x3b73864c	0.0037158905
150	0xbe8cde4b	-0.27513346
151	0xbc83edb8	-0.016104564
152	0x3e0f71f6	0.14008316
153	0xbd26b485	-0.0406995
154	0x3e28968f	0.16463684
155	0x3e3f98ab	0.18710582
156	0xbd0e872b	-0.034796875
157	0x3e5e3f42	0.21703818
158	0x3df61441	0.12015582
159	0xbdbbe3bf	-0.091742985
160	0x3c244c88	0.010028012
161	0xbe856e19	-0.2606056
162	0xbdeaf1fe	-0.114719376
163	0x3de780c0	0.11303854
164	0x3ccb66c9	0.024829285
165	0x3dcf8574	0.10132876
166	0xbcc63120	-0.024193347
167	0x3e1b0023	0.15136771
168	0xbe810b05	-0.2520372
169	0xbd59baa2	-0.053156503
170	0x3e0d7778	0.13815105
171	0xbde9db3a	-0.11418767
172	0x3d74e6d6	0.059790455
173	0xbbf485ad	-0.0074622245
174	0xbe6de179	-0.23230542
175	0x3d6cb586	0.0577903
176	0xbdfdc468	-0.12390977
177	0x3db51312	0.08841528
178	0xbe955c11	-0.29171804
179	0xbd688759	-0.056769703
180	0x3e088217	0.13330875
181	0xbbbf75fc	-0.0058429223
182	0x3e7bcfdf	0.24591015
183	0xbd8b079b	-0.0678856
184	0xbdc24634	-0.094860464
185	0xbe7f5bb4	-0.24937326
186	0xbd954192	-0.07287897
187	0x3e95d140	0.29261208
188	0x3e01c3af	0.12672304
189	0x3e687af0	0.22703147
190	0x3e99f965	0.30073085
191	0x3dc24152	0.09485115
192	0xbd95743a	-0.07297559
193	0x3e50b413	0.20381193
194	0x3e87d57d	0.26530066
195	0xbe1a713d	-0.1508226
196	0xbd658b6e	-0.056041174
197	0xbcba2a04	-0.022725113
198	0xbc97b3f1	-0.01851842
199	0xbe6f6a3d	-0.2338037
200	0xbe4fd501	-0.20296098
201	0x3dc7e5f5	0.09760658
202	0xbd799dd3	-0.06094153
203	0x3e1c7884	0.15280348
204	0x3e544761	0.20730354
205	0x3e88de51	0.26732114
206	0xbe5a97c3	-0.21346955
207	0xbd54bdeb	-0.051938932
208	0x3d8f92be	0.07010411
209	0xbe844a60	-0.25837994
210	0x3e96ca3d	0.2945117
211	0xbd2aab5e	-0.041667335
212	0x3db12b69	0.08650858
213	0xbe0e3704	-0.13888174
214	0xbdec57d9	-0.11540193
215	0x3e68aff3	0.2272337
216	0xbe3ea37c	-0.18617052
217	0xbe6219e6	-0.22080192
218	0x3d139f5b	0.036040645
219	0xbe3d678f	-0.18496536
220	0xbe292b3e	-0.16520402
221	0x3e9a0226	0.30079764
222	0xbd4ed6dc	-0.050497875
223	0x3cebf2f9	0.028802382
224	0x3e8f1e8c	0.27952993
225	0x3e8c9cc3	0.2746335
226	0xbd44e2dc	-0.048067912
227	0x3e6a96aa	0.22909036
228	0xbe444c80	-0.19169807
229	0x3e422aed	0.18961687
230	0x3c816abf	0.01579797
231	0xbd8cd4ce	-0.06876527
232	0x3e9223d7	0.2854297
233	0x3e90235e	0.28151983
234	0xbe902b96	-0.28158253
235	0xbd0b28e3	-0.03397454
236	0x3e11ffe2	0.14257768
237	0xbd93d017	-0.07217424
238	0xbe5a541c	-0.21321148
239	0x3d8ae5b4	0.06782094
240	0xbe020b02	-0.12699512
241	0x3dcf7a5f	0.10130762
242	0x3e80f336	0.25185555
243	0xbe326fa8	-0.17425406
244	0xbe7488b3	-0.23880272
245	0x3e4cf2ec	0.20014542
246	0xbe8251e4	-0.25453103
247	0xbe995235	-0.2994553
248	0xbe1f2395	-0.15540917
249	0xbda257a5	-0.07926873
250	0xbd10ce55	-0.035353024
251	0x3e381d07	0.17979823
252	0x3d79103a	0.06080649
253	0xbde8247d	-0.113350846
254	0x3e4143c5	0.18873508
255	0x3b742882	0.003725559

branch_theta_z.0.bias f4 [64]
0	0xbe326582	-0.17421535
1	0x3e32e74d	0.17471047
2	0x3cb54f43	0.022132521
3	0xbda3da6e	-0.080006465
4	0xbdc126c9	-0.09431226
5	0x3e027781	0.127409
6	0x3d22e18d	0.039765883
7	0x3d1a3cb8	0.037655562
8	0x3e844f45	0.25841728
9	0x3e182832	0.14859083
10	0x3e814b49	0.2525275
11	0x3e2fae9c	0.17156452
12	0x3e505647	0.20345412
13	0xbe387325	-0.18012674
14	0x3e8a16d3	0.26970538
15	0x3e62807f	0.2211933
16	0x3e6ef738	0.23336494
17	0x3e97bc4f	0.29635856
18	0xbe19721b	-0.14984934
19	0x3c4a9988	0.012365706
20	0x3d9629fb	0.07332226
21	0xbe8e68d9	-0.27814367
22	0x3ddd0092	0.107911244
23	0xbe2f889a	-0.17141953
24	0x3e546137	0.2074021
25	0x3d7b3400	0.061328888
26	0x3dd67ae5	0.10472659
27	0xbe82a198	-0.2551391
28	0xbc18f2b7	-0.0093352115
29	0xbe9287fd	-0.28619376
30	0xbe5c4c2e	-0.21513435
31	0xbe78a3c0	-0.24281216
32	0xbe2ba585	-0.1676236
33	0x3c761e60	0.01502189
34	0xbe363258	-0.17792642
35	0x3e32210a	0.17395416
36	0x3d4ce814	0.050026014
37	0xbe0ad285	-0.1355687
38	0xbe20c068	-0.15698397
39	0xbe3a3618	-0.18184698
40	0x3e92992b	0.28632483
41	0xbdc7b5de	-0.09751485
42	0xbe4edaa5	-0.20200594
43	0xbd79bb7c	-0.060969815
44	0x3e967bda	0.29391366
45	0xbdf63584	-0.12021926
46	0x3e38c560	0.18044043
47	0xbe52a878	-0.20572078
48	0x3e083478	0.13301265
49	0x3e1c70e3	0.15277438
50	0xbe980b71	-0.2969623
51	0xbe660d3e	-0.22465989
52	0x3e8d1def	0.275619
53	0x3e8d65df	0.27616784
54	0xbe8a63f6	-0.2702939
55	0xbe3dfcac	-0.18553418
56	0xbd3107de	-0.043220393
57	0x3be1f23d	0.006895332
58	0xbe98c1e6	-0.29835433
59	0xbe125237	-0.14289175
60	0xbdbce369	-0.092230625
61	0x3e58869c	0.211451
62	0xbe7b4008	-0.24536145
63	0x3e20b430	0.15693736

branch_theta_z.2.weight f4 [16, 64]
0	0x3d0e5754	0.03475125
1	0xbd87fe60	-0.06640315
2	0xbd6e647c	-0.058201298
3	0xbb5c0540	-0.0033572465
4	0x3d4633f0	0.048389375
5	0x3d8f0cc2	0.06984855
6	0xbd8e28ca	-0.06941374
7	0xbdf50e56	-0.11965625
8	0x3dd1f820	0.10252404
9	0x3dd6a718	0.10481089
10	0x3c176270	0.009239778
11	0xbc0cdea0	-0.008598
12	0xbdf7aa54	-0.120930344
13	0xbd875ea6	-0.0660985
14	0xbc8bd200	-0.01706791
15	0xbdb3b354	-0.087744385
16	0x3d0836e8	0.033255488
17	0xbc704790	-0.014665499
18	0xbdcbefb4	-0.09957829
19	0x3d2b0e94	0.04176195
20	0xbd139d74	-0.03603883
21	0xbde28974	-0.11061373
22	0xbdc0de48	-0.09417397
23	0x3d826c84	0.06368354
24	0xbd9d82f6	-0.076909944
25	0xbda46a6c	-0.08028111
26	0x3ca26710	0.019824535
27	0x3dc6c65a	0.09705801
28	0x3ce0b600	0.027430534
29	0xbdd01a02	-0.101612106
30	0x3d9cba24	0.07652691
31	0x3d184dc0	0.037183523
32	0x3d93a37e	0.07208918
33	0x3d868804	0.06568912
34	0x3ddc873a	0.1076798
35	0xbc87a998	-0.01656036
36	0x3d9f4b8e	0.07778083
37	0xbc87caf0	-0.01657626
38	0xbdb1187e	-0.0864725
39	0xbde6bb2a	-0.112661675
40	0xbdb72fe8	-0.08944684
41	0x3df24948	0.118303835
42	0x3cfdc618	0.030978248
43	0xbdd5d582	-0.10441114
44	0xbd645f84	-0.055755153
45	0xbd92933e	-0.071569905
46	0x3daceda0	0.08443761
47	0xbbc74580	-0.006081283
48	0xbd887a86	-0.066639945
49	0xbd1ffc04	-0.0390587
50	0x3d5ee940	0.054421663
51	0x3dea3422	0.11435725
52	0x3dbf5186	0.09341721
53	0xbda2ca90	-0.07948792
54	0xbdf1cd82	-0.11806776
55	0xbd9e38b4	-0.07725659
56	0xbd2884d4	-0.0411423
57	0xbcf5c218	-0.029999778
58	0x3deaa636	0.114574835
59	0x3de2ccc8	0.11074215
60	0x3d8fef16	0.07028024
61	0xbdf4981a	-0.119430736
62	0xbd21c228	-0.039491802
63	0xbd59493c	-0.053048357
64	0xbccf4d78	-0.025305495
65	0x3dbe185a	0.092819884
66	0x3d101840	0.035179377
67	0x3d698110	0.05700785
68	0x3d9e963c	0.07743499
69	0x3cef2680	0.029193163
70	0xbc0b6c90	-0.00850977
71	0x3da8dde0	0.08245444
72	0xbd0d9db0	-0.03457421
73	0x3d6f50c4	0.058426633
74	0x3b825c00	0.0039782524
75	0x3d9f0e42	0.07766391
76	0x3d4eb148	0.050462037
77	0xbd63cbd0	-0.055614293
78	0xbdc2f0a4	-0.09518555
79	0x3c5dc840	0.013536513
80	0xbdb3729c	-0.087620944
81	0x3c2cf7d0	0.01055713
82	0xbdc72eae	-0.097257
83	0xbdf3fcae	-0.11913429
84	0x3d8a7572	0.06760682
85	0xbc9e2370	-0.019304007
86	0x3c502fa0	0.012706667
87	0x3db95ccc	0.09050903
88	0x3da4ba86	0.08043389
89	0xbdc6fb70	-0.09715927
90	0x3ddab698	0.10679358
91	0xbd1b6bc8	-0.037944585
92	0xbc4e7d10	-0.012603059
93	0xbd726794	-0.05918081
94	0x3db7b4e6	0.089700505
95	0x3d967980	0.07347393
96	0x3dbd9d56	0.09258525
97	0xbdf1f620	-0.11814523
98	0x3d20ced0	0.03925973
99	0x3d4d493c	0.05011867
100	0xbd3862a4	-0.045015946
101	0x3c20ec90	0.009822026
102	0xbce11040	-0.027473569
103	0x3dbcfeae	0.09228264
104	0xbdaecf12	-0.08535589
105	0x3d05f390	0.032702982
106	0x3dca0c52	0.09865631
107	0x3d522010	0.05130011
108	0xbdf4d5e4	-0.11954859
109	0xbd6c3a38	-0.05767271
110	0x3d0ac84c	0.033882424
111	0x3dc662d6	0.0968682
112	0x3d087394	0.03331335
113	0xbd05d004	-0.032669082
114	0xbd4005a4	-0.04688038
115	0x3d9246b8	0.07142395
116	0xbdf34cc0	-0.11879873
117	0x3c9e93c0	0.019357562
118	0xbdfc5578	-0.12320989
119	0xbd38774c	-0.045035645
120	0x3d61976c	0.055076048
121	0xbc108620	-0.00882104
122	0xbd3ec758	-0.046576828
123	0xbd917e5a	-0.07104178
124	0x3d81cda8	0.06338054
125	0x3d57edac	0.052716896
126	0x3bde2dc0	0.006780356
127	0xbddcb448	-0.107765734
128	0x3dcb2378	0.099188745
129	0xbd6db0d8	-0.05802998
130	0x3cca2598	0.02467613
131	0x3d4f5ea8	0.05062738
132	0xbdc721e6	-0.097232625
133	0xbd7c5cec	-0.061612055
134	0xbde818dc	-0.113328665
135	0x3d15d640	0.036581278
136	0xbd12ef48	-0.035872728
137	0x3d0737cc	0.033012196
138	0xbdf7505e	-0.12075876
139	0xbde7f00c	-0.11325082
140	0x3d3c0ae8	0.04590884
141	0x3caad118	0.020851657
142	0xbd80feac	-0.06298575
143	0xbdd5df16	-0.10442941
144	0x3d90f6a6	0.070782945
145	0x3d356ea0	0.044294953
146	0x3cfddfd0	0.030990511
147	0xbda91f9e	-0.082579836
148	0x3d83ac7a	0.06429382
149	0xbce47850	-0.0278894
150	0xbd550958	-0.052010864
151	0x3cab4738	0.020907983
152	0x3ddb7dd8	0.10717362
153	0xbdfe1378	-0.12406057
154	0x3bd76060	0.006572768
155	0x3d7bf368	0.061511427
156	0xb9592400	-0.00020708144
157	0x3dd616c2	0.104535595
158	0xbd8b86ea	-0.06812842
159	0x3cba2a48	0.02272524
160	0xbd4e9de4	-0.050443545
161	0x3dd23efe	0.10265921
162	0xbd629760	-0.055320144
163	0x3d261150	0.040543854
164	0x3d6c44f8	0.05768296
165	0x3dd0ace4	0.10189226
166	0xbd9406bc	-0.07227847
167	0x3dc15108	0.094392836
168	0x3dfb3f4e	0.12267934
169	0x3d308bd0	0.043102086
170	0x3bcf2020	0.0063209683
171	0x38863000	6.3985586e-05
172	0xbde88600	-0.113536835
173	0xbd95cb9e	-0.073142275
174	0x3d8e3250	0.0694319
175	0x3c625220	0.013813525
176	0xbd324b1c	-0.04352866
177	0x3d4fc374	0.050723508
178	0xbdf2d898	-0.11857718
179	0xbd1566a8	-0.036474854
180	0x3d356338	0.044284075
181	0xbcb54c88	-0.02213122
182	0x3d2627f8	0.04056546
183	0xbd5d2eb8	-0.053999633
184	0x3d965560	0.07340503
185	0x3cfd5110	0.030922443
186	0x3db1e53a	0.086862996
187	0xbdffba08	-0.124866545
188	0x3dbc8cb4	0.092065245
189	0xbd0390e8	-0.032120615
190	0xbdc02446	-0.093819186
191	0xbca69ed8	-0.020339414
192	0xbdd6664e	-0.10468732
193	0xbd80f316	-0.06296365
194	0x3d13f1c8	0.036119252
195	0x3d0df744	0.03465964
196	0xbcc9f9b8	-0.024655208
197	0x3d598a54	0.053110436
198	0xbdf4e6ca	-0.11958082
199	0xbd15a31c	-0.036532506
200	0xbd92cc2c	-0.07167849
201	0xbd8378e0	-0.064195395
202	0x3db60170	0.08886993
203	0xbcd339b0	-0.025784343
204	0xbdc875c4	-0.09788087
205	0x3ccc0708	0.024905697
206	0x3dd5cf40	0.104399204
207	0x3d7649d0	0.060128987
208	0xbd9959f6	-0.07487862
209	0xbd12c2fc	-0.035830483
210	0x3c1c21d0	0.009529546
211	0x3dfe4002	0.12414552
212	0xbb4521c0	-0.003007993
213	0xbc93d9e8	-0.018048242
214	0x3dfd13ce	0.12357293
215	0x3d89333a	0.06699224
216	0xbda0f3d8	-0.078590095
217	0x3d1a1cc0	0.037625074
218	0xbd4b1228	-0.049577862
219	0xbdf575e4	-0.119853765
220	0xbd9b93a4	-0.075965196
221	0xbde99260	-0.11404872
222	0xbd987f14	-0.07446113
223	0x3d0dd908	0.034630805
224	0xbbc16b80	-0.0059027076
225	0x3d9cc252	0.07654251
226	0xbd8d5fda	-0.06903048
227	0xbda55688	-0.08073145
228	0x3db19786	0.08671479
229	0x3d1a4c1c	0.03767024
230	0x3d4963ac	0.04916732
231	0x3d8a9012	0.067657605
232	0x3bf7b0e0	0.007558927
233	0x3d88e28c	0.066838354
234	0xbc296790	-0.010339633
235	0x3d6616d4	0.056174114
236	0x3cc30cf8	0.023809895
237	0x3da07c86	0.07836251
238	0x3dd6b84c	0.104843706
239	0xbd919028	-0.07107574
240	0xbca1b298	-0.01973848
241	0xbdd90898	-0.10597342
242	0xbc9b4970	-0.018955916
243	0xbc946b88	-0.018117681
244	0x3d83447c	0.06409547
245	0xbbfc1ee0	-0.0076941103
246	0x3cbff310	0.02343133
247	0x3b893820	0.004187599
248	0x3d8be4b6	0.068307325
249	0xbdb44df8	-0.08803934
250	0x3cb9c518	0.02267699
251	0xbd4164c0	-0.047215223
252	0xbdc58a46	-0.09645514
253	0x3dd61fb6	0.10455267
254	0x3d99fdec	0.07519135
255	0xbca40c80	-0.020025492

branch_theta_z.2.bias f4 [16]
0	0x3dd204fe	0.102548584
1	0xbc0100b0	-0.007873699
2	0xbd5f72d8	-0.054552883
3	0xbd959252	-0.07303299
4	0x3db833fe	0.08994292
5	0x3c7752d0	0.015095428
6	0x3df40d7a	0.11916633
7	0x3cfba8b0	0.030720085
8	0xbd00186c	-0.03127329
9	0xbd97aa00	-0.07405472
10	0xbdf7509c	-0.12075922
11	0xbd309138	-0.04310724
12	0x3d2e4d9c	0.042554483
13	0xbd4943ac	-0.049136803
14	0xbd79980c	-0.06093602
15	0x3ceca6b0	0.028888077

branch_theta_z.4.weight f4 [1, 16]
0	0x3d2707e8	0.040779024
1	0xbe15ba32	-0.14621809
2	0xbd26c798	-0.04071769
3	0xbcd63c10	-0.026151687
4	0xbe19d928	-0.15024245
5	0x3e196e00	0.14983368
6	0x3cf4c2a0	0.02987796
7	0xbc67e160	-0.014152855
8	0x3e3d346c	0.18477029
9	0xbd53f890	-0.05175072
10	0x3dd8aa40	0.105793476
11	0xbc2ed360	-0.010670513
12	0xbe5df676	-0.21676049
13	0xbd7fbc40	-0.06243539
14	0xbe1c8ed8	-0.15288866
15	0x3e4796e0	0.19491148

branch_theta_x.0.weight f4 [64, 11]
0	0x3e80b9e6	0.2514183
1	0xbde5d197	-0.11221617
2	0x3d921899	0.07133598
3	0xbca50bc4	-0.020147212
4	0xbbf73099	-0.007543635
5	0x3dfa94d2	0.122354165
6	0xbe84d938	-0.25946975
7	0xbc8579d4	-0.016293444
8	0x3dc75b13	0.09734168
9	0x3dc119f9	0.09428782
10	0xbe82c21d	-0.25538722
11	0xbdec7366	-0.11545448
12	0x3e3fe1b1	0.18738438
13	0xbd7066e0	-0.05869186
14	0x3e54eb66	0.20792922
15	0xbe8e9e76	-0.2785527
16	0xbe995bb6	-0.29952782
17	0xbbaf2b7b	-0.0053457594
18	0x3dd01eec	0.10162148
19	0xbe1b8b2c	-0.15189809
20	0xbe73cfee	-0.23809788
21	0x3d610b35	0.05494233
22	0x3dc6865b	0.09693595
23	0xbd55b498	-0.05217418
24	0xbda0ff3a	-0.078611806
25	0xbe777963	-0.24167399
26	0xbe01b366	-0.12666091
27	0x3e2b2ad3	0.16715555
28	0x3e1c2526	0.15248546
29	0x3de065e7	0.10956936
30	0xbe66620b	-0.22498338
31	0xbe0bf20d	-0.13666554
32	0xbd19f040	-0.037582636
33	0xbe2fd998	-0.17172849
34	0xbe52a304	-0.20569998
35	0x3e88b526	0.26700705
36	0x3d3f16b5	0.046652514
37	0x3e8a1c10	0.26974535
38	0x3dab05ef	0.08350741
39	0x3e1ffedb	0.15624563
40	0x3e6e5120	0.23273134
41	0x3e1ec47c	0.1550464
42	0xbd2c69d5	-0.042093117
43	0x3db58011	0.08862317
44	0xbe234ffd	-0.15948482
45	0x3e72569e	0.23665854
46	0xbe927fec	-0.28613222
47	0xbe378819	-0.17923011
48	0x3d0dfb4e	0.03466349
49	0x3db8641c	0.09003469
50	0x3c6fe79a	0.01464262
51	0x3d9f0b57	0.07765835
52	0x3e8cdd71	0.27512696
53	0x3c91a207	0.017777456
54	0x3e8c5dfc	0.27415454
55	0x3dc5e28b	0.0966235
56	0xbde685e0	-0.112560034
57	0x3c3c0d1c	0.011477735
58	0xbe296580	-0.16542625
59	0x3dbc2393	0.09186473
60	0xbdeb1bc5	-0.11479906
61	0xbe450b9d	-0.19242711
62	0xbb8755c4	-0.004130097
63	0x3d98afe5	0.07455424
64	0x3e753dc7	0.23949347
65	0x3d77fd8d	0.06054454
66	0x3e963ee6	0.29344863
67	0x3e92a247	0.28639433
68	0x3e56a702	0.20962146
69	0x3d8dbe3b	0.06921049
70	0x3e3f49b8	0.18680465
71	0x3e8ac15e	0.27100652
72	0x3e99b81f	0.30023286
73	0xbe974434	-0.29544222
74	0xbe6a886f	-0.22903608
75	0x3e23e7e0	0.16006422
76	0xbe5c6427	-0.2152258
77	0xbe931a8d	-0.28731194
78	0x3e07e0a8	0.13269293
79	0x3d0f816d	0.03503554
80	0xbe37c01d	-0.17944379
81	0xbde72348	-0.11286026
82	0xbe618504	-0.22023398
83	0x3d35ffdf	0.04443347
84	0x3e48404f	0.19555782
85	0xbcc146eb	-0.023593387
86	0xbdccdf25	-0.10003499
87	0x3e05d823	0.13070731
88	0xbd5312a4	-0.05153145
89	0xbdf34748	-0.1187883
90	0x3cf72af2	0.030171845
91	0xbe8d42bc	-0.27589977
92	0x3e4601fc	0.19336694
93	0xbdc7ee9b	-0.09762307
94	0xbe84f644	-0.25969136
95	0x3e553b71	0.20823456
96	0xbe9689ab	-0.29401907
97	0xbe6d1e2d	-0.23156042
98	0xbe0dca4d	-0.13846703
99	0xbe1a8092	-0.15088108
100	0x3e6532c9	0.22382654
101	0x3de44285	0.111455
102	0xbe873636	-0.26408547
103	0x3db04781	0.08607388
104	0x3dba7d45	0.091059245
105	0xbdadfa69	-0.084950276
106	0xbdc6e1ec	-0.0971106
107	0xbe3267c0	-0.1742239
108	0xbe3d39c1	-0.18479063
109	0x3e2bb49d	0.16768117
110	0x3e930095	0.28711382
111	0xbdf36179	-0.11883826
112	0xbe808509	-0.25101498
113	0xbd03a5ec	-0.032140657
114	0x3d09c4cd	0.03363495
115	0xbcde4222	-0.027131144
116	0xbdd2d301	-0.10294152
117	0x3e83246c	0.25613725
118	0xbe653d82	-0.22386745
119	0xbdedc916	-0.1161062
120	0xbda27dc0	-0.07934141
121	0xbe81d782	-0.25359732
122	0x3e0b8d5d	0.13628145
123	0x3e97790d	0.29584542
124	0x3e8d6854	0.2761866
125	0x3e4d6199	0.20056762
126	0xbdf04d79	-0.11733527
127	0x3e8c0d49	0.27353886
128	0xbe1c339d	-0.15254064
129	0x3e264ab8	0.1623944
130	0xbdbc0b0a	-0.09181793
131	0x3e99144d	0.298983
132	0xbe38b991	-0.18039538
133	0x3e04272f	0.12905572
134	0xbdb44f7c	-0.08804223
135	0xbe8e4523	-0.27787122
136	0x3ddf2ec3	0.10897591
137	0x3e308a6a	0.17240301
138	0x3e445548	0.19173157
139	0xbdac02ca	-0.083989695
140	0xbbb66be3	-0.0055670603
141	0xbdeea007	-0.116516165
142	0x3d20dfe3	0.039276015
143	0xbc113386	-0.008862382
144	0xbe59a07a	-0.21252623
145	0x3e644551	0.22292067
146	0xbbc03052	-0.005865135
147	0xbe99413b	-0.2993258
148	0xbe62930c	-0.22126406
149	0xbcda8f76	-0.026679736
150	0x3d2fd1fe	0.042924874
151	0x3e940df1	0.28916886
152	0xbe7845de	-0.24245402
153	0x3e1eb8ad	0.15500136
154	0x3e4b99a3	0.19882827
155	0x3e844579	0.25834253
156	0xbe33ca3f	-0.1755762
157	0xbe26c3cb	-0.16285627
158	0x3df1a446	0.11798911
159	0xbc83d100	-0.01609087
160	0x3e670d48	0.2256366
161	0x3d3b30be	0.04570078
162	0x3e4f749b	0.20259325
163	0xbcee4919	-0.02908759
164	0xbe2f1e3e	-0.1710138
165	0xbe6d6ab9	-0.23185243
166	0x3e58a597	0.21156918
167	0x3dd2f70d	0.103010274
168	0x3e90dcdd	0.28293505
169	0xbe53f775	-0.20699866
170	0x3dd61189	0.10452563
171	0x3e664997	0.2248901
172	0x3e892dcf	0.26792762
173	0xbd781d83	-0.06057502
174	0x3d5adcfd	0.053433407
175	0xbad5fbca	-0.0016325649
176	0x3e9525db	0.29130444
177	0x3d0ab43d	0.033863295
178	0xbe45de7b	-0.19323151
179	0xbe6b0604	-0.22951514
180	0x3e2240ad	0.15844984
181	0xbe2e1c43	-0.17002968
182	0xbe92fb9c	-0.28707588
183	0xbd9756a0	-0.07389569
184	0x3dfc2a50	0.12312758
185	0xbdbb17a5	-0.09135369
186	0x3e91fe2e	0.28514236
187	0xbe914ab7	-0.28377315
188	0xbc363d9b	-0.011123086
189	0xbe1587e1	-0.14602615
190	0x3e62bdcc	0.22142714
191	0xbe8f4a7e	-0.2798652
192	0xbe06b519	-0.13155021
193	0x3ca9bd5d	0.020720178
194	0xbe6df661	-0.23238517
195	0xbe8a5e27	-0.27024958
196	0x3e0a909f	0.13531731
197	0x3e4f877a	0.20266524
198	0x3e9803e9	0.29690483
199	0x3b2c5a91	0.00262991
200	0xbc1ff3f4	-0.009762753
201	0xbe2cc3bb	-0.1687154
202	0x3e8fcdc0	0.28086662
203	0xbdba7e53	-0.09106126
204	0x3e85435b	0.2602795
205	0x3d8dada1	0.06917883
206	0x3e0cd6ac	0.13753766
207	0x3e36ab73	0.1783884
208	0xbdd99aef	-0.10625254
209	0x3e78360c	0.24239367
210	0xbe308310	-0.17237496
211	0x3e2b3c43	0.16722207
212	0x3e6bdb69	0.23032917
213	0xbe93187a	-0.28729612
214	0xbd8445db	-0.064586364
215	0xbdf248d3	-0.11830296
216	0x3e3de265	0.18543394
217	0x3e7e363d	0.24825378
218	0xbe4c8ba0	-0.19975138
219	0xbda06c03	-0.078331016
220	0x3e4526c2	0.19253066
221	0xbe4ad619	-0.19808234
222	0x3e3ebf58	0.1862768
223	0xbc48b270	-0.012249574
224	0x3d9b38e1	0.07579208
225	0x3e9577b3	0.29192886
226	0x3e8d6627	0.27617
227	0x3e092114	0.13391525
228	0x3e70cd06	0.2351571
229	0xbe904918	-0.28180766
230	0xbe660ba4	-0.22465378
231	0x3e39cf88	0.18145573
232	0xbd8e04b1	-0.069344886
233	0xbe82b253	-0.25526676
234	0x3e8a3020	0.2698984
235	0x3e238316	0.15967974
236	0x3db4a327	0.08820181
237	0xbe91bebb	-0.28465828
238	0x3de5d709	0.11222655
239	0x3e47ef19	0.19524802
240	0xbda04882	-0.0782633
241	0x3e3811d3	0.1797555
242	0xbe53bc56	-0.20677313
243	0x3e6a020c	0.22852343
244	0xbd93c74f	-0.072157495
245	0xbe38d01d	-0.18048139
246	0x3e2a81f0	0.1665113
247	0x3e06f424	0.1317907
248	0xbe921380	-0.28530502
249	0xbe397905	-0.18112572
250	0xbe0fd526	-0.14046153
251	0xbc9f5b50	-0.01945272
252	0xbdfd5ba7	-0.12370997
253	0xbe49aefe	-0.1969566
254	0xbe703683	-0.23458295
255	0x3e783524	0.24239022

branch_theta_x.0.bias f4 [64]
0	0x3dbf0733	0.09327545
1	0x3ddab327	0.10678702
2	0x3d8dae62	0.069180265
3	0x3d7348f0	0.05939573
4	0x3e2edf79	0.17077436
5	0x3db59ae7	0.08867436
6	0x3e9774ed	0.29581395
7	0xbcde408c	-0.027130388
8	0xbe60edb9	-0.21965684
9	0x3e1e7dcc	0.15477675
10	0x3e3f8712	0.18703869
11	0xbe98caaf	-0.29842135
12	0xbdc8651a	-0.097849086
13	0x3d09e35e	0.0336641
14	0x3e9847ea	0.29742366
15	0x3ce29460	0.027658641
16	0x3ca4f30b	0.020135423
17	0xbd44153b	-0.04787181
18	0xba92d133	-0.0011201262
19	0x3d894621	0.06702829
20	0x3ca27e8a	0.01983573
21	0x3e59bd1e	0.21263549
22	0x3e47180e	0.1944277
23	0xbe7d975c	-0.2476477
24	0xbe95ae04	-0.29234326
25	0xbd4b6bfc	-0.04966353
26	0xbe1125df	-0.14174603
27	0xbe94cc18	-0.2906196
28	0xbd881318	-0.06644267
29	0x3e449049	0.19195665
30	0x3e2f8c68	0.17143404
31	0x3e929c42	0.2863484
32	0xbe2bc128	-0.16772902
33	0xbdd52a33	-0.104084395
34	0xbe3e4c95	-0.18583901
35	0x3d35c223	0.044374596
36	0x3e8321d0	0.25611734
37	0x3e089ad2	0.1334031
38	0xbd96e5c9	-0.07368047
39	0xbd227fb6	-0.039672576
40	0xbdcbfd11	-0.09960378
41	0xbd921964	-0.07133749
42	0x3cbb031a	0.022828627
43	0xbdfdf8cc	-0.1240097
44	0xbd6e7e33	-0.05822582
45	0xbdb38973	-0.08766451
46	0x3e39600f	0.1810305
47	0x3d7b55eb	0.061361235
48	0xbc9f4f54	-0.019447006
49	0x3d5cc890	0.05390221
50	0xbe18b593	-0.14913015
51	0xbd762407	-0.060092952
52	0xbe51e1e3	-0.20496325
53	0xbd06a865	-0.032875437
54	0x3e507b10	0.20359445
55	0x3e513fca	0.2043449
56	0xbe92424e	-0.2856621
57	0xbe6c4174	-0.23071843
58	0xbda8afbd	-0.082366444
59	0x3e1bfd2e	0.15233299
60	0x3c01b5bf	0.007916867
61	0xbe9246ec	-0.28569734
62	0x3e401a18	0.18759954
63	0x3e80d984	0.2516595

branch_theta_x.2.weight f4 [16, 64]
0	0x3bb3a020	0.005481735
1	0x3d9537d8	0.07286042
2	0xbdd7c076	-0.10534756
3	0x3df1e0c2	0.11810447
4	0x3dbb35ee	0.09141146
5	0xbde5c2be	-0.11218785
6	0xbd8bd52c	-0.06827769
7	0xbba69200	-0.0050833225
8	0xbd3cae10	-0.046064436
9	0x3d8cf2dc	0.06882259
10	0xbdd40f34	-0.10354462
11	0xbdd2a592	-0.10285486
12	0x3d5aa650	0.053381264
13	0xbbf60d20	-0.007508889
14	0x3c900b30	0.01758346
15	0xbc9fe1a0	-0.019516766
16	0x3daf427c	0.08557603
17	0xbd779764	-0.06044711
18	0xbced80a0	-0.028991997
19	0xbd8cc622	-0.06873728
20	0x3d7f9550	0.062398255
21	0x3d6dcb9c	0.058055505
22	0x3df88328	0.12134391
23	0x3d63549c	0.05550061
24	0xbd722974	-0.059121564
25	0xbdab467c	-0.08363053
26	0xbd55f2f8	-0.052233666
27	0x3d82dfb0	0.06390321
28	0x3d5b2b38	0.053508013
29	0xbdbd3dec	-0.09240326
30	0xbdc3d89c	-0.09562799
31	0x3d150234	0.036379054
32	0x3dc2bfb2	0.09509219
33	0x3d85c22a	0.065311745
34	0xbd03eb1c	-0.03220664
35	0xbd704058	-0.058655113
36	0xbd6caccc	-0.05778198
37	0x3a9daa00	0.0012028813
38	0xbd43b644	-0.047781244
39	0x3def7e24	0.11693981
40	0x3d29b49c	0.04143201
41	0xbdf36e26	-0.118862435
42	0x3cec05e0	0.028811395
43	0x3d496068	0.049164206
44	0x3d93d560	0.072184324
45	0x3db3c3ac	0.08777556
46	0x3c9b5730	0.018962473
47	0xbdc39d14	-0.09551445
48	0xbd14dce0	-0.036343455
49	0x3dea0aea	0.11427863
50	0x3ca63c88	0.020292535
51	0x3d863768	0.06553537
52	0xbd92a07a	-0.07159515
53	0xbd922cb4	-0.07137433
54	0x3df33624	0.11875561
55	0xbdf1c6f0	-0.118055224
56	0x3ddcfeae	0.10790764
57	0xbd1972b4	-0.037462905
58	0x3dbed7f0	0.093185306
59	0x3dc404c2	0.0957122
60	0xbd21a2e8	-0.039462
61	0x3ce78d28	0.02826555
62	0xbca1ad60	-0.019735992
63	0xbcc09980	-0.023510695
64	0xbd2e9644	-0.042623773
65	0xbde3de4e	-0.11126386
66	0xbd6507e4	-0.05591573
67	0xbdbf9dcc	-0.09356269
68	0xbd8d7c84	-0.06908515
69	0xbdc41ed2	-0.09576191
70	0x3bf7d380	0.0075630546
71	0xbdaa9692	-0.083295
72	0x3da82bc6	0.08211474
73	0xbcc7efe8	-0.024406388
74	0x3dd4c6c0	0.10389471
75	0x3d641d54	0.055692032
76	0xbd7f8e08	-0.06239131
77	0xbdce575e	-0.10075258
78	0xbde32d74	-0.11092654
79	0xbdef0022	-0.11669947
80	0x3da8bfaa	0.08239682
81	0xbd486898	-0.048927873
82	0x3cf13410	0.02944377
83	0xbde83106	-0.113374755
84	0x3dd1f95e	0.10252641
85	0x3d49afac	0.0492398
86	0xbdcceb30	-0.10005796
87	0xbdc85b88	-0.09783083
88	0x3db3b1bc	0.087741345
89	0x3c8b0380	0.016969442
90	0x3dace19e	0.084414706
91	0xbdf6b5ce	-0.12046395
92	0x3de856c4	0.11344674
93	0xbde14cf4	-0.11001006
94	0xbdc93928	-0.09825355
95	0x3dcb4df0	0.09926975
96	0x3d85c57e	0.06531809
97	0xbd5b6aa0	-0.053568482
98	0x3dc8ff52	0.098143235
99	0xbdb94ed8	-0.090482414
100	0x3cb45590	0.022013456
101	0xbd4dd90c	-0.05025582
102	0xbdc9e136	-0.09857409
103	0xbda50074	-0.08056727
104	0xbd8e7344	-0.06955579
105	0x3caf3ac0	0.021390319
106	0xbde97920	-0.11400056
107	0x3d771e0c	0.06033139
108	0x3d397fd4	0.045287922
109	0xbc153cc0	-0.009108722
110	0xbc604100	-0.013687372
111	0x3c6ef030	0.014583632
112	0xbd7c21e8	-0.061555773
113	0x3d30acdc	0.0431336
114	0xbd501e40	-0.0508101
115	0x3b5c0d40	0.0033577234
116	0x3d93d936	0.07219164
117	0xbd9c1a9a	-0.07622261
118	0xbce729b8	-0.028218135
119	0xbd5b7c3c	-0.053585276
120	0xbd7c8fc4	-0.061660543
121	0x3dc419aa	0.095752075
122	0xbcb26018	-0.021774337
123	0x3cedf9b8	0.02904974
124	0x3dddd356	0.10831325
125	0xbdb2d6d4	-0.087323815
126	0x3dc08e56	0.094021484
127	0xbbebbe60	-0.0071943253
128	0xbdff5f9a	-0.124694064
129	0xbdb80a96	-0.08986394
130	0x3dec2884	0.11531165
131	0x3cbd1928	0.023083284
132	0x3df136ae	0.117780074
133	0xbdc716f0	-0.09721172
134	0xbdc02cac	-0.093835205
135	0x3d3bbefc	0.045836434
136	0x3de980d0	0.11401522
137	0xbcedebb0	-0.029043049
138	0x3b55a340	0.0032598525
139	0x3c71eb10	0.014765516
140	0xbd57837c	-0.052615628
141	0x3dd64580	0.10462475
142	0xbdf370ec	-0.118867725
143	0xbdfb8f02	-0.12283136
144	0x3d891d92	0.06695093
145	0x3d3a3e48	0.045469552
146	0x3d7f307c	0.062302098
147	0xbbbf7de0	-0.005843863
148	0xbdeed0fa	-0.11660953
149	0xbdc3c8ae	-0.09559761
150	0x3dea42ec	0.114385456
151	0x3d6a6e34	0.057234004
152	0x3cce8fe8	0.025215104
153	0xbd7466b8	-0.059668273
154	0x3de72806	0.11286931
155	0x3d941936	0.07231371
156	0x3daef05a	0.08541937
157	0xbddd43be	-0.108039364
158	0xbd9d6894	-0.07685962
159	0xbc59be10	-0.013289943
160	0x3dc9ee04	0.09859851
161	0x3d605ad0	0.054774106
162	0xbd369dc4	-0.04458405
163	0x3def2ebe	0.11678837
164	0x3dfe331e	0.124120936
165	0x3def699a	0.11690064
166	0xbd98461c	-0.07435247
167	0x3d56d604	0.052450195
168	0x3c7b32b0	0.015331909
169	0xbd6775f8	-0.05650899
170	0x3d6fcca0	0.058544755
171	0x3d977d34	0.073969275
172	0x3df3ad5a	0.118982986
173	0x3dba6f04	0.09103206
174	0xbc1ff800	-0.009763718
175	0x3dafd9ac	0.085864395
176	0xbdf0cfd6	-0.117583916
177	0xbd4e0da8	-0.050305992
178	0xbce22878	-0.027607188
179	0x3d8c98f0	0.06865108
180	0xbdc0d1d4	-0.094150215
181	0x3dc001d8	0.09375352
182	0xbc882978	-0.016621336
183	0xbd14e4dc	-0.03635107
184	0x3d884af0	0.06654918
185	0x3d9e3ff4	0.07727042
186	0xbd7d1270	-0.06178516
187	0x3c985280	0.018594027
188	0xbd926dca	-0.07149847
189	0xbd82f9ba	-0.06395288
190	0x39f2d200	0.000463143
191	0x3dc0d960	0.09416461
192	0x3b0d7200	0.0021582842
193	0x3d7236fc	0.05913447
194	0x3cf2be38	0.029631719
195	0xbdc7863e	-0.097424015
196	0xbdf38632	-0.1189083
197	0x3d06e084	0.03292896
198	0x3cbec740	0.02328837
199	0x3c6d7030	0.01449208
200	0xbd80b8aa	-0.06285222
201	0x3d1502e0	0.036379695
202	0x3dffcf58	0.124907196
203	0xbd77cbbc	-0.06049703
204	0x3d46def4	0.04855247
205	0xbd9abbec	-0.075553745
206	0xbd15f578	-0.03661105
207	0xbd0636fc	-0.03276728
208	0xbd43e630	-0.047826946
209	0x3d8419d6	0.0645024
210	0x3dc5fa46	0.096668765
211	0x3d3d7720	0.046256185
212	0x3de66c54	0.11251131
213	0x3d9bf394	0.07614818
214	0xbda6ddaa	-0.08147748
215	0xbca84940	-0.02054274
216	0xbdd40cc6	-0.10353999
217	0xbdd670de	-0.104707465
218	0xbd050ff4	-0.032485917
219	0xbde712b8	-0.11282867
220	0xbd9b765e	-0.07590936
221	0xbd6a41cc	-0.057191655
222	0xbd69e668	-0.0571045
223	0x3d4b7ab8	0.04967758
224	0xbd754fb4	-0.059890464
225	0xbddc1412	-0.107460156
226	0x3dba8cd6	0.091088936
227	0xbddc585a	-0.10759039
228	0x3d9ea474	0.07746211
229	0xbdd7a9f4	-0.10530463
230	0x3dad07da	0.08448763
231	0xbd660440	-0.056156397
232	0x3cdb2eb8	0.026755676
233	0xbcc00388	-0.023439184
234	0x3dcc7c92	0.099846974
235	0x3c16cdd0	0.009204343
236	0xbdd94d72	-0.10610475
237	0xbd2c3984	-0.04204704
238	0x3dba53a0	0.090979815
239	0x3dbf73a6	0.0934823
240	0xbc43b050	-0.011943892
241	0x3d7fff98	0.062499613
242	0x3dfdf40c	0.12400064
243	0xbd28a12c	-0.04116933
244	0xbc609770	-0.0137079805
245	0x3d8968ec	0.067094654
246	0xbdb0c3a8	-0.086310685
247	0x3b0b2040	0.002122894
248	0x3dd2eac2	0.10298683
249	0xbda33bb0	-0.07970369
250	0x3d425aec	0.04744999
251	0x3d650d08	0.05592063
252	0x3dece2cc	0.115666956
253	0xbdf52656	-0.119702026
254	0xbc9fdc28	-0.019514158
255	0x3cc2a4f0	0.023760289

branch_theta_x.2.bias f4 [16]
0	0x3c851538	0.01624547
1	0x3ddfcf22	0.10928179
2	0x3df17764	0.1179035
3	0x3dcc49c0	0.09975004
4	0xbdf40da2	-0.11916663
5	0x3d9e95ba	0.07743402
6	0x3dab8214	0.0837442
7	0x3df7f1fe	0.12106703
8	0xbcb93310	-0.022607356
9	0x3c1b1e30	0.0094676465
10	0x3ddd29ec	0.107990116
11	0xbd650a48	-0.055918008
12	0x3d17aa68	0.037027746
13	0xbd9fe64e	-0.07807599
14	0x3dd12dd6	0.10213821
15	0x3cb6f540	0.022333741

branch_theta_x.4.weight f4 [1, 16]
0	0xbd42f678	-0.047598332
1	0xbe7b943c	-0.24568266
2	0x3e3972ea	0.18110242
3	0xbe323c3e	-0.17405793
4	0x3cee20d0	0.02906838
5	0x3cf797a0	0.030223668
6	0x3e21bece	0.15795442
7	0xbdde2130	-0.10846174
8	0x3d99f31c	0.075170726
9	0xbdf0ee60	-0.117642164
10	0x3e54c7e4	0.20779377
11	0xbe7630b8	-0.24042022
12	0x373a8000	1.1116266e-05
13	0x3ca50830	0.020145506
14	0xbe60fd12	-0.21971539
15	0x3dc39cc0	0.09551382
