pthfiles/BASIS_FCN.pt (torch, 10776 bytes, 7 tensors)

theta_bias f4 [3]
00000000: 0000 0000 0000 0000 0000 0000
0.0 0.0 0.0

backbone.0.weight f4 [64, 11]
00000000: f999 533d 0666 843f 4efa 34bb 6c82 c03d
00000010: 7136 21bd 9508 ba3e 3ebd 323e 3947 dfbd
00000020: 9258 593d e992 3fbd 0ba7 943c 77c8 c8bb
00000030: e3c5 3d3f 3afe a2b9 8a02 94bd 8d24 893d
00000040: 697e 67bd a8de adbd da95 08be 0a89 49bd
00000050: 90a9 ef3d 6705 c73b 97d6 113e 9732 0ebf
00000060: fd05 0dbb 8cbd cbbe c8b6 173e 46fd aabd
00000070: e5ff 9a3e 521e 8b3e c51d a2be e257 ae3d
00000080: bdd2 cdbb 0d9f a93c d19e 29bf ebf7 933b
00000090: 8347 d3be 3c4f d13d 65b7 033f 502b 5abe
000000a0: e713 5e3d 6f4b 00bf bf3b acbe 5bfd 5f3b
000000b0: 93ac eebd 3381 38bf 033f 973b ba1e 7e3d
000000c0: a33e f5bd 958d b6be 7965 733e 1ef7 d9bd
000000d0: 6d32 bc3e 6b77 523e 09a6 b8bc 41f0 263e
000000e0: f6ec ddbe bf82 cc3a 3e84 edbe ff08 d63e
000000f0: f0e2 3dbe 70b1 a03e 8d39 323e e02a 05bd
00000100: 01f6 ffbd 5b63 7cbc 3100 3e3e 06bc 4abf
00000110: 0176 a1bb 7759 84be 390c 793e 59fb b0bd
00000120: 2e11 c53c f49d bbbd 0656 9cbe 0e97 e93d
00000130: 4b4e 45bc 4c8c 61be 3b52 e53e 526f 333b
00000140: 3b1a ab3e 0a76 623e 61cf 403e 2b06 83be
00000150: 9ed5 763e 715f 0f3e 0152 2fbe 8f36 113c
00000160: f945 07be 7947 3c3f c4e7 eeba f8fd c73e
00000170: c337 afbe 8adf 7a3e 0db3 54be 1a26 9d3c
00000180: 2d4f fdbd 8b87 42bd 4c4f ad3c 50a5 39be
00000190: 4d83 5c3f 698b 08bb f01b c6bb 5170 a1be
000001a0: 2720 3d3e 99e4 53be 610a aa3e 4434 eb3d
000001b0: 0b12 4d3e 1c27 313c 126c 6c3e bda6 8abe
000001c0: a503 de3a 47da d9be 8d52 173e 45b3 1b3f
000001d0: 40f8 a2be ba93 5b3e 00af e5be 32a3 c0be
000001e0: 920d 773b 7939 c0bd 9ab6 3b3f cc03 cfba
000001f0: 1126 90bc 64fd e4bd 9279 dd3d 2c84 513d
00000200: 6aa6 c53c d8fc e03c c213 2cbd fc48 4b3c
00000210: c716 433d d24e 0abf 6e79 4c3b 5514 a93e
00000220: 4a1d 01be 73e9 f5be 13f4 26bd f33b 623e
00000230: 48f9 813e eff5 91bd eb68 aeb8 8b89 8f3e
00000240: 0ec4 56bf 22a5 b6bb e84d 9bbe acbe 8b3e
00000250: b749 6abe b3b2 f4bb 965a c83e ce84 b1be
00000260: 2f42 aabd 1290 ffbb b85e ea3e 9948 523f
00000270: 7968 8aba df48 fb3e a9e7 01be a35c 3b3c
00000280: 53d0 d23d 6c4b c7bd a7f5 2c3d aeca eabc
00000290: e049 553c cb53 ddbc 9edc 543f 2b96 70b8
000002a0: c050 f13e f349 86be 9018 06be cc04 8f3e
000002b0: ff63 c0bd b3c2 093e 543f 283e 2e38 293c
000002c0: eee2 0d3d bd5a 563f 2559 a8bb 560b b3be
000002d0: e1e8 5bbe ffdb e83d caa6 9a3d 682d 14be
000002e0: 0cfc d3bd 0ef3 a63d 0708 723c ba65 d6bd
000002f0: d7c2 8a3f 8269 a8bb b6d2 4cbe 8277 d8be
00000300: 3cef 853e d618 eebc 6bdc 733d 3dc9 32be
00000310: dcad 363d b8e0 b63c caa4 46be 38f7 383f
00000320: d171 723a 8d63 973e e776 2fbd 79b7 68be
00000330: 49bb b93c f443 56be ea62 073e b26a fc3c
00000340: 8f37 0d3c 9ae6 d83e 59ef 50bf 5d75 35bb
00000350: e193 abbe 9247 cf3d 05de 833e 2d78 6abe
00000360: 9815 a13e a354 08bf 2b6a 103e c2a5 28bc
00000370: d8b3 1bbe be3c f83e 7039 5b3a 7fbc 873d
00000380: 31b2 843e 98ef e53d 79fe 8bbe f56a 6f3e
00000390: 542d 983e cf21 aa3d afa1 b93b 0fe9 653e
000003a0: 15b4 24bf 6f67 8fbb 02a4 3cbf 70e5 583e
000003b0: e4aa 4dbe e65f e8bd 0b16 0c3e 2f41 ffbe
000003c0: 0805 d03e 5f89 e7bb 9b9a 053f ceee 24be
000003d0: 3e9d 3d3a 0544 ddbe 51c3 89bd 9903 8e3e
000003e0: c35c 9abd eed4 05be 294b 14bf 591e 783d
000003f0: eabd f03b 1d99 c03e 40fd 5bbf 4d66 53bb
0.05166051 1.0343635 -0.0027615014 0.09399876 -0.03935856 0.36334673 0.17455003 -0.109022565
0.053062983 -0.046770964 0.018146059 -0.006127413 0.74130076 -0.0003108846 -0.07227047 0.06696425
-0.05651704 -0.08489734 -0.13338414 -0.049202956 0.11702263 0.006073642 0.14242016 -0.55545944
-0.0021518462 -0.3979305 0.1481582 -0.08349089 0.30273357 0.2717157 -0.31663337 0.08512856
-0.0062812255 0.020705724 -0.6625796 0.004515638 -0.41265497 0.10220191 0.5145171 -0.21305585
0.0542182 -0.501151 -0.33639333 0.0034178111 -0.1165401 -0.7207214 0.004615666 0.062041022
-0.11974838 -0.35654894 0.23769177 -0.10642837 0.36757222 0.20553367 -0.02254011 0.16302587
-0.4334485 0.001560293 -0.46389955 0.41803738 -0.18543601 0.31385374 0.17404766 -0.032511592
-0.124980934 -0.015404548 0.1855476 -0.7919315 -0.0049273972 -0.25849506 0.24321069 -0.08641691
0.024056043 -0.091609865 -0.3053438 0.114057645 -0.012042592 -0.22026175 0.447893 0.0027379584
0.3341845 0.22115341 0.18829109 -0.25590643 0.24104926 0.14001252 -0.17121126 0.008863105
-0.13210286 0.7354656 -0.001822703 0.3906095 -0.3422223 0.24499336 -0.20771427 0.019183207
-0.12368617 -0.047492545 0.021155976 -0.18129468 0.8613785 -0.0020835048 -0.006045811 -0.31531003
0.18469296 -0.20692672 0.33211043 0.11484578 0.20026414 0.010812547 0.230881 -0.27080336
0.0016938342 -0.42549345 0.14777584 0.6082042 -0.31830025 0.21443072 -0.44860077 -0.37624508
0.0037697298 -0.09385962 0.733255 -0.0015793978 -0.017596276 -0.11181143 0.10814203 0.05115144
0.024127204 0.027464315 -0.04201103 0.012407538 0.047629144 -0.5402652 0.0031200307 0.33023325
-0.12608829 -0.4802967 -0.04076011 0.22093181 0.253855 -0.07126986 -8.316509e-05 0.28034624
-0.83892906 -0.0055738846 -0.30332875 0.2729391 -0.22879682 -0.0074675917 0.39131612 -0.34671634
-0.08313405 -0.007799157 0.4577539 0.82142025 -0.00105597 0.49079034 -0.12686028 0.0114356605
0.10293641 -0.097311825 0.04222646 -0.028661098 0.013018101 -0.027017495 0.83149135 -5.7360314e-05
0.4713192 -0.26228294 -0.13095307 0.27933347 -0.09394073 0.13453178 0.16430408 0.010328336
0.034640245 0.83732206 -0.00513758 -0.34969586 -0.21475555 0.11370086 0.07551344 -0.14470446
-0.103508085 0.08151828 0.014772422 -0.104686216 1.084071 -0.0051395306 -0.20002255 -0.42278677
0.26159084 -0.029064577 0.05953638 -0.17459579 0.0445994 0.022323951 -0.193988 0.72252226
0.00092485273 0.2956814 -0.042838003 -0.2272624 0.022672312 -0.2092436 0.13221326 0.030812595
0.008619203 0.42363435 -0.81615216 -0.0027688362 -0.3351126 0.10121073 0.25755325 -0.22897406
0.31461787 -0.53254145 0.14103 -0.010293426 -0.15205324 0.48483843 0.0008362746 0.0662775
0.259172 0.112273395 -0.27342585 0.23380645 0.29722083 0.0830723 0.005665026 0.22452186
-0.64337283 -0.004376344 -0.73687756 0.21181273 -0.20084721 -0.11346416 0.13680284 -0.4985442
0.4062884 -0.0070659365 0.52189034 -0.16106722 0.0007233209 -0.43215957 -0.06726707 0.2773712
-0.07537224 -0.13069507 -0.57927185 0.060575817 0.0073468583 0.37616816 -0.85933304 -0.003225702

backbone.0.bias f4 [64]
00000000: 3fac e33d 5e9e 0e3e 1091 613d f97b b63e
00000010: d9d0 0bbc 6279 b13b f6e8 01bd 8a8e 143e
00000020: 8d74 883e b1e7 ae3d fbc0 a03e 91d6 003e
00000030: 29f9 073e 1020 003c 04c1 383e a5b6 193e
00000040: 98ca 0a3e fbd5 5a3e 600e 003e 7f81 313d
00000050: d521 0c3e 7b00 053d 8d48 9e3e b311 b53c
00000060: 2050 473e 3010 6b3e 12bb 223e 528b 42ba
00000070: a64f 823c 867b 953c 741b 2d3e ef9f b03e
00000080: 30e0 d83c ab58 823e de6b ec3d e152 0b3d
00000090: 8ebb 253e 7796 0d3e dd7f 1b3e d474 b93d
000000a0: 12f5 2a3e 51e4 8b3e 429a 303e 9f7d 133e
000000b0: 295c c13c abde 293d c38b 1d3e 27ab 353e
000000c0: fd19 ec3d ff35 bb3e 8094 103d c8f1 1e3e
000000d0: d68b c83d ab6d ce3c 4cae 393e 53a2 013b
000000e0: 54c5 3c3d d7bf fb3d 18a0 673e fd99 0e3d
000000f0: d013 803e 005f 273e bdd8 6c3c bc31 eb3d
0.11116838 0.139276 0.055069983 0.3564146 -0.00853368 0.0054160813 -0.03171631 0.145075
0.2665142 0.085402854 0.31397232 0.1258185 0.13278641 0.007820144 0.1804238 0.1501108
0.13553846 0.2137069 0.12505484 0.043336388 0.13684781 0.03247116 0.30914727 0.022103166
0.19464159 0.22955394 0.15891674 -0.0007421273 0.01590712 0.018247377 0.16905004 0.3449702
0.026474088 0.25458273 0.115440115 0.034014586 0.16184828 0.13826929 0.15185495 0.09055486
0.1669505 0.2732263 0.17246345 0.1440339 0.023603516 0.04147212 0.15385346 0.1774107
0.11528394 0.36564633 0.03529787 0.1552192 0.097922966 0.025198778 0.18132895 0.001978059
0.046086624 0.1229245 0.22619665 0.034814823 0.25015116 0.16344833 0.014455971 0.114840955

backbone.2.weight f4 [16, 64]
00000000: 0c5a e73c 3fcc 83bd e478 c7b9 05b5 11bd
00000010: 9143 943d c821 b93c 7c62 0500 b3e0 66be
00000020: 5eef 123e 77c1 a13c ba2d e1bc 8f47 e63d
00000030: b9fb 6e3d ff31 63b2 3830 8abe 3dd1 163e
00000040: 30ff 043e 7abb 5e3e 1f7d f43d 80a3 7bb8
00000050: 7eaf 36bd 5c11 68b9 d0ad a4bc 6c84 aeb6
00000060: 1e69 093d f68c 1b3d 1ffe 583e 0d27 47be
00000070: 344c ccb2 e186 e9ba 9043 59bd b29e 1bbd
00000080: 88d4 893c 02e1 cfbc cee8 8a3d 9c50 13af
00000090: 05e3 173e e1e7 3b3d c305 06be de10 c33d
000000a0: f0ae cfbd f6a4 b8bd 1864 88be 6e0c 30be
000000b0: 2aae b03d 1b69 ecb7 9965 54be 90c2 6f3d
000000c0: c74d bd3c 0689 5bbd dda3 553e 8113 13be
000000d0: a902 04be 9180 2ebb f23b 61be 7fd3 0480
000000e0: 461f 85bb ae79 313d 4b33 d5bb afa3 143d
000000f0: cf7a c0bc e0da e2bc 43fb 88b5 cf15 103e
00000100: 94ff 66be daa8 a9bd d0f6 713e 537d 2a3e
00000110: a6bb 0c3e 9256 ef3e b971 f93e cc37 ecbe
00000120: 951f 483d 083d f83d c17b 5d3e 5ff7 57bd
00000130: f791 1dbe 7c59 c23e 5841 98be 576c 57bd
00000140: c023 343e 99c6 5b3e 57b3 b9bd 5073 d43e
00000150: 7c32 8abe db26 9b3e 9a43 fe3d aaf2 8a3e
00000160: 33c2 a6bd 7270 9ebd 5295 b83d d4e7 383e
00000170: b767 d93e af47 c13e 4a1f 6ebd 5a3a be3c
00000180: 241f 113c 6528 963e 408c 663d 3b20 b33e
00000190: eeee 01be 8b57 70be bda2 c1bd 31b4 883d
000001a0: 6fe8 063e f8b5 0c3e 6bcc 89bd 2dd2 fabd
000001b0: e6ca 6f3e b9b8 ab3e 5d1c 2dbd 3103 1cbd
000001c0: 2c5f 62be 528d 4f3e ca8b 073e 5833 94bd
000001d0: 62f3 cf3b a43c a33e ab71 3a3d cbe8 713e
000001e0: da8b c63e 578f 93bb 6872 a83e cd7a f03d
000001f0: 961e 3b3e 4777 63be 1379 be3e 6e7b 103e
00000200: f67a 5b3e ed51 043d a44d b1be e446 ac3e
00000210: f73b abbe 3273 e7be 6fb4 adbe 281c 603c
00000220: 7ff2 753e 4b03 553e 9a88 a53e 104d c33d
00000230: c930 dcbd b0fd debe f0a1 f33d 6ad2 083e
00000240: 4621 753e 57c6 aa3e 39ac 1c3e 9c5f d0be
00000250: 9e28 7e3d d42f c8be 29dc 013e bbb3 e3be
00000260: d8ac 42be 326a 68bd d0ae 133e 8274 263e
00000270: bf30 7bbe 8a33 54be 33c4 f73d a766 023f
00000280: 583c 96be c846 a93d f127 513e c6b4 ccbe
00000290: 0a71 183e 47db efbc de0c 06be 2b52 b1be
000002a0: 27dd 5ebc e14a bd3e f4c5 c83d 163d e83d
000002b0: 5049 68be cf96 65be 5fc1 b43d 324f febd
000002c0: ee38 853e 31f7 363f a0a7 833e 4396 833e
000002d0: 9601 76be a46d ddbe 270e 4a3e 41de 5abe
000002e0: 8e4b 81be 4759 7e3d f8da 58bd 8a28 ecbe
000002f0: 267b c33e c191 b23d 9f9a 97be 8dbe 92be
00000300: 0be3 99bd 53bd 1abd 9960 213e 7edc 44be
00000310: 5ea6 16be 1a1e 90bc 3505 3bbd 9e79 f63d
00000320: 78df d73d 96fc 11be 29ad 81be be7c 21bd
00000330: 6fff 393e 21ba 773e e840 8a3d 8cc4 bc3d
00000340: abe6 1bbe e2a5 0fbe 6c3c 26bd 313e fcbc
00000350: b2d6 9a3d 5f69 d13d 5526 26bd a377 dfbd
00000360: 782c 603e 3af6 293e c934 efbd aea2 67be
00000370: 187f 4c3d 3bd2 873e 8edd 463d 26b3 e8bd
00000380: 5c96 743e c6b0 1ebd fd93 d63d 69e5 643d
00000390: 35a9 21bd ce12 633c 18f1 ce3d df16 873e
000003a0: 3fda 313d ce13 56be 85c3 143e c4f8 b3bc
000003b0: 00bd a83e 1caa 973d c421 143e 1f65 bc3e
000003c0: c463 4abe 4a2c 12be 64d6 53be db21 1cbe
000003d0: fda4 1b3e b0a4 d13d 9cf4 95bd beef f43d
000003e0: 3686 7e3e 2a02 343e 5b75 d23b 246f 563e
000003f0: 852f 92be b1f3 e5bb 99a5 4d3d 7ec3 b83e
0.02824118 -0.06435441 -0.00038046308 -0.035573024 0.0723945 0.022599116 4.94507e-40 -0.22546653
0.14349124 0.019745572 -0.027487624 0.112441175 0.05834553 -1.3224507e-08 -0.26989913 0.14728256
0.12987971 0.21751204 0.119379275 -5.9995335e-05 -0.044600956 -0.00022131711 -0.020102412 -5.20102e-06
0.033547513 0.037976228 0.2119069 -0.1944849 -2.3783379e-08 -0.0017816686 -0.05304295 -0.03799314
0.016824976 -0.025375847 0.06782685 -1.339821e-10 0.14832695 0.045875434 -0.13088135 0.095247015
-0.101407886 -0.09015839 -0.26638865 -0.17192242 0.08626969 -2.8182336e-05 -0.20741881 0.05853516
0.023108376 -0.053597473 0.2086329 -0.14362909 -0.1289164 -0.0026626925 -0.21995524 -4.43212e-40
-0.004062566 0.043328933 -0.0065063587 0.036288913 -0.02349606 -0.027692258 -1.0205916e-06 0.1407082
-0.22558433 -0.08284159 0.23629308 0.1664937 0.13743457 0.46745735 0.48719576 -0.4613632
0.048858244 0.12121016 0.2162924 -0.052726146 -0.15387712 0.37958896 -0.29737353 -0.052593555
0.17591763 0.21462478 -0.090674095 0.41494226 -0.26991642 0.30303082 0.12415238 0.27138263
-0.08142509 -0.07736291 0.090128556 0.18057185 0.4246194 0.37750003 -0.05813531 0.023221184
0.008857522 0.29327694 0.056286097 0.34985527 -0.126888 -0.23470895 -0.09454868 0.06674994
0.13174604 0.1374129 -0.06728443 -0.12247119 0.23417243 0.3353937 -0.042263377 -0.03808898
-0.22106618 0.20268753 0.13236919 -0.072363555 0.006346152 0.31882203 0.04551856 0.2362396
0.38778573 -0.0045031714 0.32899785 0.117421724 0.18273386 -0.2221347 0.37201747 0.14109585
0.21433625 0.032304693 -0.34629548 0.33647835 -0.33444187 -0.45205075 -0.33926722 0.013678588
0.24018286 0.20802037 0.3233078 0.09536183 -0.107514925 -0.43552923 0.118961215 0.13361517
0.23938474 0.33354446 0.15300073 -0.40697944 0.062050454 -0.3909899 0.1268164 -0.4447306
-0.19011247 -0.0567419 0.14422154 0.16255382 -0.24530314 -0.20722786 0.12097969 0.50937885
-0.29342914 0.082654536 0.20425393 -0.3998167 0.14886871 -0.029279364 -0.13090846 -0.34633002
-0.0136025315 0.3697119 0.098033816 0.11339776 -0.22684216 -0.2242081 0.08825945 -0.12417449
0.26019996 0.71470934 0.25713825 0.25700578 -0.24024042 -0.43247712 0.19731961 -0.21373846
-0.25252956 0.06209686 -0.0529432 -0.4612468 0.38179892 0.087192066 -0.29610154 -0.28661004
-0.07514008 -0.03777821 0.15759505 -0.19224736 -0.14711902 -0.017592479 -0.045659263 0.120349154
0.1054067 -0.1425651 -0.25327423 -0.039425604 0.18163846 0.24192096 0.06750661 0.09217176
-0.15224712 -0.14028123 -0.040584967 -0.030791374 0.07560481 0.10225176 -0.0405639 -0.10911491
0.21891963 0.16597834 -0.1167999 -0.22620651 0.049925894 0.2652758 0.048551135 -0.11362295
0.23885483 -0.038742803 0.10477445 0.055882845 -0.03946801 0.013859464 0.10104579 0.26384637
0.043421026 -0.20905992 0.1452771 -0.021969207 0.32956696 0.07405493 0.14466006 0.367959
-0.1976462 -0.14274707 -0.20687252 -0.1524729 0.15199657 0.1023649 -0.07322046 0.1195979
0.24855885 0.1757895 0.0064226813 0.20940834 -0.2855188 -0.0070175757 0.050206754 0.3608665

backbone.2.bias f4 [16]
00000000: 1b8f 97bc 8964 a2bd 6643 5a3d 8494 903d
00000010: 2cb9 763d 030c 14bd f97c c53d cc56 eb3d
00000020: 4dd4 9c3d d0b2 02bd 9b2b 893d 0821 c0bb
00000030: 3e14 773d 00be 773d 20b7 9b3d bed9 333e
-0.018500855 -0.07929332 0.053286932 0.07059577 0.060235187 -0.036144268 0.09642977 0.114911646
0.07657681 -0.03190881 0.0669777 -0.0058633126 0.06032204 0.060483932 0.07603288 0.17563531

backbone.4.weight f4 [3, 16]
00000000: aaf7 ac3e 2ea7 85be f5b2 d5be 1339 a53e
00000010: f0a6 103f b1fc 9fbe 5199 11bf 655c b8be
00000020: 6a07 43be 0278 ebbe 26c1 14bf dd81 08be
00000030: c379 dfbe ab8c a93e 46e7 fe3e 128f 02bf
00000040: 2458 99be 35eb 2fbf e9d8 1e3f fe1b 29be
00000050: 1bcf 45be 5986 09bf 9e46 933e 6afa c9bd
00000060: ff62 24bf 3b92 b2be 6cac 1b3f 4144 b4be
00000070: db00 a23e cec3 99bc 24ce 8cbe 22f9 d83e
00000080: 3bdc a03e af16 063e 57bf e03d e775 b0be
00000090: 92b7 bebe 1086 b73e 0426 eabd a18b 8bbe
000000a0: 365a 0b3f c67c 773e 314d 8e3c 73cb 7b3e
000000b0: 283e 45be 65d7 bfbe d4f2 fcbe 63d5 9a3e
0.33782703 -0.2610411 -0.41738096 0.32270107 0.56504726 -0.31247476 -0.5687457 -0.3600799
-0.19045797 -0.45989996 -0.5810722 -0.13330789 -0.43647584 0.33115134 0.49785823 -0.5099956
-0.29950058 -0.6871827 0.6204973 -0.16514584 -0.19317286 -0.53720623 0.28764814 -0.09862216
-0.64213556 -0.3487719 0.6080997 -0.35208324 0.31641278 -0.018770125 -0.27501023 0.42377573
0.31418023 0.1309459 0.10973995 -0.34464952 -0.37249428 0.3584447 -0.11433032 -0.27254966
0.54434526 0.24168691 0.017370792 0.24589328 -0.19261992 -0.3746902 -0.49404013 0.30240926

backbone.4.bias f4 [3]
00000000: 7a61 00bd 0d7e 603d 0ef4 1fbc
-0.03134296 0.05480771 -0.009762777
