pthfiles/finaldraft2.pt (torch, 79044 bytes, 30 tensors)

clamp_param f4 [3]
00000000: 6666 663f 6666 663f 6666 663f
0.9 0.9 0.9

H f4 [11, 4]
00000000: 8c61 f23d 8295 183d 0d7d 1c3d 2dce 90bd
00000010: 2f3a cd3d 94a8 c93c a8cd cc3c 1d8f 36be
00000020: cd48 cabb d788 24bb 8eb3 29bb c349 93bc
00000030: 1226 783d a8f7 eb3b 55fd e53b e996 5fbe
00000040: 8bef fd3c 3b68 083c c8c6 0b3c c675 d53d
00000050: 1945 923d 3c1a a13c 196c a53c ec1d f6bd
00000060: 33f8 03be 26fc 2cbd 9194 31bd 4c9c 99be
00000070: 93b5 353e d622 d83c 79e0 d63c 23ee 6b3e
00000080: 943d e7bd 3732 27bd 553b 2cbd 2adf 86be
00000090: 6f0d 973d 094b 20bc 08b9 32bc a01b b03d
000000a0: cbde abbc 322c 0bbc ae7e 0fbc abc3 8ebd
0.11835012 0.037251957 0.038205195 -0.07070575 0.10020863 0.024616517 0.025000408 -0.17828031
-0.0061732293 -0.0025105977 -0.0025894376 -0.017979508 0.06058318 0.007201154 0.007018725 -0.21834911
0.030998012 0.008325632 0.00853128 0.10422854 0.071420856 0.01966583 0.020193147 -0.12017426
-0.12887649 -0.042232655 -0.043354575 -0.30002058 0.17745046 0.026383799 0.026230084 0.2304006
-0.11291042 -0.040819373 -0.04204877 -0.26342136 0.07375609 -0.009783515 -0.010908373 0.08599019
-0.02098026 -0.008494424 -0.00875823 -0.069709145

clamp_min f4 [3]
00000000: 3333 333f 3333 333f 3333 333f
0.7 0.7 0.7

clamp_max f4 [3]
00000000: cdcc 8c3f cdcc 8c3f cdcc 8c3f
1.1 1.1 1.1

backbone.0.weight f4 [128, 11]
00000000: 98e1 d63d d81f 783d 52bf 12be 0b7f 74be
00000010: 729a 9a3e 0dee 973d 0e96 aabe e71b 4f3e
00000020: 037e 11be b28d 153e abaa 773d 0606 f73d
00000030: f00a 23be 3ecd 09bd ea1b 3c3e b1f4 93be
00000040: 6227 48be a257 873e c60a c43d 135e 80be
00000050: fb80 933e 6aee f23c 29cb 133e 3098 023e
00000060: 2194 c43e c001 bbbd bdef 923e 919d 2a3e
00000070: 3928 64be f89b 603e 3254 4e3e cdc8 a3bd
00000080: 945f babe cafb 573e e5f9 b23d f605 6d3e
00000090: bd95 9e3e dd88 a4bd fa9c 84be ffb0 9ebe
000000a0: 982b 343e acb4 43bd f143 643c c7cb 06be
000000b0: 7f70 c53d abeb 8cbe 7978 983d e1d6 82bc
000000c0: a84e 8d3e d17d 9cbe d236 11be 03bf 64be
000000d0: a238 85be 09d0 8cbe 0529 8a3e 9a96 a0bd
000000e0: 9733 babe dcd2 cf3d 7388 74bd ac73 a73c
000000f0: bbbc 0b3e 7f37 11bd 3a8d 45be 39c5 4b3e
00000100: b6e6 9a3e 3ce2 833e 24b8 233e 5712 3ebe
00000110: 52b4 26bd 8ef0 413e ddd3 6fbc 817f babe
00000120: 52d8 12be 8ac8 ba3e 7857 7a3c b5da 40be
00000130: e874 a7be ee83 d83c 83ed b0bd 64b3 1dbd
00000140: b51a 3a3e 3f82 2f3e f465 97bd d168 85be
00000150: ec57 6c3e cc67 82be 8270 c33e dd68 03be
00000160: 2b46 9c3d 468e 4dbe e10f d03d f6c9 45be
00000170: f8e9 293e d024 8e3d aee6 bfbc ed31 023e
00000180: 511a fd3c 14de 323e 51e9 93bd cc06 b73e
00000190: 2862 2bbe 46f6 613e 6314 0dbf 6e99 b43d
000001a0: 1736 0ebd 33e1 963d 5109 59be cdc4 2ebd
000001b0: e11e 59be 6d4a 40bd 4269 923e 7bec b23e
000001c0: 2a0f d33e 5fe2 8d3e 45f5 6abd f150 72be
000001d0: 9f02 5b3e 245c 78be 12cb 82be 45d8 81bc
000001e0: 82b0 273c c643 48be b8cd 9e3e c933 a93e
000001f0: cb89 b9bd aed8 b93d 4c89 1bbc ce7b 763d
00000200: 233b 65be 1501 823e 0fa8 963d 88d0 87be
00000210: 45c9 5f3e b2f7 7e3e dd4d f23d 831d ab3d
00000220: 567e 99be da85 cd3d 9871 653e 9d37 a53d
00000230: 2d22 c1bd cfad 853e 64c1 93be 2984 373d
00000240: 60b6 0cbe d2ae e13c a99c 4c3e c2a6 903e
00000250: a4ce 063e ec57 463d dbc1 8d3d 3a23 4b3d
00000260: 3142 5c3e 0a44 293e 1301 4dbe 1d3d abbd
00000270: f7b1 5ebe d0a9 4abd 247a c33b 49e6 dfbd
00000280: f41d 57be 0bf4 5f3d ab09 3a3e a0c6 41be
00000290: 776a 8a3e 62e3 d5bd 3691 1cbd 88f1 223e
000002a0: 05da 4c3e b1e1 733e 8ca9 0a3e a51e 4cbe
000002b0: 5c8b e83c 1047 c23d 2853 543e 830e d5be
000002c0: cec3 2d3e 01d0 61be b933 8c3c c941 c63d
000002d0: 4f9b 333e ac37 0a3e 552d 0b3d 55e0 b6be
000002e0: b878 a2bd f3bd 5c3e 91ba 57be 9002 00be
000002f0: 3d59 85be 08dc 453e eb06 9cbe 41b4 06be
00000300: 73ce 1d3d a5b3 693e 0125 68be ce1a 6f3e
00000310: 00a8 c3ba 1c01 87be cf6e 783e 97cd b33e
00000320: b38b aa3d f7ec a0bd db1a a6bd 8f44 d53d
00000330: 1453 973c 9e3e a9bd 9ee8 83bc 1ccd 7dbe
00000340: c02a 65be 69f8 29bd de72 a13e 7f0b 68bd
00000350: 4a5c 653e 3acb 03bd 4d7f 1bbe d0a3 093e
00000360: cd33 c43c 8618 8abe 5cd0 2b3d a0d5 b8be
00000370: 3db9 ddbd 7c1a 3e3e b439 d83d fa5d cdbe
00000380: c4e5 55bd fc58 1a3e 3b78 cfbe 8a00 f9bb
00000390: 8b28 9d3d 124d b73e 82ad a73d d4dc c4bd
000003a0: 3394 c1bc c7f8 d13d 4102 b73d 611f 5a3d
000003b0: 3cae 903e 79ab d2bd 353b 823e d299 1dbd
000003c0: a8f2 793e f01b 54be 6d61 163e 5faa 743e
000003d0: c35f 583e b03b 8dbe ef2e 953e fbcd 633e
000003e0: b3b4 8dbb de19 96bd e7d9 0dbe 12f1 d2be
000003f0: c3b3 4d3e 044c 813e 9eb2 b33d c1e2 a03d
0.10492247 0.060577244 -0.14330795 -0.23876588 0.30195957 0.074184515 -0.33317608 0.20225488
-0.14208226 0.14604834 0.060465496 0.12061696 -0.15922141 -0.033643 0.18370023 -0.28897622
-0.19546273 0.26434046 0.09572367 -0.25071773 0.28809342 0.0296547 0.14432968 0.12753367
0.38394263 -0.09131193 0.2869853 0.1666167 -0.22280969 0.21934497 0.20149305 -0.07997284
-0.36401045 0.21092144 0.0873907 0.23146805 0.30973616 -0.08033917 -0.25901014 -0.30994412
0.17594755 -0.047779724 0.013932214 -0.13163672 0.096405976 -0.2752355 0.07444853 -0.015971603
0.27599072 -0.3056474 -0.14181069 -0.2233849 -0.2601977 -0.27502468 0.2698442 -0.07841225
-0.36367485 0.1014764 -0.05970044 0.020440899 0.13646214 -0.035453316 -0.19292155 0.19899453
0.30254143 0.2575854 0.15988213 -0.18561684 -0.04069931 0.1893942 -0.0146379145 -0.36425403
-0.14340332 0.36481124 0.015279643 -0.1883343 -0.3270638 0.026430096 -0.08639052 -0.03850116
0.1817425 0.17139529 -0.07392493 -0.2605653 0.23080415 -0.25469816 0.38171774 -0.12832971
0.07630571 -0.20073804 0.10159279 -0.19315323 0.16593158 0.06940615 -0.023425426 0.12714358
0.030896338 0.17467529 -0.07222236 0.35747373 -0.16736662 0.22066602 -0.5510923 0.08818327
-0.034719553 0.07367172 -0.2119496 -0.042668153 -0.21203186 -0.046945978 0.2859593 0.34946045
0.41222507 0.2771177 -0.057362814 -0.23663689 0.21387719 -0.24253899 -0.25545555 -0.015850196
0.010234954 -0.19557104 0.31016326 0.3304732 -0.09059485 0.090745315 -0.009493183 0.060176663
-0.2238584 0.2539145 0.073562734 -0.26526284 0.21854122 0.24899176 0.118312575 0.08355238
-0.299792 0.10035296 0.22406614 0.08067248 -0.09430347 0.26109168 -0.28858483 0.044803772
-0.13741446 0.027549181 0.19981636 0.28252226 0.13164765 0.048423693 0.069217406 0.04959414
0.21509625 0.16529861 -0.20019941 -0.08361266 -0.21747576 -0.049478352 0.005965488 -0.10932595
-0.2100752 0.054676097 0.1816775 -0.18923426 0.2703435 -0.104437605 -0.03822442 0.1591245
0.20005043 0.23816563 0.1354124 -0.19933565 0.028386764 0.0948621 0.20734847 -0.41612634
0.16969225 -0.22052003 0.017114507 0.09680516 0.17539714 0.134978 0.03397878 -0.35718027
-0.079331815 0.21556835 -0.21067263 -0.12500978 -0.26044646 0.19322217 -0.30474028 -0.13154699
0.038526963 0.22822435 -0.22670366 0.23350069 -0.0014927387 -0.26368034 0.2426102 0.3511779
0.08327427 -0.078576975 -0.08110591 0.10413467 0.018472232 -0.082638964 -0.016102131 -0.24785274
-0.22379589 -0.041496668 0.3153295 -0.05665159 0.22398487 -0.032176234 -0.1518528 0.13441396
0.023950482 -0.26971835 0.041946754 -0.36100483 -0.10826347 0.1856479 0.10557881 -0.4011076
-0.052221075 0.15073007 -0.40521416 -0.007598941 0.076737486 0.35800987 0.08187391 -0.09612432
-0.023630237 0.10252529 0.08935977 0.05325258 0.2825793 -0.10286612 0.25435796 -0.038476773
0.24408972 -0.20713782 0.14685602 0.23893116 0.2113028 -0.275846 0.2913737 0.22246544
-0.0043245195 -0.073291525 -0.13852654 -0.41199547 0.20088105 0.25253308 0.08774303 0.0785575

backbone.0.bias f4 [128]
00000000: 783f f3bd e704 8c3d 659a 9d3e 92c2 f33e
00000010: 5ce0 4c3e 30dc b9bb a832 e83d b4ba 663d
00000020: c5fa 373e f971 e93e 6958 a63e d1ee be3e
00000030: 871a 813e 67ad 76bd eff1 643e e6cc 973e
00000040: f367 5c3c c4a1 2d3e 24c3 05bd 7a1b 4e3e
00000050: a16d 4ebe 09fe df3e ac60 173e 731d c7bd
00000060: ebb6 593e 00e4 1e3d 6798 28bd 9599 ca3e
00000070: 4c0f 2a3e 15ed 363e 3799 353d 8fb2 f23e
00000080: 554c 963e 69ea a73e 052c 0b3e 104c 68be
00000090: 528a 773e 434e 99bd e01b 263e 0007 0c3e
000000a0: 5fb4 df3e 853a 0d3e 1252 603e ceec fdbd
000000b0: 491b aebe 8185 8abe b7d6 4c3e 5aef 253e
000000c0: eb11 8d3e d483 963e 9689 8b3d fb44 febd
000000d0: c0aa 083e 4057 fb3e 7d34 743e c73e 883d
000000e0: 875c 023d 0a49 193e cb97 203e e4bd 203e
000000f0: d790 973d 7ed4 323e d045 533d 4ceb eb3d
00000100: 74f9 363e 5b92 b0bd 9d31 c9bc 5ee0 113e
00000110: f70f 003f 8909 c83e 7198 f33e e458 a2bd
00000120: 5277 593e 1349 8fbc 1b2a d93e 9986 c83d
00000130: 87e5 bb3e 4fb9 113f 03cf 7d3d 489d 773e
00000140: 072c 99be d667 0fbe c268 5b3e 72e9 043f
00000150: cbc4 5abd 5a10 1a3c 5f19 b13e f97f 313e
00000160: 9bb1 0b3f 442c 563e 4566 de3e f4ac 28bc
00000170: 887a d33e 4a4f 4c3e 4bda de3e cde7 c13d
00000180: 6592 a03e cc7d 92be 9050 cb3e c2da 533e
00000190: eb47 64be 89bd 803e 8f69 4a3b 37aa 883e
000001a0: da20 fe3e 352e cd3e b84f dc3c 3eb6 8c3e
000001b0: 86de 873e f08c df3e 6708 353e 83bc 733d
000001c0: 40c5 4b3d 865f f53e 4190 c8bd 6bc5 ba3e
000001d0: 9efe 43bc 5244 843e 791c 3a3e ffb2 9b3e
000001e0: 2612 b5bd 5872 9d3e 5653 77bd 67ab 7c3e
000001f0: 70a9 a83e 6f6c c1bd 603c a03e 0260 e0bd
-0.1187734 0.068368725 0.30781856 0.47609383 0.20007461 -0.0056720003 0.11337787 0.056330398
0.17966755 0.45594767 0.32489327 0.37291577 0.2521555 -0.060223963 0.22357915 0.29648513
0.013452518 0.1695624 -0.032656804 0.20127669 -0.20159008 0.437485 0.14782971 -0.09722414
0.21261184 0.038791656 -0.041160967 0.395703 0.16607398 0.17863877 0.04433557 0.47401854
0.29355112 0.32796028 0.13591011 -0.22685266 0.24173859 -0.0748563 0.16221571 0.13674545
0.436923 0.13791855 0.21906307 -0.123986825 -0.34005192 -0.2705498 0.20003782 0.16204587
0.27552733 0.29397452 0.06813352 -0.12415501 0.13346386 0.49090004 0.23848148 0.06652599
0.031826522 0.14969268 0.15682904 0.15697438 0.07400673 0.17463872 0.05158025 0.11519489
0.17868596 -0.08621665 -0.02455979 0.14245746 0.5002436 0.39069775 0.4757724 -0.07927111
0.21236923 -0.0174909 0.42414936 0.097912975 0.36698553 0.56923383 0.061965 0.24181092
-0.29916403 -0.14004454 0.2142668 0.5191871 -0.053410333 0.009403313 0.3458967 0.17333974
0.5456788 0.20915323 0.434374 -0.0102951415 0.4130442 0.19952121 0.4352592 0.094680406
0.3136169 -0.286116 0.39709902 0.20688918 -0.2229306 0.25144604 0.0030885672 0.26692364
0.4963444 0.40074316 0.026893482 0.2748279 0.2653696 0.43662214 0.17678986 0.05950595
0.04974866 0.4792444 -0.09793139 0.36478743 -0.011962561 0.25833374 0.18174924 0.3041
-0.08841352 0.307513 -0.06038221 0.2467476 0.3294177 -0.0944451 0.31296062 -0.10955812

backbone.2.weight f4 [32, 128]
00000000: 537a dd3c bd00 99be 1288 db3d f1fb 2b3e
00000010: a605 963d f9b6 503e e216 d3bd 44f5 743e
00000020: 9892 fa3c 07ea b23e dbf0 143e 0067 293d
00000030: 5b98 00bd cfa3 a9bd fa12 3e3d ccef a83d
00000040: f610 273e ba2c 563e 2f59 633d 6f3f 9f3c
00000050: c626 63be 6a02 25bd f9c4 203e 2be8 b13d
00000060: c80e 1b3d eee4 d93e f2c7 ce3c 501e 6a3d
00000070: 0407 ab3d f8cf d73d abb4 e03e 7b34 09bd
00000080: 87f4 c83d 95b1 003e efd7 00bc 606b 9f3c
00000090: 613d 26be 248b 7b3d b023 9c3a 712d 273f
000000a0: 73f9 283d 0ec8 05be 5d69 e5bd 5ca5 0e3d
000000b0: 574a 65bd cdca 643d d8ad 14be df21 c8bd
000000c0: 09e2 1b3d e966 da3d 3562 ad3d b683 583e
000000d0: 31b3 da3b 4221 893c 1785 103e bf31 063d
000000e0: 9cbd d9be c7ce 0d3f 8d1d 3fbb 42a4 763d
000000f0: ea1d 7b3e f710 263d 2efd 893e 2b45 c33d
00000100: 8129 173f e5ea bd3b 7a8b 40bd 82db 5f3c
00000110: 599e 8a3d 9a0a 6c3d ed08 503e 4e08 903e
00000120: 32fe 813d 13dc e0be 112d 79bd b5e6 083e
00000130: 3137 a6bc b71d 043f 446d eabc 4d5b 17be
00000140: f002 a6be d0ab 88bd 3835 46bd 5885 5a3d
00000150: e016 84bd 75e9 313d ad88 a3bc f246 10bf
00000160: f0d9 9d3c 1912 f2bc 557d f63d 9d2d 083e
00000170: e4bd 9e3d 1569 1f3e 7304 16bc e24c 8c3c
00000180: b476 103e c8eb a7bc e06b 8a3d 0a8f 863d
00000190: 16ec 0bbc 699b e73d 1841 283f e2a9 5e3f
000001a0: 403f c13d aef6 273f b889 c43b df90 15bd
000001b0: 53c4 85bd e868 4a3d 59c3 d83d 7283 9c3e
000001c0: 8184 163d cff3 e7ba 0b5b b33d 2638 4d3d
000001d0: 656f 363e f4e6 783d 501e 03bc 9e49 433d
000001e0: 9478 1b3d 8f6f 483e cc05 1ebe 13de ffbc
000001f0: a6e8 c7be 0107 a63a c24b 8bbc 9025 92be
00000200: 77fe 71bc a436 14be 8f71 fe3c 1336 ef3d
00000210: 1f76 7b3c 39df 063e 16f8 2fbe 5054 e33d
00000220: 2712 b53c c5b4 d83e dff4 1b3e e046 d53c
00000230: 78e0 173d e837 82bd 770e 3b3c 661f 943d
00000240: bb8c 223e eebd 963e bbf4 21bd f62e 96bd
00000250: e238 a8be cb93 61bc fb05 683e 4a42 ed3d
00000260: c6dd 00bc 6687 aa3e 1bde b4bd 706a f03d
00000270: f5a9 173e ef3d 613e 58ac b73e a707 e73c
00000280: 1b9e 40bd 0f10 723d b0f7 a8bc 55c2 c43c
00000290: 899f e13c 4189 893d 657c d53d 661e 473f
000002a0: 4571 8c3c 3986 d5bd 3fb7 efbd 3706 a23c
000002b0: cb71 6fbc a93f 093d 645d 0bbe 1fab 52be
000002c0: c9e9 333d 5159 8e3d 1aa0 4cbe 818a 6e3e
000002d0: 204a 683d 4439 ba3d 0138 833d f7de ef3d
000002e0: 3d2a 08bf b0a3 063f db55 8dbd 892f b3bd
000002f0: ec06 913e f709 1ebe cc4c 443e 1393 c43d
00000300: 2013 3f3f 5017 283d 6cba 9fbc 3710 833d
00000310: 1481 2abd a262 093d eea3 a03d 9eab 503e
00000320: c52a 94bd 246c fcbe 9f82 ad3d 8b37 b03e
00000330: 0d9c a8bd 822f 9e3e fdb0 cf3c 0436 a9be
00000340: 5dc3 e5be 294b c0bd e3bb 9fbd a8b9 793d
00000350: fa73 14bc 2d60 b5bd 0042 d23c 3fba 5bbf
00000360: b12b de3b 8ba8 403d bf0b c8bc 29d3 233e
00000370: 0a95 ac3d 180a 3b3d 9ec4 853d f8c8 82ba
00000380: 33e7 ff3d c2ea 46bd 8645 5f3d 69d5 a3bd
00000390: 0533 803d ae96 c53d 0bca 0b3f fe66 2e3f
000003a0: e3c8 72bd af33 0d3f 45fb 88bc b72f 5b3d
000003b0: b7bd 35bb 68d4 203d ec30 e93d 565a d43e
000003c0: 1192 123e df57 cd3d 85d0 653d e578 ea3d
000003d0: a8d7 be3d 335a 27bc c51c a03c 0fec 9ebd
000003e0: 94ed 023d 889a 493e 8ed2 dbbd 6476 8dbc
000003f0: 5ff4 f3be a2f5 b83c 8dd9 f63d 7d35 c6be
0.027035868 -0.29883376 0.10719313 0.16795327 0.07325296 0.20382299 -0.10307099 0.23921686
0.03058748 0.34944174 0.14545004 0.041357994 -0.031395297 -0.08283197 0.046404816 0.082488626
0.16315064 0.209155 0.055504974 0.019439427 -0.2218276 -0.040285505 0.15700139 0.08686861
0.037855893 0.42557472 0.025241826 0.057157815 0.083509475 0.10537714 0.4388784 -0.033497315
0.09812265 0.12567742 -0.007863983 0.01946038 -0.16234352 0.06141199 0.0011912491 0.65303713
0.04125352 -0.13064596 -0.11201737 0.034825668 -0.0559791 0.05585747 -0.14519441 -0.097720854
0.03805736 0.1066416 0.08465997 0.21143994 0.0066741933 0.016739491 0.1411327 0.032762285
-0.42527473 0.5539364 -0.00291619 0.060215242 0.2452313 0.040543523 0.26950973 0.09534677
0.59047705 0.005795824 -0.047008015 0.013663175 0.06768484 0.057627298 0.20315905 0.28131336
0.06347312 -0.43917903 -0.060833994 0.13369258 -0.02028999 0.5160784 -0.028616555 -0.14780922
-0.32424116 -0.06673396 -0.048390597 0.053349823 -0.064496756 0.043435533 -0.019962633 -0.56358254
0.01926896 -0.029549645 0.12035624 0.1329865 0.077510625 0.1556743 -0.009156334 0.017126504
0.14107782 -0.020498171 0.06758857 0.06570251 -0.008540174 0.11308939 0.65724325 0.8697797
0.09435892 0.6561078 0.0059978627 -0.036515113 -0.065315865 0.049416453 0.105841346 0.30569035
0.03674746 -0.0017696562 0.087575994 0.050102375 0.17815931 0.06076713 -0.0080028325 0.04767763
0.03795679 0.19573806 -0.15431899 -0.031233823 -0.39044684 0.0012666882 -0.017003898 -0.28544283
-0.014770142 -0.14473969 0.031060008 0.11680236 0.0153479865 0.1317109 -0.17184481 0.11100066
0.022103382 0.42325416 0.1523013 0.026034772 0.037079304 -0.063583195 0.011417023 0.07232551
0.15873997 0.2944178 -0.039540034 -0.07333176 -0.32855898 -0.013768147 0.22658531 0.11584909
-0.007865375 0.33306426 -0.08831426 0.11739051 0.14810927 0.21996282 0.35873675 0.028201891
-0.04702578 0.059097346 -0.02062592 0.024018446 0.027541893 0.06715632 0.10424117 0.7778076
0.017143855 -0.104259916 -0.11704873 0.019778354 -0.014614533 0.033507977 -0.13609844 -0.2057309
0.043924127 0.069506295 -0.19982949 0.23295023 0.056711316 0.09092954 0.06407166 0.11712449
-0.5318945 0.5259352 -0.06901141 -0.08749301 0.28325593 -0.15433489 0.1916992 0.09598365
0.7463856 0.041037858 -0.019498073 0.06399577 -0.041627005 0.03354133 0.07843767 0.20377967
-0.0723472 -0.49301255 0.084721796 0.34417376 -0.08232889 0.3089562 0.02535295 -0.33049023
-0.44875613 -0.09389336 -0.077995084 0.06096807 -0.009060854 -0.08856235 0.025666237 -0.85831064
0.0067801108 0.047035735 -0.024419663 0.1599852 0.084268644 0.045663923 0.065316424 -0.0009978106
0.124952696 -0.048563726 0.054509662 -0.07999689 0.06259731 0.096478805 0.5460517 0.68125904
-0.05927361 0.5515699 -0.016721377 0.0535123 -0.0027731487 0.039265066 0.11386284 0.4147517
0.14313532 0.10026526 0.056107063 0.1144884 0.09318477 -0.010214376 0.019544968 -0.07759868
0.031964853 0.19687855 -0.107335195 -0.017268367 -0.47647378 0.022578064 0.12053213 -0.38712683

backbone.2.bias f4 [32]
00000000: 8c68 793e c5a5 293e 1f1b 873e 8a0b b0bc
00000010: a4ca 013e b6c7 1d3e b86a 7c3e e7fa 613e
00000020: d539 d83b 21fc 6f3e c7ca 813e 05f4 5f3c
00000030: 15e1 99bd 35be 333e 3135 613e d3f0 7fbc
00000040: cbd8 463d 21be 81bd 02ea 2839 a7ae 723e
00000050: 86e6 573e a010 bebd 9631 9a3e ffaa 2f3e
00000060: c476 4d3e 89f0 6c3e 07b5 843e 4bb0 2f3d
00000070: 4e02 3c3d 0a7a 67bb 32d9 2b3e dff2 3d3e
0.24356288 0.16567142 0.2638788 -0.021489877 0.12674958 0.15408215 0.24650085 0.22068368
0.006598691 0.23436023 0.2535002 0.013669019 -0.07513634 0.17553027 0.21992947 -0.015621382
0.048546594 -0.06335092 0.00016108903 0.23699437 0.21084031 -0.09280515 0.30115956 0.17155074
0.20064837 0.23138632 0.25919363 0.042892735 0.045900635 -0.0035320544 0.16782072 0.18549679

backbone.4.weight f4 [11, 32]
00000000: 5918 8fbe ac3a 01be b6cb f3bd fc41 e9bd
00000010: 2fc8 c73d 3bc5 27be f724 65bd ff71 53be
00000020: 18a4 dc3d e6e1 aa3d 0dfe 66be a04b 533a
00000030: dad8 23bc 7645 54be 7cf6 623d 3ec5 1cbe
00000040: dd3e 943c d06d c13d 6f2e 15bd b5b1 37be
00000050: 1bf3 65bd 9301 27bc c60a 77bd df41 14bd
00000060: 5fe7 39be 8a79 19be 5df1 0abd 1ed5 1c3e
00000070: 1914 1d3e 0dbb 4c3d f72e 8bbe 679f 81be
00000080: afcd a7be 6ecb cbbe d9e5 9d3d 966f 2bbe
00000090: a6f6 4abe 071f 23bc b228 0fbe 4a1f 6a3d
000000a0: f0b4 e53d 5bd1 11be a1b9 99bc da11 1b3e
000000b0: bd84 91bd d808 0fbe ee5b 29bd bcdf e5bd
000000c0: 6803 1e3e d161 bf3d 6eef 85bc da15 95bc
000000d0: 2967 74bd bc83 62bd 450e 6ebb 1f3c 86bd
000000e0: 6b31 cabd 4509 2cbe db99 a1bd 5936 9d3c
000000f0: adae 283e d4e3 9f3d 9285 86be 5248 19be
00000100: 8119 db3d 9878 3a3e 4e6c 81bd 1b93 1f3e
00000110: a46e 583e 34b0 c5bb 7062 5c39 0412 2cbe
00000120: 9fe0 03bd 8cde 41be 5c21 71bc 503e 793d
00000130: 8220 023e 49a0 35bd 4e98 dabd ae37 963d
00000140: 0596 ebbc 3942 023e d47b df3d e6e2 44be
00000150: 15c3 093e 855f 3bbd 00de b73c 3212 b13d
00000160: 38ab 74be 0b87 ebbd e5c0 56be 375b 03bd
00000170: eacc 6d3d ae5d 3dbd f646 d43d 1f4d 34be
00000180: 5f64 67bd c424 92bd 6c52 81be 8c21 acbd
00000190: 82f5 74be acb0 ca3c c9fd 913d 7b34 afbb
000001a0: 0e89 a33d 1d69 70be d3e5 233e 5de8 50bd
000001b0: 4a13 42bc 5823 14bd c91b 98be 94c7 6cbd
000001c0: c704 1fbd 77ed 233e 1fe8 083d c9e3 42bd
000001d0: 9652 09be f576 0b3c 9ae6 76be 5686 aebd
000001e0: a0a0 2abc 2076 663d 385b 9cbe a8b7 c43c
000001f0: ab46 fbbd 429a 193e 0565 273e 1c1b 19be
00000200: a127 5c3e 6e8d a33e 574a 373e a583 123e
00000210: 0e0b a23e 9fdc 1b3e cf35 2dbe b5fe 6bbd
00000220: 2cf3 a6bd 6a5c b13c 5460 01bd d3f1 3b3d
00000230: cbcc 34bc 071a 3fbe b2de ef3d b62b 27be
00000240: d343 053e 9b21 3abd 9f47 2bbd 542f 263e
00000250: eb89 113e 7a46 dc3d 6018 3f3d e795 f3bd
00000260: 4143 39be d598 613d 337d 543d 0934 b13d
00000270: ae85 62bd 5868 763d 6319 51be 7b63 c1bd
00000280: f2ae c4be 5506 c7bd 4a3d 1c3d abe3 b7bd
00000290: 4fe1 a9be 7f1b 33be 49a1 d93d c327 443d
000002a0: 6b7e 133e 3254 38be 8f77 053e d6d2 fa3c
000002b0: 203d 9c3d c3b6 adbd 8238 9abe 1831 1c3e
000002c0: b3a3 0a3e 177c 29be 6ba0 96bc 5c0a 5bbe
000002d0: af03 41be 1dcd 0d3e 8f5f c1bd fe27 6bbc
000002e0: cccf b03b 5466 493d 459c 22be e36f b0bd
000002f0: cc3e 0f3e 51e7 77bd aebe fd3d 2d3d b9bd
00000300: a3f5 a83e 3dde 873e 77b8 77bd 170e 43bd
00000310: 1d4f 863d 4c4e 293e 6ce4 053e 9428 5a3e
00000320: ecfc ee3d 9f98 313d 691a 2b3e c27e fc3d
00000330: a94c 02be 1664 c2bd ff32 423e daeb 833d
00000340: 1a6e fa3c 1d28 853c d2d8 98bd 2f80 4f3d
00000350: ee93 463e 8a13 e3bd 0f04 d43d bf82 6a3e
00000360: 48c6 ccbd 6305 2a3e 6c3d 0a3c 888f d9bd
00000370: ab96 8a3d 7bf7 6d3c d17f d03c 57c2 123e
00000380: 1a72 14bc 7005 b43d 3aa0 72be 2f26 ccbd
00000390: da9a 903c 7a45 44be c248 15be 9ef8 bebd
000003a0: 0c22 bdbb 51b5 b4bd 5829 2dbe bcc2 d53d
000003b0: 31ce 243e 48d3 0fbe 1612 88bd 8632 2bbe
000003c0: 5326 113e cfa0 af3c be71 b13d 9dda 7bbe
000003d0: efd7 e9bc 9bd5 283e d894 7fbe 033f 9dbb
000003e0: b8fb 7dbe bcfd 5a3d d2cc 24bd 8dad dc3d
000003f0: 666c eabd 7b57 c43d 62c3 1dbe 6ebe 06be
-0.27948263 -0.12620038 -0.11904089 -0.11389539 0.09754979 -0.16383831 -0.055943456 -0.20648955
0.10773486 0.08343868 -0.2255785 0.000806028 -0.010000432 -0.20729622 0.055410847 -0.15309617
0.018096382 0.09444773 -0.036421236 -0.17938884 -0.056140047 -0.010193246 -0.06031301 -0.036195632
-0.18154667 -0.1498777 -0.03392159 0.15315673 0.15339698 0.049983073 -0.2718427 -0.25316927
-0.32774112 -0.39803642 0.077098556 -0.16741785 -0.19820651 -0.009956128 -0.13980368 0.057158746
0.11216152 -0.14240019 -0.018765273 0.15143529 -0.07105396 -0.13968217 -0.041347437 -0.112243146
0.15430987 0.09344829 -0.01634952 -0.018198896 -0.059668694 -0.055301413 -0.0036324423 -0.06554436
-0.09872707 -0.16800411 -0.07890674 0.019190954 0.16472884 0.07807127 -0.2627378 -0.14968994
0.10698224 0.18210065 -0.063194856 0.1558346 0.21135956 -0.006032968 0.00021017506 -0.16803747
-0.032196637 -0.18932551 -0.014717426 0.06085044 0.12707713 -0.044342313 -0.10673581 0.07334839
-0.028758058 0.12720574 0.1091229 -0.1922718 0.13453324 -0.04574539 0.022444725 0.086460486
-0.2389344 -0.11500367 -0.20972021 -0.03206941 0.05805675 -0.046231918 0.10365097 -0.17607544
-0.056492206 -0.07135919 -0.25258195 -0.08404836 -0.23921779 0.024742447 0.07128484 -0.0053468323
0.079851255 -0.23477598 0.1600564 -0.05100285 -0.011845419 -0.03616652 -0.29708698 -0.05780752
-0.038822915 0.16008554 0.033424493 -0.047580514 -0.1341041 0.008512248 -0.24111405 -0.08521716
-0.010414273 0.056264997 -0.30538344 0.024013355 -0.12269338 0.15000251 0.1634713 -0.14951748
0.21499492 0.3194384 0.17899452 0.14308031 0.3164906 0.15220879 -0.16915058 -0.057615954
-0.0815185 0.021650512 -0.031586006 0.04588492 -0.011035155 -0.18662272 0.11712398 -0.16325268
0.13014154 -0.045442205 -0.04181635 0.16228992 0.14212768 0.1075563 0.046654105 -0.11893826
-0.18092062 0.055077393 0.05187721 0.08652503 -0.055303268 0.060158104 -0.2041984 -0.094428025
-0.38414723 -0.097180046 0.038144387 -0.08978971 -0.3317971 -0.17490958 0.10626466 0.047889482
0.14403693 -0.18000868 0.13033889 0.030618113 0.07628846 -0.08482125 -0.30121237 0.15253103
0.13539009 -0.16551243 -0.01838704 -0.2139067 -0.18849061 0.13847776 -0.094420545 -0.014352797
0.005395865 0.049169853 -0.15879925 -0.08615091 0.13988799 -0.060523335 0.12389885 -0.090448715
0.32999906 0.26536742 -0.060478654 -0.04762086 0.065580584 0.16533774 0.13075417 0.21304542
0.11669335 0.04335844 0.16709293 0.12328865 -0.12724556 -0.09491746 0.18964766 0.064414695
0.030570079 0.016254479 -0.0746323 0.050659355 0.19392368 -0.11087711 0.103523366 0.22901438
-0.09998757 0.16603617 0.008437496 -0.106230795 0.06767019 0.014524336 0.025451573 0.14331947
-0.009060407 0.087900996 -0.23693934 -0.099682204 0.017651964 -0.19167128 -0.14578536 -0.09324764
-0.005771881 -0.08823646 -0.16910303 0.10437533 0.16094281 -0.14045441 -0.066440746 -0.16718492
0.14174776 0.021438984 0.08664273 -0.24595113 -0.028545348 0.16487734 -0.24959123 -0.0047987713
-0.24803054 0.053464636 -0.040234394 0.1077529 -0.114464566 0.09586998 -0.15406564 -0.1315858

backbone.4.bias f4 [11]
00000000: 9b2b 04be 1dbd 61be ff5d 9dbe 83d8 0dbe
00000010: db4f 023e 1e24 21be cc1f 703e a08d 6bbe
00000020: fade 873e 8d1b 2ebe 22e5 91be
-0.12907259 -0.22044797 -0.30735776 -0.13852124 0.12725775 -0.15736434 0.2344963 -0.23003244
0.26537305 -0.17002697 -0.28495127

branch_theta_y.0.weight f4 [128, 11]
00000000: a9df 97be 8dda 40be dd26 6cbe d372 4a3e
00000010: 1031 79be 7de9 fabd c45d d93d 2c6c b73d
00000020: 02d1 f03d a410 0abe 2181 cb3d 0e32 95bd
00000030: 165c 7c3d e632 a3be 833e 90be c91c 863e
00000040: e727 e9bb ba24 40be d4a6 cd3d 2f12 5b3e
00000050: 2fe1 693e 3cb1 453e bc08 043e f90b 893e
00000060: b018 4c3e 71e2 60be 127e 5eba 0769 96be
00000070: c6db 9ebe 1d06 b73e 8cf8 c3bc 80ba 5ebe
00000080: 9297 ee3d d065 3c3e c90b b8bd 1369 18be
00000090: 8f70 d2bd 8a35 bf3d e6bd 023e 2fb6 5e3e
000000a0: a21a 673e 2e84 883e 318e 4e3e 1e2d 87be
000000b0: 1ade b93d f8ea b63e 90e8 2a3e 01be ec3d
000000c0: 4210 72bd 4865 883e 7e1c 993d 7cff 8cbd
000000d0: 4b33 b13d fd88 10be 3a07 373e 5abf 713e
000000e0: d94d 883e 05d5 553d 90ac 09bd 51cb a8be
000000f0: 8e61 9a3e b03f 41be cc05 a5be 7e7b 23be
00000100: 794d bbbe 64ad 85be 16e7 483e 7fa9 4ebe
00000110: 2cc4 353e 500b 9f3e ab57 093e fe5c 933e
00000120: 436d eb3c 5e97 513d e663 39be 5a4b ad3e
00000130: 98b4 8a3e a350 9d3d 16cc 2c3c 1806 0b3e
00000140: 9e5d 21be 366c 6b3c 7882 84be f53d 90be
00000150: 3593 3b3e adcb 9e3d 9293 9e3e 3509 393e
00000160: 87a5 62be cdd7 e2bd 6e3d 9ebe deff a33e
00000170: 1ea3 a5be 47b3 913e 1897 c8be d9c6 9cbe
00000180: fab1 55be 984b 7abe 1d6c 1d3d 6635 72be
00000190: 3acd 26be e5ea 7dbe fa1f cf3d f8f1 4ebe
000001a0: b0f5 8b3e 6a6d 403e 693d 38be 4084 863d
000001b0: 1086 40be 0bad 8e3d 8116 9e3d 0fdb cf3d
000001c0: f39a 033e 0298 11ba 42fc b5be f0f5 c9bc
000001d0: 5c5e 9abe 41dc 893e 9557 cebd 4b46 433d
000001e0: 58f7 983e f4c1 363d 11db f33c e640 54be
000001f0: 12ad 68bd f536 9abe 9714 1a3e 5eb9 c3be
00000200: b215 383e 74be e33d 9711 d3bc 06ae 17be
00000210: d45e a4bd a916 84bc fde7 693e 4ff9 773b
00000220: 4e62 8cbc 0412 363e a0e5 c8bd 1647 9e3d
00000230: 6be9 a23a d3c0 3e3e 7aad 813e f04a 0f3e
00000240: 9851 613e 3140 623e 0746 9c3e 0f40 a2be
00000250: 4db4 9a3e f6af fc3c 84c0 1a3e 0381 06be
00000260: bcdd 99be cd71 2a3e a306 793e fcc0 50be
00000270: dddd 953e f0c6 a13d 7d96 96be d29e 96be
00000280: 3c4c 523e b159 1ebe c996 74bd 4417 2c3e
00000290: 97fd 7cbe 4263 393e 615b 57be a9ed 813e
000002a0: 5b36 b1bd eb8a 19bd 3def 983e f91a 64be
000002b0: 02df 9e3e 3ad4 2dbd efa9 133e caf7 6e3e
000002c0: baf9 47be 2824 adbc 30d4 e7bd 5033 85be
000002d0: e37f ee3d ef45 e13d a115 453e 0155 c43d
000002e0: f6a2 7f3e 7313 8d3e 054d 80be 301d 0dbd
000002f0: be92 01be 1937 f33d 8219 a03e ce26 03bf
00000300: 904e af3e d2dd 783e c1b1 22be 3e32 043d
00000310: 2946 af3e cffc a63c d789 92bc 0bc7 d1bd
00000320: 1524 2fbe 4950 073e c46f 30bd f5be 3e3e
00000330: 524a 723d 08ea 3ebe cca0 9abd f122 9f3d
00000340: df29 63be 7740 55be ec2a c4bd eb92 843e
00000350: a611 8cbe 3ea3 863e 92f8 8c3e 9a2d 4abe
00000360: 043a 46be 2abd 2abe a4b9 50bd e5a6 17be
00000370: 2ba4 213e 8a0e 0bbe 7958 60bd ae19 973e
00000380: 7df8 e4bd adce edbd 9f6d c6bd baeb 5c3e
00000390: 86d8 8abe 8f56 febe 9047 0fbe 4d5b d63d
000003a0: 720e 493e 9fca 15bd 4b4e a93e 166f 833d
000003b0: 558c ad3d 91fa 8fbe 81ee cd3d 6863 dc3d
000003c0: 4b09 b6be 870a 9dbd 2bcb 0e3e 070f 6fbd
000003d0: 76a2 26bd 6616 30be 0410 b73e 8504 4dbe
000003e0: a0bc cb3b e8a9 bc3e eed7 85be 7aa5 153e
000003f0: 2b59 c2bd 6219 94be 8207 dfbc fd06 f33d
-0.29662827 -0.1883337 -0.230617 0.19770364 -0.24335122 -0.122515656 0.106135875 0.08956179
0.11758615 -0.1348291 0.09936739 -0.07284938 0.061611257 -0.3187477 -0.28172693 0.26193836
-0.0071153524 -0.1876401 0.100415856 0.21393655 0.22839807 0.19305891 0.12893957 0.26766947
0.19931293 -0.2196138 -0.0008487414 -0.29377005 -0.3102705 0.35746852 -0.023922227 -0.21750832
0.116500035 0.18398213 -0.08986623 -0.14883833 -0.10275375 0.09336384 0.12767753 0.21749185
0.22568753 0.26663345 0.20171429 -0.2640161 0.09075566 0.35726142 0.16690278 0.11559678
-0.059097536 0.2663977 0.074761376 -0.06884667 0.086523615 -0.14114757 0.1787385 0.23608151
0.26621893 0.052205104 -0.033611834 -0.32967618 0.30152553 -0.18871951 -0.32230985 -0.15965077
-0.36582544 -0.2610885 0.19619402 -0.20181845 0.17750615 0.31063318 0.13412349 0.28781885
0.028738623 0.051169746 -0.18104514 0.3384655 0.27090907 0.07681396 0.010546705 0.13576543
-0.15758368 0.014369061 -0.2588079 -0.2817227 0.18317874 0.07753692 0.30971962 0.18069918
-0.22133456 -0.11076317 -0.30906242 0.3203115 -0.3235101 0.2845709 -0.39177775 -0.3062046
-0.20868674 -0.24442899 0.038433183 -0.23653182 -0.16289225 -0.24796636 0.10113521 -0.20209491
0.27335882 0.18791738 -0.17992176 0.065681934 -0.18801141 0.06966599 0.07719136 0.10149204
0.12852077 -0.0005553962 -0.3554402 -0.024653405 -0.30150115 0.26925853 -0.10075299 0.04767446
0.29876208 0.044618562 0.029767545 -0.20727882 -0.056805678 -0.30120054 0.15046917 -0.3822736
0.17977026 0.111203104 -0.025765223 -0.14812478 -0.080258995 -0.016124086 0.22842403 0.0037837808
-0.01713672 0.1778031 -0.098094225 0.07728402 0.0012429183 0.18628244 0.25327665 0.1399343
0.22003782 0.220948 0.30522177 -0.31689498 0.30215684 0.030845623 0.15112501 -0.13135152
-0.30051982 0.16644974 0.24318938 -0.20386118 0.2927083 0.078992724 -0.29411688 -0.29418045
0.20536894 -0.15463902 -0.059714112 0.1680575 -0.24706112 0.1810427 -0.21030952 0.25376633
-0.086529456 -0.037485998 0.29870024 -0.22275914 0.31029516 -0.042438723 0.14420293 0.23336712
-0.19528857 -0.021135405 -0.113197684 -0.2601571 0.11645486 0.10999667 0.19246532 0.09586526
0.24964508 0.275539 -0.2505876 -0.034451663 -0.12653634 0.118757434 0.3126946 -0.51231086
0.34239626 0.24303368 -0.1588812 0.032274477 0.34233215 0.02038422 -0.017887993 -0.102430426
-0.17103608 0.1321422 -0.043075338 0.18627532 0.05915291 -0.18643963 -0.07550201 0.077703364
-0.22183941 -0.20825373 -0.09578499 0.2589334 -0.27357215 0.2629642 0.27533394 -0.19743958
-0.19358069 -0.16673723 -0.05095829 -0.14809759 0.15785281 -0.13579765 -0.054771874 0.2951178
-0.11180208 -0.11611686 -0.09688877 0.21574298 -0.2711832 -0.49675414 -0.13992143 0.10466633
0.19634417 -0.036570188 0.33067545 0.06417672 0.08474032 -0.28120854 0.10055257 0.10761148
-0.35553965 -0.076680236 0.1394469 -0.05836394 -0.04068228 -0.17196044 0.35754406 -0.20021255
0.006217554 0.36848378 -0.26141304 0.14613906 -0.09489664 -0.28925616 -0.02722526 0.11866567

branch_theta_y.0.bias f4 [128]
00000000: fe23 47bc 89d9 643c ee99 b73d e5e7 6bbd
00000010: 5fa1 5ebe 07c0 963e e8be 823e 4ff2 3b3e
00000020: e0df 473e 0596 473e 623e a53e 3128 08be
00000030: 8188 253e f35d 9e3e bbbb 15be 9e50 fc3e
00000040: d64d 013e be6d ce3e 8a3a ba3c 33f8 563c
00000050: 30a1 5fbe f24b 8c3d 7fae 1e3e 43b5 aabe
00000060: 971c c4bd 6255 e73e 31a3 8a3e bcff c6bc
00000070: ce7d c03e abc9 3bbe 55f5 623e 436c 1a3f
00000080: 268c 633e 7ae3 5b3e 65d4 15be 3813 533e
00000090: 5e9e 50bd 503a 8c3e cdb0 ecbd 2747 c5bc
000000a0: 8f59 97be 5983 623e 1af6 bf3d 773c bd3e
000000b0: 9a77 913e a0d1 ae3d 5a10 673e 3ab3 2f3f
000000c0: d742 053f 2a0e 393e b711 5e3e 4035 6bbe
000000d0: 8831 663e bc49 1dbd 776f 033f c6c4 18bd
000000e0: 12ae f93e 3839 7bbe 5da5 5cbe e1cc 873e
000000f0: 50df ef3e ee10 cabd e9f2 143e 6dbf 0c3f
00000100: 2068 39be f853 303e 23aa 073f 8054 043f
00000110: d752 96be f679 093e 374a a23d 8aa6 cc3e
00000120: 46ef 7fbe 47bf 17be 0994 163f 8d4b 81be
00000130: a7f1 753e b154 88bd bd68 163e cb27 62bd
00000140: c008 2f3e 2f17 2e3e bddd 1fbe ff80 d33e
00000150: cc50 78be c0fb 23bf 2f2d 613e 2b0a fdbd
00000160: 6d0d 5e3d 40b1 1d3e e0ea 553d fbe4 91bd
00000170: 45cf cf3e 5199 d73d c5f1 3b3e b1ac 99be
00000180: 5d3d 08bd ab69 ac3d c8d5 853e e199 ebbd
00000190: cbea 8f3d 9e5b 843e 75e4 363e 0c88 91be
000001a0: 1098 943e 11a0 d3bd 17c0 753e 35b8 e43e
000001b0: ab71 8d3e 6f88 1b3f 9303 5cbe 8ad5 a63e
000001c0: 5504 0a3f f4bf cd3e 2ac8 6ebe bd84 47bd
000001d0: dceb 0d3e ae72 9ebd 0057 0dbe 81ec 863e
000001e0: c8fc 293e 8a88 c83e 675a c03e becc c13e
000001f0: 872a 893e bb8a 003d 1d33 bd3e 91b8 073f
-0.012154577 0.01396788 0.08964907 -0.0575942 -0.21741246 0.2944338 0.25536275 0.18354152
0.19518995 0.19490822 0.32274157 -0.13296582 0.16165353 0.30931053 -0.14622395 0.49280256
0.12627348 0.40318102 0.022732992 0.013120699 -0.21838832 0.06850423 0.15496252 -0.33341417
-0.095757656 0.4518233 0.2707763 -0.024291866 0.3759598 -0.18338649 0.22163899 0.60321444
0.22221431 0.21473494 -0.14631803 0.206128 -0.05093228 0.2738824 -0.115571596 -0.02408178
-0.29560515 0.22120418 0.09373112 0.36960194 0.2841156 0.085360765 0.22564831 0.68632853
0.52055115 0.1807181 0.21686445 -0.22969532 0.22479832 -0.038400397 0.51341957 -0.037297033
0.48765618 -0.24533546 -0.21547456 0.26523498 0.4685006 -0.0986651 0.14545788 0.5497959
-0.18106127 0.17219532 0.52993983 0.51691437 -0.29360077 0.1342543 0.079243116 0.3997081
-0.2499362 -0.1481906 0.58819634 -0.25252953 0.24017964 -0.066567786 0.14688392 -0.05521373
0.17093182 0.17001031 -0.1561193 0.41309354 -0.24249572 -0.64056015 0.21989892 -0.12355455
0.054212023 0.15399647 0.052225947 -0.07123753 0.40587822 0.1052729 0.18353947 -0.30014566
-0.033261646 0.08418592 0.26139665 -0.115039594 0.07027205 0.25851148 0.17860587 -0.28424108
0.29022264 -0.103332646 0.23999058 0.4467179 0.27625784 0.60755056 -0.21485738 0.32584792
0.5391286 0.4018551 -0.23318544 -0.048710573 0.13859504 -0.07736717 -0.13802719 0.26352313
0.16600335 0.3916667 0.37568972 0.37851518 0.26790258 0.031382304 0.3695306 0.53016

branch_theta_y.2.weight f4 [16, 128]
00000000: 7cf9 ee3c 6185 8fbd a400 97bc 93af 39bd
00000010: c000 933d 8015 263e d894 1f3d d2df debd
00000020: e4ff 713f 58aa 60bc c692 833d 9d94 9e3d
00000030: b75e 87bd ae41 863d 129b 17bd 6818 2fbd
00000040: 7516 f93c 45a8 063e e131 14bb ef2c 393d
00000050: 5bb9 063e 9854 1d3d 2da3 30be 5955 733e
00000060: 1547 823c 3d2c bb3c 6d87 c8bd bd27 cd3c
00000070: 4d54 573c 45a8 f13c e825 abbd 4bf3 7bbc
00000080: 5de7 533e 3593 963d 30cb b2bc 79f0 993d
00000090: 68eb 4f3d 0be8 7abc e825 363d 510e 833d
000000a0: 8c58 123e 6272 a83d ee42 75bd 8cc1 003d
000000b0: b129 1e3e 5f52 d43c a5ff 773e 7c69 42bd
000000c0: 826b c93a fa0b 89be bac2 c93d 2f42 e7bc
000000d0: 82f1 a6bc f372 7f3d 05d6 193e d8e4 963d
000000e0: 524d b13b dccf 7a3d 8b0d c53d b565 11bd
000000f0: 8d82 973d d3dd 0abd 29b2 11bc a1a1 8e3d
00000100: b5fe 233d 6e5d 9a3d 4441 383d 8da7 74be
00000110: 3336 9fbd 0c12 193d d5e8 8bbf ebfa a73d
00000120: 18f6 8bbc 992c 2bbd a199 2c3b 7b6a 3c3e
00000130: 0a27 8bbd 3896 1b3c 7a3b 353d feef 77bd
00000140: e399 35bc a1d3 0c3d 982e 78bd 8520 ff3e
00000150: 65ff 25bd 7fec c33e 4205 553d 9cb5 6d3b
00000160: a190 dcbc 6950 26bd cd16 073b e692 3e3e
00000170: f312 b93d aeb1 143e 9a9b fd3d b92f 21bd
00000180: d671 433d ed73 023c f15f 6cbb 0e8c 833d
00000190: 16ac 9ebd f3eb 25bd 8d9e 4f3d abe9 133d
000001a0: 28af 0c3d 289b aa3d c523 a5bd ecf2 9d3d
000001b0: a759 ef3d e147 e73d 10f0 a0bc 2015 933c
000001c0: b13c 243e 2717 163e bbb3 49bd 37a1 1d3c
000001d0: a80e 0fbf a1ec b23d fd77 94bd aadb ee3c
000001e0: 5ffd b93c b202 de3d 8b5a 17bd 4d7c ad3c
000001f0: 5822 b8bd 7c49 a1bd 9c0e a43d 89bd a2bd
00000200: e2ff a4bc 10c6 17bd de93 15be a94b 6cbd
00000210: fc12 0fbd 02d8 09be 184d 823d 268c 9fbd
00000220: 70e8 b23e 772b ae3d 81b9 983d 2ac3 c1bd
00000230: 7f31 223d 1b06 1a3d 80ba b2bd 5456 f43d
00000240: 043e f83b b4b7 fb3e e44f 83bd 054b 823d
00000250: 07d9 14be b05e 52bd 1a08 07be 337a 563e
00000260: c7e9 9ebd 0005 173d 6cae 0fbd 6418 dcba
00000270: 0f46 33bc 735d 04be 465f 533d f30f 263a
00000280: 5d80 2b3f 6daf 0c3d eef9 863d 82a6 7bbc
00000290: 029e fe3c c0a3 b93c aa12 f5bd 4ab7 71bd
000002a0: 1699 3f3d 8ac7 e0bc 45ec 85bd fe48 5ebd
000002b0: d8f9 213e 6262 d93c 6b92 baba ca43 bd3f
000002c0: 92aa 273e d318 b53e 8f3a 1bbd 9ae0 53bd
000002d0: 1f29 253d 7f5c 493f 5ad0 91bc b888 6bbc
000002e0: 823f c03b 7da8 163d f7b0 873d fe99 1ebd
000002f0: d3e7 003e 0035 13bb c29e 6c3d 227d ab3d
00000300: f845 eab8 490a 633c 90b3 fa3d cfff 803e
00000310: 8b57 1fbd 96a7 303b 927f cabe aae1 403d
00000320: 016c e03c 6412 513d 5161 083e 5cbf 19bb
00000330: cb8e d2bc 3789 50bd 613e 95bd efb8 97bc
00000340: 7171 713d a0c7 a0bd 4511 8cbd d232 9c3c
00000350: 5285 b3bd 5cbc f9be 4262 9abe eefc a83d
00000360: 878c c8bc f409 c0bb 2583 bc3d 4234 49be
00000370: b886 243d 191c 983d d2b2 8dbc 613a 88bd
00000380: 3abc 6fbc f996 16bd b84d cc3d eda1 2d3d
00000390: af10 1fbf 2338 a33d 3799 943d de86 b33c
000003a0: 9e06 643d df63 983d 2b11 f23c 94ff 143d
000003b0: 67c0 70bd 7129 083e f0ab cebb 38e7 80bd
000003c0: e562 4ebc efc3 023d 71b8 a5bc dba6 c63b
000003d0: e29a 7a3f 5cc4 38bd 8c23 1dbd 3e83 8abc
000003e0: a872 a13e c922 b5bd 165f 333e 3bcb 2b3d
000003f0: 0ee1 933d 0e20 ddbc 077f 2f3e a5f5 0a3e
0.029171698 -0.07007862 -0.018432923 -0.045333456 0.071778774 0.16219139 0.038960308 -0.10882534
0.94531083 -0.013712488 0.06424479 0.077431895 -0.06609862 0.06555496 -0.03701312 -0.042747885
0.030406216 0.13150127 -0.0022612738 0.045208868 0.13156645 0.038410753 -0.17249747 0.23763026
0.015903035 0.022848243 -0.097914554 0.025043363 0.0131426575 0.029499182 -0.083568394 -0.01537783
0.20693727 0.07352296 -0.021825403 0.0751657 0.05076161 -0.015314112 0.044469744 0.06399215
0.1429159 0.08224942 -0.059878282 0.03143458 0.15445592 0.025918184 0.24218614 -0.04746388
0.0015367123 -0.2676695 0.09851594 -0.028229801 -0.020378832 0.062365483 0.15023048 0.07367867
0.0054108286 0.061233386 0.09621724 -0.035497386 0.073979475 -0.033902954 -0.008892574 0.06964422
0.04003783 0.075373515 0.044984117 -0.2389204 -0.077740096 0.037370726 -1.093043 0.08202156
-0.01708512 -0.04179058 0.0026336687 0.18399994 -0.067945555 0.009496264 0.044246174 -0.06053161
-0.011084053 0.034381513 -0.06059131 0.49829498 -0.040526766 0.3826637 0.052006967 0.0036271578
-0.026924433 -0.04060403 0.0020612956 0.18610725 0.090368174 0.14520904 0.12383194 -0.039352152
0.047715984 0.007962209 -0.0036067928 0.06423198 -0.077476665 -0.04050822 0.050688315 0.036111515
0.03434673 0.08330375 -0.08063463 0.07712349 0.11687022 0.11293007 -0.01964572 0.01795441
0.16038777 0.1465727 -0.04924367 0.009620956 -0.5588174 0.0873654 -0.072494484 0.029157478
0.022703825 0.10840358 -0.036951583 0.021177435 -0.089909256 -0.07875344 0.08010599 -0.07946307
-0.020141546 -0.03705412 -0.14607188 -0.057689343 -0.034930214 -0.13461307 0.06362361 -0.07790403
0.3494296 0.08504384 0.07457257 -0.09461053 0.039597984 0.03760348 -0.08726978 0.11930528
0.007575752 0.49163592 -0.06411722 0.06361965 -0.14535914 -0.051359832 -0.13186684 0.20945053
-0.07759433 0.036870003 -0.03507845 -0.0016791937 -0.010941996 -0.12926273 0.05160453 0.0006334774
0.6699274 0.034346987 0.06590639 -0.015359523 0.031081203 0.02266109 -0.119664505 -0.05901269
0.046776854 -0.027438898 -0.065392055 -0.05426883 0.15817964 0.02653617 -0.001423431 1.4786313
0.16373661 0.35370502 -0.037897643 -0.05172787 0.04032242 0.7865676 -0.017799545 -0.014375858
0.0058669457 0.036781777 0.0662555 -0.038721077 0.12588434 -0.002246201 0.05776859 0.083734766
-0.00011171022 0.013857433 0.1224128 0.25195166 -0.038901847 0.0026955358 -0.39550453 0.04709021
0.02739525 0.05104293 0.13318373 -0.0023460006 -0.025702855 -0.05091211 -0.072872885 -0.0185208
0.058946077 -0.078505754 -0.068392314 0.019067202 -0.08765663 -0.4877652 -0.3015309 0.082513675
-0.024481071 -0.0058605615 0.09204701 -0.19648841 0.04016754 0.07427234 -0.017297182 -0.0665176
-0.014632279 -0.036765072 0.09975761 0.042390753 -0.6213483 0.079696916 0.07255786 0.021914896
0.055670373 0.07440924 0.029549202 0.03637655 -0.05877724 0.13297059 -0.0063071176 -0.062941015
-0.0125968205 0.031925138 -0.02022955 0.006062371 0.9789258 -0.045109138 -0.03836398 -0.016908284
0.31532788 -0.08844525 0.17516741 0.041941863 0.0722066 -0.026992824 0.17138301 0.13570268

branch_theta_y.2.bias f4 [16]
00000000: b8eb c9bb 7ba7 8d3e 7cb6 c0bc 0526 22bd
00000010: 8441 b63e 43c8 3d3d 7d5e 9a3e 5110 a13e
00000020: 71db 653d 697c a7bc 131f d33e f697 af3d
00000030: c672 83bd 66f6 943e a9dd 353e 982a b93e
-0.006162133 0.2766684 -0.023524515 -0.03958704 0.3559686 0.046333563 0.30150214 0.3145776
0.05611748 -0.020445066 0.41234645 0.08573906 -0.06418376 0.29094237 0.17760338 0.3616531

branch_theta_y.4.weight f4 [4, 16]
00000000: 3f4a af3d 0f1b 6abe dc6f ecbd e6e5 54be
00000010: 4dea ddbc 45da 1dbe 6b56 173e f39a 543e
00000020: bed6 0cbe 9571 70be 3270 573d b2d2 1abe
00000030: 08d5 463e fa49 9a3e 4ee2 0abd 358f 863d
00000040: 0869 bdbe 7a5a 4e3e f056 a9bc 9f59 273d
00000050: c17d 91be dbce d53d a906 0fbe 811e 1bbd
00000060: bc33 163d ca1d 293e d4f4 3c3c 5473 6a3e
00000070: 60c7 ac3c d5af 6ebe 5f3a 9c3e 3cd0 5c3c
00000080: f8e1 d6bd d041 2abf ba9a 103e babb 05bd
00000090: 0600 a1be abfd fa3d 3c95 44be 2350 e43d
000000a0: a955 0a3d 7006 0b3e d78b ba3d 7da5 6d3e
000000b0: 2877 e33d fb2b 20be f493 2d3d d551 07be
000000c0: 2528 a5be 67d7 043e c027 38bc 1038 f93d
000000d0: 2757 7b3d c55c 583d de54 2a3e 9f8c 363e
000000e0: fd37 37be 90e6 233e 75f2 a83e a47c 16bd
000000f0: b86a 64bd fd49 85bc 5fba a43e b6ca 633e
0.08559083 -0.22861885 -0.11544773 -0.20790824 -0.027089262 -0.15415294 0.1477906 0.20762233
-0.13753793 -0.23480828 0.052597232 -0.15119436 0.19417202 0.30134565 -0.033907227 0.06570283
-0.36994195 0.20151702 -0.020671338 0.040856954 -0.28416255 0.10439845 -0.13967384 -0.037870888
0.03667043 0.1651527 0.011532981 0.22895557 0.021091163 -0.23309262 0.30513284 0.013477381
-0.10492319 -0.6650667 0.14121523 -0.032649733 -0.3144533 0.122554146 -0.19197553 0.11148097
0.0337731 0.13576674 0.091087036 0.2320766 0.111067116 -0.15641777 0.042377427 -0.1321481
-0.3225719 0.12972794 -0.011239946 0.12168896 0.06136241 0.052822847 0.16633937 0.1782708
-0.17892452 0.16005921 0.3299748 -0.03673996 -0.055765837 -0.016270632 0.3217344 0.22245297

branch_theta_y.4.bias f4 [4]
00000000: 755b 9c3d cc19 f7be f6cd 0abc 6c1f 853e
0.076346315 -0.4826187 -0.0084719565 0.26000535

branch_theta_z.0.weight f4 [128, 11]
00000000: ece6 bfbd 9bd6 71be 000f 963e 5a28 343e
00000010: 64c7 053e 245c 493e 1b95 053e ac83 94be
00000020: 31b3 5a3d 0428 8ebe fa9d ca3d 3136 1f3e
00000030: 4517 8f3e 34dc 853e ae28 cf3d d683 773e
00000040: 6d63 6f3e b254 42be 74fb 6bbd e800 2cbe
00000050: 2b69 a03d 2263 d83d 5c31 763e c358 75be
00000060: 6cbc d0bd e3a9 203e 0513 5dbe f218 7ebe
00000070: 8e28 49be 33d5 8d3e b547 61be 6ab3 8bbe
00000080: 915c 15be 2481 ac3d ee74 d13d 5679 86be
00000090: dcd7 67be f9a7 62bd 0232 a83c 1faf 51bd
000000a0: 2e5e 283e 33fe 673e fca4 4d3e 24c2 c1bd
000000b0: 773e 973e 230a 5b3e f226 973e 35d3 84be
000000c0: d833 063e d8c3 583e 6f76 1bbe d860 ef3d
000000d0: f8ba 4ebd 433e 3e3d 396f 15be 6186 8fbe
000000e0: 4036 f63d bc0b c6bc a23e 073e a3af 823e
000000f0: 4382 e03d ba8a cfbd 2969 13bb 38e0 47be
00000100: b85e 86be f743 0c3d 4409 11be fd94 5e3e
00000110: dd3f ee3d 18e2 473e 4e39 473e b460 3cbe
00000120: b66e 133e 96b7 31be 529f d6bd 10db 50be
00000130: 635b f43c e872 b1ba 76df 1fbe 4365 823d
00000140: e90b 8bbe c61d d1bd 161e 8abe 8336 5ebe
00000150: ef60 2a3d a5fa 873e 86a0 a6bd f2c2 da3c
00000160: f588 2e3e 1836 733b f936 41bd 33f8 143e
00000170: ffb3 753e bc34 b9bc cb75 3dbe f413 8e3d
00000180: f0ad a43d 2ce0 d03d c529 303d 0e2c 8dbd
00000190: 4b7f ab3c 2fa7 aabd 1f55 bf3a 4eff 783e
000001a0: d9c8 113d a8c6 6ebe e66d 183d d7a3 083e
000001b0: a0ae 9e3c aa04 963e d9e1 34bd f7b4 40be
000001c0: 62ea 33bd 326b 7b3e 8ea3 61be 5725 19be
000001d0: c1f7 673d bf20 9fbd 2f56 86be 63e3 e03d
000001e0: 714d 603d bb26 91be e4b2 e43d 18c3 e33d
000001f0: 88d4 233c e3cb 483e f330 4ebe 9b6c 86be
00000200: 9155 29bd 281c 8e3e 541c 873e 921a 35be
00000210: 89b1 3fbd 4b69 8abe f8c9 243e acef 933d
00000220: 6305 593e dae3 c93d e01f 8f3e 543b 9c3d
00000230: 5b71 90be 1e4e 3dbe ab69 69be c6f4 193d
00000240: bc0a d8bd 1068 753e fbf8 853e e821 623e
00000250: 1bc2 8d3e c887 2bbe 5247 9abe 38db 1ebe
00000260: 4cd8 c8bd 8502 e13d f68e f23d e7ea 92bd
00000270: c0d0 803d 0e42 81be a5b7 debc 28af ff3d
00000280: e201 8f3c 73b2 96be 7c79 58bd d4ea 5abe
00000290: eefb 1d3e 3d4d febd 3632 813d c1b3 8d3d
000002a0: 7788 fd3c e1e3 c4bc 5414 32bd f9ba 7bbe
000002b0: f81e 723e 1558 e7bd 40d2 11be 5f86 863e
000002c0: 724d 45be 0cf0 963e d133 eb3a 1fe4 47be
000002d0: be58 5c3d 055b 653e 60fe 36be bc08 30be
000002e0: 0387 0a3d e089 4d3d 9917 f1bc e274 643e
000002f0: 6f74 8f3e 44bf 97be 5479 af3d 2901 9ebd
00000300: 72d8 55be fd0b 5dbe 2f73 59be 420e 93be
00000310: b989 763e 1241 903e 6db3 723e befd 1ebe
00000320: 8bb8 43be 0ea9 3bbe 354c 86bd 6e9b 643e
00000330: 4d2a 50be 9a7d 983e 07e0 863e 9024 453e
00000340: 5d65 88be e51d 04be 438e 373e cd45 57be
00000350: abf0 98be 2820 96be 5c55 3c3d 3c84 98be
00000360: 48fe 97be e7b5 633e 1a50 6a3e 397c 51be
00000370: 0eb8 3fbd 9cf2 4bbc 0f7b 663e 3d2b 22be
00000380: cef4 63be f5ea 40be 6404 183e 6166 7abe
00000390: 9cdb 803e 0276 113c 108c ba3d 2bef 85be
000003a0: 7f5f 27be 9571 a63b b51c 983e 6368 84be
000003b0: cef1 28bd a2e6 583c 1994 8dbe 2e42 043e
000003c0: a834 4abe ca63 8b3e 62fd 73be 6eb3 4dbe
000003d0: 787e 883e 7ff9 54be c8ba 7a3e 3748 a43d
000003e0: 1c12 96be 1972 6c3e 9728 04be 9d9e 8e3a
000003f0: 3f1b 97bd f129 623d 4bed 08bd ce50 21bb
-0.09370217 -0.23617022 0.2930832 0.17593518 0.13064343 0.19664055 0.1304516 -0.29006708
0.053393546 -0.27764904 0.09893413 0.15548016 0.2794744 0.26144564 0.10115181 0.24171385
0.23377772 -0.18977621 -0.05761285 -0.1679722 0.07832559 0.10565783 0.24042267 -0.23959641
-0.101921886 0.15689807 -0.21589287 -0.24814203 -0.19644377 0.2770172 -0.2200001 -0.2728532
-0.14586093 0.08423069 0.10227381 -0.26264447 -0.22640938 -0.055335972 0.020531658 -0.0511924
0.16442177 0.22655563 0.20082468 -0.094608575 0.29539844 0.21390586 0.295219 -0.25942388
0.13105714 0.21168458 -0.15181898 0.11688393 -0.050471276 0.046446096 -0.1459321 -0.2803221
0.12022066 -0.024175517 0.13207486 0.25524625 0.109623455 -0.10133882 -0.00224931 -0.19519126
-0.2624414 0.034244504 -0.14163691 0.21736522 0.11633275 0.19519842 0.19455454 -0.18396264
0.14397702 -0.17355189 -0.10479607 -0.20396066 0.029828733 -0.0013538273 -0.15612587 0.063669704
-0.27157524 -0.10210757 -0.2697608 -0.21700482 0.04159635 0.26558414 -0.08136086 0.026704285
0.17044432 0.00371111 -0.047171567 0.14547805 0.23994444 -0.022608154 -0.18501966 0.069373995
0.080409884 0.101990074 0.043008585 -0.068931684 0.020934721 -0.08332669 0.0014597512 0.24316141
0.035591934 -0.23317969 0.037214182 0.1334375 0.019370377 0.29300433 -0.044160698 -0.18819033
-0.043924697 0.2455261 -0.22035047 -0.1495565 0.05663276 -0.07769918 -0.26237628 0.109808706
0.054761354 -0.28349862 0.11166933 0.111211956 0.009999402 0.19609027 -0.2013586 -0.26254734
-0.041341368 0.27755857 0.263888 -0.17685917 -0.04680017 -0.27033457 0.1609267 0.07223448
0.21193461 0.09857912 0.27954006 0.076285034 -0.28211483 -0.1848683 -0.22794215 0.03758695
-0.105489224 0.23965478 0.2616652 0.22083247 0.27687153 -0.16751015 -0.30132538 -0.15513313
-0.0980688 0.10986809 0.11843674 -0.0717371 0.06289816 -0.25245708 -0.027187178 0.1248458
0.017456952 -0.2943302 -0.05285023 -0.21378642 0.15428135 -0.12417076 0.06308405 0.06919051
0.03094886 -0.024034442 -0.043476418 -0.24583043 0.23644626 -0.11296097 -0.1424036 0.26274392
-0.19267824 0.29480016 0.001794452 -0.19520615 0.05379557 0.22398002 -0.17870474 -0.17190832
0.033820163 0.050180316 -0.029430198 0.22310212 0.2801852 -0.29638112 0.085680634 -0.07715065
-0.20883349 -0.21586604 -0.21235345 -0.28721815 0.24075975 0.28174645 0.23701258 -0.15526482
-0.19113366 -0.18326208 -0.06557504 0.22324917 -0.20328636 0.29783326 0.26342794 0.19252229
-0.26639834 -0.12902029 0.17925362 -0.2102272 -0.29871115 -0.29321408 0.045979843 -0.29788387
-0.2968619 0.22237359 0.22882119 -0.20457543 -0.046806388 -0.012447979 0.2250788 -0.15836807
-0.22261354 -0.18839629 0.14845425 -0.24453117 0.2516755 0.008878233 0.09108746 -0.26159033
-0.16345023 0.005079458 0.29709402 -0.2586089 -0.041246228 0.013238581 -0.27652052 0.1291587
-0.1974665 0.2722457 -0.23827127 -0.20087978 0.26658988 -0.207983 0.24485314 0.080215864
-0.2931069 0.230904 -0.12906109 0.0010881011 -0.07378244 0.05521578 -0.033429425 -0.0024614814
