pthfiles/finaldraft_fixedH.pt (torch, 101669 bytes, 33 tensors)

clamp_param f4 [3]
0	0x3f666666	0.9
1	0x3f666666	0.9
2	0x3f666666	0.9

clamp_min f4 [3]
0	0x3f333333	0.7
1	0x3f333333	0.7
2	0x3f333333	0.7

clamp_max f4 [3]
0	0x3f8ccccd	1.1
1	0x3f8ccccd	1.1
2	0x3f8ccccd	1.1

backbone.0.weight f4 [128, 11]
0	0xbd99d435	-0.075111784
1	0xbe6773df	-0.22602795
2	0xbddce821	-0.107864626
3	0xbdb67333	-0.08908691
4	0x3d15ec6f	0.036602434
5	0x3e1bcdf7	0.15215288
6	0x3d76bffc	0.060241684
7	0xbe6c49c8	-0.2307502
8	0xbe6a4622	-0.22878316
9	0xbe70c1c6	-0.23511419
10	0x3e273538	0.16328895
11	0xbe4627a0	-0.19351053
12	0x3dbacfb7	0.0912165
13	0xbd47c8bb	-0.048775416
14	0xbe4bdff9	-0.19909658
15	0xbe1c5950	-0.15268445
16	0xbe6a2e5c	-0.22869247
17	0xbb14575b	-0.0022635076
18	0xbe7c3fc5	-0.24633701
19	0x3e13870c	0.14406985
20	0xbe598940	-0.21243763
21	0xbe7a6fb5	-0.24456675
22	0xbe21ffb8	-0.15820205
23	0xbe67ca7d	-0.22635837
24	0xbe0b2f98	-0.13592374
25	0x3dc61a0f	0.09672939
26	0xbd8308a5	-0.06398133
27	0x3e6f2edc	0.23357719
28	0xbcd76709	-0.026294248
29	0x3e10aca0	0.14128351
30	0xbbd25567	-0.006418872
31	0xbe51bf06	-0.20483026
32	0xbd010540	-0.031499147
33	0xbe0c90c5	-0.137271
34	0x3da10eb6	0.07864134
35	0xbd82036a	-0.063483074
36	0x3efd9999	0.49531248
37	0x3e8dc8f5	0.2769238
38	0xbe720be2	-0.23637345
39	0x3df60753	0.12013116
40	0xbe3d7521	-0.18501712
41	0x3ea02ba5	0.31283298
42	0xbde10877	-0.10987943
43	0x3dc4f5c9	0.09617192
44	0x3d06473a	0.03278277
45	0xbdbf56a8	-0.093427
46	0xbde8747b	-0.11350342
47	0xbe930a6a	-0.28718883
48	0x3da7d4d2	0.08194889
49	0xbe2fbad6	-0.17161116
50	0xbc257fcf	-0.010101273
51	0x3e7915c0	0.24324703
52	0x3da89cf8	0.082330644
53	0x3e44e57d	0.19228168
54	0xbe4b1a46	-0.19834241
55	0xbdb4899a	-0.08815308
56	0xbe91f3a1	-0.28506187
57	0x3e373011	0.1788943
58	0x3e607c5d	0.21922441
59	0xbe8e6ef3	-0.27819023
60	0xbe82edd2	-0.25572067
61	0x3d91ec4b	0.071251474
62	0x3e6a3baa	0.22874323
63	0x3e5d2d20	0.21599245
64	0xbe77e395	-0.2420791
65	0xbe934e49	-0.28770664
66	0xbc79aa92	-0.015238421
67	0xbe0bad82	-0.13640407
68	0x3dfc05f5	0.12305824
69	0xba9aebc2	-0.0011819529
70	0xbd04c476	-0.032413922
71	0x3e7e0997	0.24808346
72	0x3cc9db52	0.024640713
73	0xbd8e4d3f	-0.06948327
74	0x3e8fb1d4	0.2806536
75	0x3ea3b004	0.31970227
76	0x3e6f7393	0.23383932
77	0x3e2577e3	0.16159014
78	0xbd177e24	-0.03698553
79	0x3eb913b0	0.36147833
80	0x3da686c0	0.0813117
81	0x3e825b4b	0.25460276
82	0x3e9f08dc	0.31061447
83	0xbb6734d8	-0.00352793
84	0xbe091c2a	-0.1338965
85	0x3e02a2fb	0.12757485
86	0xbdbe1515	-0.09281365
87	0xbe080d75	-0.13286383
88	0x3ca7fad4	0.020505346
89	0x3e4eb5fe	0.20186612
90	0x3d320fb1	0.043471996
91	0x3e823bcd	0.2543625
92	0x3d4b2001	0.04959107
93	0xbe99da92	-0.30049568
94	0xbe70a849	-0.23501696
95	0xbe0b697c	-0.13614458
96	0xbe994734	-0.29937136
97	0xbdf7cbb0	-0.12099397
98	0xbe7b4068	-0.24536288
99	0x3e0defec	0.13861054
100	0x3cabe909	0.020985143
101	0xbe258170	-0.16162658
102	0x3ea3f36e	0.3202166
103	0xbe821195	-0.2540404
104	0x3e9612da	0.29311258
105	0xbd706eb8	-0.05869934
106	0x3db0a8d0	0.086259484
107	0x3e674a36	0.22586903
108	0xbdafe4c8	-0.085885584
109	0xbe8bcbb0	-0.2730384
110	0xbdd2d809	-0.10295112
111	0xbe1693cb	-0.14704816
112	0x3e87d06c	0.265262
113	0xbdb36ce1	-0.087610014
114	0xbdc41a39	-0.09575314
115	0xbdaf4d0b	-0.08559617
116	0x3e8ec5f3	0.27885398
117	0x3d415928	0.047204167
118	0xbe353121	-0.17694522
119	0xbd989a12	-0.074512616
120	0xbe06993a	-0.13144389
121	0x3e5a335d	0.21308656
122	0xbd0f0c8b	-0.03492407
123	0x3eab7a3b	0.33491692
124	0xbdf4cb67	-0.119528584
125	0xbd41f075	-0.04734846
126	0xbe4786de	-0.19485041
127	0xbe4a981b	-0.19784586
128	0x3e93b99b	0.28852543
129	0xbda23e68	-0.07922059
130	0x3e124468	0.14283907
131	0xbea8e69c	-0.3298844
132	0x3c820ff1	0.015876742
133	0x3d6d0626	0.05786719
134	0x3e7f5f56	0.24938712
135	0x3e23f894	0.16012794
136	0x3d5dcdb8	0.054151267
137	0x3e75caa9	0.2400309
138	0xbd858346	-0.06519179
139	0x3de5a613	0.11213317
140	0xbe72c4ed	-0.23707934
141	0x3e933cf6	0.28757447
142	0x3c09da2e	0.0084138345
143	0x3e1095cd	0.14119644
144	0x3cce782a	0.025203783
145	0xbdf8121d	-0.1211283
146	0x3d876b7f	0.066123
147	0x3e2b9368	0.1675545
148	0xbe7d37f9	-0.24728383
149	0xbe60d634	-0.21956712
150	0xbd3723d7	-0.044711914
151	0x3e8a8a44	0.27058613
152	0x3e915969	0.28388527
153	0xbd4cd7c8	-0.050010473
154	0xbdb02ff2	-0.08602895
155	0x3e718d13	0.23588972
156	0x3ba154a4	0.00492342
157	0x3e956049	0.29175022
158	0xbe698476	-0.22804436
159	0xbddae3fd	-0.106880166
160	0x3e7e4f72	0.24834993
161	0x3e7301d7	0.2373117
162	0x3e66253c	0.22475141
163	0x3da0f944	0.07860044
164	0x3dab5f89	0.08367831
165	0x3e09de14	0.13463622
166	0xbe01fac7	-0.1269332
167	0xbde2428d	-0.1104785
168	0x3e628299	0.22120132
169	0x3e535f0d	0.20641728
170	0xbecbf213	-0.39833125
171	0x3da4a705	0.08039669
172	0x3e234020	0.1594243
173	0xbcffef8a	-0.03124215
174	0xbe754ff6	-0.23956284
175	0xbe6b27fd	-0.22964473
176	0x3e2e2626	0.1700674
177	0x3eb49027	0.3526623
178	0x3d1faa73	0.038980912
179	0xbd3c47a4	-0.04596676
180	0x3d85b567	0.065287404
181	0x3d3d2b1a	0.046183683
182	0xbdd12a20	-0.10213113
183	0x3e2206aa	0.15822855
184	0x3d00f595	0.031484205
185	0xbe147cb9	-0.14500703
186	0xbec2e07f	-0.38061902
187	0xbdeb59cb	-0.11491736
188	0x3e143b00	0.14475632
189	0x3e8fc4f0	0.2807994
190	0xbc7f3652	-0.015576916
191	0x3db3d279	0.08780379
192	0x3e98e501	0.29862216
193	0xbe977fff	-0.2958984
194	0xbe912291	-0.28346685
195	0x3e59c244	0.21265513
196	0x3dfc4e1e	0.12319587
197	0xbe806500	-0.25077057
198	0x3dee992b	0.11650308
199	0x385d8c67	5.2821266e-05
200	0x3cd64eb1	0.02616057
201	0x3e48a82f	0.19595407
202	0x3e3f4e83	0.18682294
203	0xbb3e3ec1	-0.0029029103
204	0x3d117abb	0.035517436
205	0x3d8e3ab6	0.06944792
206	0x3de370cb	0.11105498
207	0xbe236f3b	-0.159604
208	0x3c8d7a38	0.017270193
209	0xbe043e2d	-0.12914343
210	0xbe80ace3	-0.25131902
211	0x3e28e189	0.16492285
212	0x3e495672	0.19661883
213	0xbdc5c402	-0.09656526
214	0xbceede6a	-0.02915879
215	0xbe83b8f3	-0.25727043
216	0xbe1f888a	-0.1557943
217	0x3dd72cfb	0.10506626
218	0x3df19730	0.11796415
219	0x3dbdf25c	0.09274742
220	0xbe7f83a0	-0.24952555
221	0x3e8996e5	0.26872936
222	0x3d92963c	0.07157561
223	0x3def6f34	0.11691132
224	0xbd648a17	-0.055795755
225	0xbe675189	-0.22589697
226	0xbe2dea94	-0.16984016
227	0xbe0aef4c	-0.13567847
228	0xbe898594	-0.26859725
229	0xbe20d1d4	-0.15705043
230	0xbccc4a46	-0.02493776
231	0x3d920398	0.07129592
232	0xbe46d064	-0.19415432
233	0x3ea27e24	0.31736863
234	0xbdac55c5	-0.08414797
235	0x3e28cd2f	0.16484521
236	0xbe022911	-0.12710978
237	0x3e4f3c80	0.20237923
238	0xbe8cc2e0	-0.27492428
239	0x3e4613d0	0.19343495
240	0x3e55013f	0.20801257
241	0x3d64fe4d	0.055906583
242	0x3e409635	0.188073
243	0x3e818431	0.25296167
244	0x3e8af4ab	0.27139792
245	0xbc981aa9	-0.0185674
246	0xbe2e8b34	-0.1704529
247	0x3d855561	0.06510425
248	0xbe17a110	-0.14807534
249	0x3e6f5616	0.23372683
250	0x3e932e83	0.28746423
251	0xbde5133c	-0.11185309
252	0x3d3a19bb	0.045434695
253	0x3eb1d02b	0.34729132
254	0x3dc814a7	0.09769564
255	0x3dd6c8bc	0.10487506

backbone.0.bias f4 [128]
0	0xbd80fc47	-0.06298118
1	0xbe409820	-0.18808031
2	0xbe8d358b	-0.27579913
3	0xbd37e16f	-0.044892725
4	0x3e4de483	0.20106702
5	0xbe6690eb	-0.2251622
6	0xbd96af9b	-0.07357713
7	0x3d630423	0.055423867
8	0xbd19a492	-0.037510462
9	0x3ead3be1	0.33834746
10	0xbe44412d	-0.19165488
11	0x3e7bc702	0.24587634
12	0x3e955871	0.29169038
13	0x3dc6d9ba	0.09709497
14	0xbe09e2c0	-0.13465405
15	0x3ebe2845	0.37140098
16	0x3ed8fe0a	0.42381316
17	0x3f02e6bf	0.5113334
18	0x3ea75546	0.32682246
19	0x3d0a234e	0.033725075
20	0xbe849f89	-0.25902966
21	0x3e70c857	0.23513924
22	0x3d93319c	0.071871966
23	0x3d797363	0.060901057
24	0x3e9343b8	0.28762603
25	0x3dd3f8d4	0.103501946
26	0xbd3acbd0	-0.045604527
27	0x3eb2ca83	0.3492013
28	0x3e229eb0	0.15880847
29	0x3ecd22d0	0.40065622
30	0x3e887c0e	0.26657146
31	0x3d981436	0.0742573
32	0x3bc9aa47	0.006154332
33	0xbd93a8b3	-0.07209911
34	0x3eaa1c5e	0.33224767
35	0xbe36eb52	-0.17863205
36	0x3ead8f0f	0.33898208
37	0x3ecee2b2	0.4040733
38	0x3e2c98ad	0.16855116
39	0xbda3576d	-0.079756595
40	0x3e99eaf0	0.30062056
41	0x3ee4692b	0.44611487
42	0x3e7ca42f	0.24672006
43	0xbdd85ba7	-0.10564356
44	0x3be85e35	0.0070913085
45	0xbc62e5b9	-0.013848715
46	0x3d8b7faa	0.06811459
47	0xbe7f7394	-0.24946433
48	0x3ea5cdc1	0.3238354
49	0x3ed08c33	0.40731964
50	0x3ca02276	0.019547682
51	0xbc0dee18	-0.008662723
52	0x3e772b6b	0.24137656
53	0x3d81119c	0.06302187
54	0x3de747cc	0.11292991
55	0x3e7f8f4a	0.24957004
56	0x3ed0811a	0.40723497
57	0xbdeac824	-0.11463955
58	0x3e951fed	0.2912592
59	0x3de842f2	0.11340894
60	0xbe394b16	-0.1809505
61	0x3da090d4	0.07840124
62	0x3e956c18	0.2918403
63	0x3e68d48c	0.2273733
64	0xbc9af70e	-0.018916633
65	0xbe1dab24	-0.15397316
66	0x3ec065e2	0.3757773
67	0x3e29811e	0.1655316
68	0xbdaa0b73	-0.08302965
69	0x3ec882bf	0.3916225
70	0x3cc14526	0.023592543
71	0x3cb2370a	0.02175476
72	0x3ca05c10	0.019575149
73	0x3e80edb2	0.25181347
74	0xbd51da9b	-0.05123387
75	0x3d99361c	0.07481024
76	0x3ea91839	0.33026293
77	0x3c9ad73f	0.018901465
78	0x3ed330b3	0.41248092
79	0x3ec97f20	0.393548
80	0xbe3a6155	-0.18201192
81	0xbe4d9ce4	-0.2007938
82	0x3ec5c1db	0.38624462
83	0xbdfb705b	-0.122772895
84	0xbdf53e2f	-0.11974751
85	0x3ee816c3	0.45329866
86	0xbd9f2e13	-0.0777246
87	0xbcb5cd97	-0.02219276
88	0x3d06f088	0.032944232
89	0x3e7b53cd	0.24543686
90	0xbd8f878c	-0.070082754
91	0xbe3ce800	-0.18447876
92	0xbde29bd0	-0.11064875
93	0x3eacbdf4	0.33738673
94	0x3eedd086	0.46448153
95	0x3ecf4c1f	0.40487763
96	0x3ec69236	0.38783425
97	0x3d45d468	0.04829827
98	0x3ddfac1d	0.109215
99	0xbe80244d	-0.25027695
100	0x3e26e5d2	0.16298607
101	0x3ee2b132	0.44275814
102	0x3eb2b9a0	0.34907246
103	0x3e489ac3	0.19590287
104	0xbdc2fd22	-0.095209375
105	0xbe3cbe4c	-0.18431967
106	0x3eed55e2	0.46354586
107	0x3db3629b	0.08759042
108	0xbe924974	-0.28571665
109	0x3eaf1d56	0.3420207
110	0x3e4d6a59	0.200601
111	0xbe14637c	-0.14491075
112	0xbe911910	-0.28339434
113	0xbe4cdeba	-0.20006838
114	0xbe0a978f	-0.13534378
115	0xbd4feb27	-0.050761368
116	0x3d98ac7e	0.07454775
117	0xbd8a10af	-0.067414634
118	0x3eb970d6	0.362189
119	0xbe8908d6	-0.26764554
120	0x3ee57fa4	0.44823945
121	0x3ec4f04d	0.38464585
122	0xbb769455	-0.0037625034
123	0x3da6bf0c	0.08141908
124	0xbc124482	-0.008927466
125	0x3d56065f	0.05225217
126	0x3c85ec82	0.016348127
127	0x3ed8b065	0.42322078

backbone.2.weight f4 [32, 128]
0	0x3d61f02a	0.05516068
1	0x3d9a5c6f	0.075371616
2	0x3c0319fc	0.008001801
3	0x3c30af03	0.010783914
4	0x3d0389c0	0.03211379
5	0xbd9dd595	-0.07706753
6	0x3d9b22f2	0.07575025
7	0xbda58d94	-0.080836445
8	0x3beae188	0.0071679987
9	0xbd9cbc55	-0.07653109
10	0xbd9c1932	-0.07621993
11	0x3cbba563	0.022906011
12	0xbd877468	-0.066139996
13	0x3dafdf10	0.08587468
14	0xbd8dfeaa	-0.06933339
15	0xbd8e7300	-0.06955528
16	0x3bcfeebb	0.0063455976
17	0x3cee7914	0.029110469
18	0xbc8d849e	-0.01727515
19	0x3cd91dff	0.026503561
20	0x3d57e6de	0.052710406
21	0xbda718b2	-0.08159007
22	0x3ca5844a	0.020204682
23	0x3ce42c64	0.027853198
24	0x3d7dfbe7	0.06200781
25	0x3c6701ae	0.014099522
26	0x3d614b49	0.05500344
27	0x3cdfabb7	0.02730356
28	0xbceed7c4	-0.02915562
29	0x3d4cd29e	0.050005548
30	0x3d4aef83	0.049544822
31	0x3d5dacf4	0.05412002
32	0x3d25ff21	0.040526513
33	0xbda7bfac	-0.081908554
34	0xbc18f9bd	-0.009336886
35	0xbd20b064	-0.03923072
36	0xbc80884f	-0.015689997
37	0x3d2576bf	0.04039645
38	0xbdaac587	-0.083384566
39	0x3d47222d	0.048616577
40	0xbda3a7bf	-0.079909794
41	0xbdad60d5	-0.08465735
42	0xbbab9798	-0.0052365772
43	0x3d8eb5cb	0.06968268
44	0x3d68efc9	0.056869302
45	0x3da6fbd6	0.08153503
46	0xbd25ebe4	-0.040508166
47	0xbc8a3d20	-0.01687485
48	0xbd8e49a2	-0.06947638
49	0x3c8667d1	0.016406925
50	0x3c84fdc7	0.016234292
51	0xbb99b9da	-0.0046913447
52	0x3d42eb3b	0.047587615
53	0x3d8505a5	0.06495217
54	0xbd771497	-0.06032237
55	0xbd40d3e6	-0.047077082
56	0x3d9e16c4	0.07719186
57	0x3cc52fd2	0.024070654
58	0x3d37b53e	0.04485058
59	0x3d9ae9fa	0.07564159
60	0x39a8f44f	0.0003222548
61	0xbda8a54f	-0.08234655
62	0xbd56164a	-0.05226735
63	0x3c45ce2b	0.01207308
64	0xbdab6a4b	-0.08369883
65	0xbda75847	-0.081711344
66	0xbd8fd8c0	-0.07023764
67	0x3d6436bb	0.055716258
68	0xbd063b7a	-0.032771565
69	0x3d57f13e	0.0527203
70	0xbd369953	-0.044579815
71	0x3cb03f6c	0.021514617
72	0xbdb3a321	-0.08771349
73	0xbd85c71f	-0.0653212
74	0xbc48604f	-0.012229993
75	0xbccb5bad	-0.024823988
76	0xbd4a65d6	-0.049413525
77	0x3c7b6c0a	0.015345583
78	0x3c116948	0.008875199
79	0xbd742fe2	-0.059615977
80	0x3d545642	0.051840074
81	0x3c6fe47d	0.014641878
82	0xbc8a2a69	-0.016865926
83	0x3ba2102a	0.0049457746
84	0xbd2b3017	-0.04179391
85	0xbcd38056	-0.025818031
86	0xbd737d57	-0.059445705
87	0xbb8faf9b	-0.0043849475
88	0x3d47c029	0.048767243
89	0xbcb88250	-0.022523075
90	0x3d7dc0a4	0.061951295
91	0xbd454c21	-0.048168305
92	0xbd73e3d9	-0.059543464
93	0xbb3bd9a0	-0.002866365
94	0x3c77898a	0.015108475
95	0xbcd56235	-0.026047805
96	0xbdb20f5e	-0.08694337
97	0xbcac7327	-0.021051003
98	0xbb285cfc	-0.0025690189
99	0x3ca0b2b3	0.01961646
100	0x3c8ce157	0.017197294
101	0xbbccf791	-0.006255098
102	0xbbba8c66	-0.0056930063
103	0xbc9dba51	-0.019253882
104	0xbcbcd00d	-0.023048425
105	0xbd525560	-0.05135095
106	0xbd8844ae	-0.066537246
107	0x3da1697c	0.07881448
108	0x3bcf9165	0.006334471
109	0x3d86c98e	0.06581412
110	0x3c71d1ea	0.01475952
111	0xbd559b19	-0.052149866
112	0xbd388724	-0.045050755
113	0x3d84424e	0.06457959
114	0xba41991d	-0.00073851814
115	0x3da7040c	0.08155069
116	0x3d46f78b	0.04857592
117	0x3d2a9b50	0.041652024
118	0xbb48a387	-0.0030615048
119	0xbda3c192	-0.07995905
120	0xbd2df5ed	-0.04247086
121	0x3d757a94	0.059931353
122	0xbd06ef07	-0.032942798
123	0x3bad8555	0.0052954354
124	0xbdaf721b	-0.08566686
125	0xbd66fdbd	-0.056394327
126	0x3da8c36f	0.08240401
127	0x3d6f4de0	0.058423877
128	0xbcf5d3d1	-0.030008228
129	0x3d972df7	0.07381814
130	0xbd16bcd4	-0.036801174
131	0xbcb87d35	-0.02252064
132	0x3d278b15	0.040904123
133	0xbd7ee822	-0.062233098
134	0x3ddf05d6	0.10889785
135	0x3db41843	0.0879369
136	0xba868a1c	-0.0010264548
137	0x3cbbdbb1	0.022931905
138	0x3da6f584	0.08152297
139	0x3ddd377e	0.108016
140	0xbd119abf	-0.035547968
141	0xbc279d96	-0.0102304425
142	0xbcb2606a	-0.02177449
143	0x3d7c81ce	0.06164723
144	0x3d341c77	0.04397246
145	0x3de6b332	0.112646475
146	0x3d386c7b	0.04502533
147	0x3db505da	0.08839007
148	0x3d82d196	0.063876316
149	0x3dba4aa9	0.090962715
150	0x3d850ba0	0.06496358
151	0x3e049351	0.12946822
152	0x3e10e5fe	0.14150235
153	0xbd19cec3	-0.0375507
154	0x3d57ad57	0.052655544
155	0x3e0b7d58	0.13622034
156	0x3d274ba6	0.04084363
157	0x3e416047	0.18884383
158	0x3ee7c8c4	0.4527036
159	0x3c188f84	0.009311561
160	0x3d7bde71	0.061491434
161	0xbc3fbda8	-0.011702932
162	0x3d6295b5	0.055318553
163	0xbdb3ca3b	-0.08778807
164	0x3e8a8d9e	0.2706117
165	0x3d8d0fcc	0.06887779
166	0x3b52b556	0.0032151542
167	0xbc1d36e0	-0.009595603
168	0x3db41d49	0.08794648
169	0xbab1aecc	-0.0013556122
170	0x3d160b5c	0.036631927
171	0x3d9e8693	0.07740512
172	0xbd12cef2	-0.03584189
173	0xbc3e95de	-0.011632411
174	0x3d7cd075	0.061722238
175	0x3da7aaa0	0.08186841
176	0x3bbfadb5	0.005849565
177	0x3dea373f	0.114363186
178	0xbd994600	-0.074840546
179	0x3e048718	0.12942159
180	0x3df8fd6f	0.121577136
181	0x3e37d477	0.17952143
182	0x3ec31a4c	0.38106
183	0x3d8c7f7e	0.06860255
184	0x3cfa7329	0.03057249
185	0xbdb4b025	-0.088226594
186	0x3db4d474	0.08829585
187	0x3dbc1d34	0.091852576
188	0x3c6ba9f0	0.014383778
189	0x3e124675	0.1428469
190	0x3d8ffcfe	0.07030676
191	0x3d46869d	0.04846822
192	0x3c1acdfa	0.009448523
193	0xbb818976	-0.003953154
194	0x3cb8ba15	0.022549668
195	0x3d842e71	0.064541705
196	0x3de2a681	0.11066914
197	0x3eacc3e5	0.33743206
198	0xbcc02099	-0.023453044
199	0x3ce4c0a3	0.027923888
200	0x3dfaf012	0.12252821
201	0xbce5b738	-0.028041467
202	0x3db10e9b	0.08645364
203	0x3d7af73b	0.061270934
204	0x3d13fc26	0.03612914
205	0x3d1a06dc	0.037604198
206	0x3e504074	0.20337087
207	0x3eaac8c8	0.3335631
208	0xbc00d787	-0.007863886
209	0xbd96ec3e	-0.07369278
210	0x3da2ee08	0.07955557
211	0x3e897ee8	0.26854634
212	0x3d8fe2e6	0.07025699
213	0x3e53ed68	0.20696032
214	0x3e91c676	0.28471726
215	0xbceeb3a0	-0.029138386
216	0xbc931692	-0.017955098
217	0x3b360cfa	0.002777873
218	0x3caba24d	0.020951414
219	0x3d7b62e2	0.0613736
220	0xbc0971d8	-0.008388959
221	0x3e8b5634	0.27214205
222	0x3dc0fdbe	0.094233975
223	0x3e0b7fa6	0.13622913
224	0x3e38ec08	0.18058789
225	0xbd1c7d8b	-0.038205665
226	0x3e72995e	0.23691317
227	0x3cfcff99	0.030883597
228	0x3d519c90	0.0511747
229	0x3ddbc32d	0.10730586
230	0x3d2b1041	0.041763548
231	0x3c9e9d42	0.019362096
232	0x3badc9a7	0.00530358
233	0x3d859b38	0.06523746
234	0x3e0baa0c	0.13639086
235	0x3d75f22e	0.060045414
236	0xbe78063d	-0.2422113
237	0x3e0bc9af	0.13651155
238	0x3cbaf921	0.022823872
239	0x3dfe3c05	0.124137916
240	0xbb62088b	-0.0034489955
241	0x3d92934a	0.071569994
242	0xbd4437ec	-0.047904894
243	0xbcd56d57	-0.026053114
244	0xbdadb017	-0.08480852
245	0x3ddf7f4d	0.109129526
246	0xbb969570	-0.004595451
247	0x3ce9fa2d	0.028561676
248	0xbb033e59	-0.0020026176
249	0x3e4b7a04	0.19870764
250	0x3da2a3aa	0.07941373
251	0xbc036206	-0.008018976
252	0x3e8a2f6f	0.26989314
253	0x3cfb5ca2	0.03068382
254	0x3e053ed4	0.13012248
255	0x3e219578	0.15779674

backbone.2.bias f4 [32]
0	0xbd02bded	-0.03191941
1	0x3e65b98e	0.22434065
2	0x3e0cca01	0.13748933
3	0x3d833d68	0.06408197
4	0xbd673ebf	-0.056456324
5	0x3e735d19	0.23765983
6	0xbd55aced	-0.052166868
7	0x3e285c68	0.164415
8	0x3e6aa27a	0.22913542
9	0x3ce88034	0.028381445
10	0x3ccc4cab	0.024938902
11	0x3df29c3f	0.11846208
12	0x3e338e20	0.17534685
13	0xbcbdf232	-0.023186777
14	0xbd8a826f	-0.067631595
15	0xbd6ab9fd	-0.05730628
16	0x3e183019	0.14862098
17	0xbdb0c061	-0.08630443
18	0x3e06d623	0.13167624
19	0xbd9d9f82	-0.07696439
20	0x3e64c541	0.22340871
21	0x3d219165	0.0394453
22	0xbd6091bd	-0.054826487
23	0x3d9f9cd9	0.07793588
24	0x3e014015	0.12622102
25	0x3d3f3bbb	0.046687823
26	0xbdad7807	-0.08470159
27	0x3db95a38	0.09050411
28	0xbd30d3fa	-0.043170907
29	0xbd9603ce	-0.073249444
30	0xbdaf32c7	-0.08554607
31	0x3e0d9096	0.13824686

backbone.4.weight f4 [11, 32]
0	0xbc260f86	-0.010135537
1	0x3e508a0f	0.20365165
2	0x3e12d924	0.14340645
3	0xbded9dc4	-0.11602357
4	0x3df3e4b9	0.1190886
5	0x3e3f9fff	0.18713377
6	0x3de650a1	0.112458475
7	0x3e6f929a	0.23395768
8	0x3e49b603	0.19698338
9	0xbdad15a4	-0.08451393
10	0xbcf6d7d5	-0.030132214
11	0x3ebf2b2f	0.37337634
12	0x3e15f954	0.14645892
13	0xbcd26fd1	-0.025688084
14	0x3d123d35	0.035702903
15	0xbe1a7098	-0.15082014
16	0x3e7937be	0.2433767
17	0xbdce26ca	-0.10065992
18	0x3d63d24e	0.055620484
19	0x3d1f444e	0.0388835
20	0x3e56008f	0.2089865
21	0x3d391a13	0.045190882
22	0xbe17c53f	-0.14821337
23	0xbd50e211	-0.050996844
24	0x3c865e7c	0.016402476
25	0xbdae5e3a	-0.08514066
26	0xbd1d4fa1	-0.03840602
27	0x3e558e0a	0.20854965
28	0xbd34b02c	-0.044113323
29	0xbe01ea33	-0.12686996
30	0xbcc2ca19	-0.023778008
31	0x3d92a3be	0.071601376
32	0xbe18dfcd	-0.14929123
33	0xbe46c2a8	-0.19410193
34	0xbe77415b	-0.24146025
35	0xbde93e9a	-0.113888934
36	0xbe1301b7	-0.14356123
37	0xbe0939eb	-0.13401
38	0x3df82a83	0.121174835
39	0xbc5e4581	-0.013566376
40	0xbe8ab5ab	-0.27091727
41	0xbe0d933b	-0.13825695
42	0x3b90d744	0.004420193
43	0xbc861a52	-0.016369972
44	0xbe51312b	-0.20428912
45	0x3da2d8a5	0.07951478
46	0x3d46f707	0.048575427
47	0xbc63477c	-0.013872024
48	0xbe2f95fb	-0.17147057
49	0x3dbbd203	0.09170916
50	0xbe32a9f1	-0.1744764
51	0xbd2d98a5	-0.0423819
52	0xbd983dd2	-0.07433666
53	0xbd207748	-0.039176255
54	0xbea8d8b4	-0.3297783
55	0xbe18601e	-0.14880416
56	0xbe80c6e7	-0.2515175
57	0xbde01868	-0.10942155
58	0xbe2140e2	-0.15747407
59	0xbe0c7388	-0.13715947
60	0x3d981db7	0.07427543
61	0x3e15a619	0.14614142
62	0x3e197a9b	0.14988177
63	0x3dc7cd86	0.09755997
64	0xbe1d1d44	-0.15343195
65	0x3d14449e	0.03619825
66	0xbe13e4c8	-0.14442742
67	0x3d970947	0.073748164
68	0x3d879cff	0.066217415
69	0xbcbcd641	-0.023051383
70	0xbde92a98	-0.11385077
71	0xbd5fef54	-0.0546716
72	0xbe610f4b	-0.2197849
73	0xbc7247fd	-0.014787671
74	0x3da09fcb	0.07842978
75	0x3c9e947e	0.019357916
76	0x3cfae78a	0.030627985
77	0xbd94d5e0	-0.07267356
78	0xbd956d6e	-0.07296263
79	0x3dcce20e	0.10004054
80	0xbe324c56	-0.17411932
81	0xbe21bf9e	-0.15795752
82	0xbe23b90f	-0.15988563
83	0xbe052f3b	-0.13006298
84	0xbdc2d7cc	-0.09513816
85	0x3e0e1b43	0.13877587
86	0xbe3040f7	-0.17212282
87	0x3d6d9f95	0.058013517
88	0xbdff7170	-0.12472808
89	0x3cbc41ab	0.022980532
90	0xbd78e9e6	-0.060769938
91	0xbd86dd48	-0.06585175
92	0x3e05cf90	0.1306746
93	0x3e2f6fa6	0.17132434
94	0x3c9ee2ba	0.019395221
95	0xbd05b5a4	-0.03264393
96	0x3d3dd800	0.04634857
97	0x3d6aba98	0.057306856
98	0x3e67f1de	0.22650859
99	0xbdd6d3e1	-0.104896314
100	0x3d514345	0.051089544
101	0x3e3add1a	0.18248406
102	0x3dbfc38f	0.09363472
103	0x3e60aa22	0.219399
104	0xbd81ff47	-0.063475184
105	0xbd12a06a	-0.035797514
106	0x3e25fc16	0.16209444
107	0x3ed4f576	0.41593522
108	0x3dda55da	0.10660906
109	0x3cdec799	0.027194785
110	0x3c4f53d5	0.012654264
111	0xbd1072e1	-0.035265807
112	0x3d956ebe	0.07296513
113	0xbe0d60e5	-0.13806494
114	0x3c5e161e	0.013555078
115	0xbde2069d	-0.11036418
116	0x3e441d81	0.1915188
117	0xbccb7a64	-0.024838634
118	0xbdd5d08a	-0.10440166
119	0x3d9766df	0.07392668
120	0xbd35b346	-0.04436042
121	0x3e296742	0.16543296
122	0x3d9617b2	0.07328738
123	0x3e893a0a	0.26802093
124	0x3cdcd63c	0.026957624
125	0xbce348cb	-0.027744671
126	0xbe22790b	-0.15866487
127	0x3e64e034	0.22351152
128	0xbe2cd46d	-0.16877909
129	0x3d8ab607	0.06773
130	0x3bc39b88	0.0059694685
131	0xbdbc7f03	-0.09203913
132	0xbe2c261d	-0.16811414
133	0x3e2691b0	0.16266513
134	0xbddf59ee	-0.109058246
135	0xba84d090	-0.0010132957
136	0x3e3bad70	0.1832788
137	0x3df4e94f	0.119585626
138	0x3d9971bf	0.074923985
139	0x3e446309	0.19178404
140	0x3e525f98	0.20544279
141	0x3e41dd55	0.18932088
142	0x3d6c3485	0.057667274
143	0xbd430908	-0.047616035
144	0x3e4fee0b	0.2030565
145	0xbe263a9a	-0.16233292
146	0x3e15958d	0.1460783
147	0x3df90717	0.121595554
148	0x3e0ef6f4	0.13961393
149	0x3e235281	0.15949441
150	0x3ef404fa	0.47660047
151	0xbe036565	-0.12831648
152	0xbd4aef24	-0.04954447
153	0xbe23c917	-0.15994678
154	0x3e223b0f	0.15842842
155	0x3e453fa1	0.19262554
156	0x3c5b0571	0.013367997
157	0xbde87b03	-0.113515876
158	0x3cfaf9ab	0.03063663
159	0x3bab2741	0.0052231853
160	0x3e1898ed	0.14902087
161	0x3d4c381f	0.04985821
162	0x3d0cebf8	0.034404725
163	0x3dbac30f	0.09119236
164	0x3e239a21	0.15976764
165	0x3e1432bb	0.14472477
166	0xbd3c2a08	-0.04593852
167	0x3dd6e18e	0.1049224
168	0x3e87bec4	0.2651273
169	0x3e4c14de	0.19929835
170	0x3df13bb9	0.11778969
171	0x3d7967ed	0.060890127
172	0x3d3ee0a9	0.04660097
173	0x3e306a4f	0.17228054
174	0x3e7d890a	0.24759308
175	0x3ce90a99	0.028447436
176	0x3dbc9933	0.09208908
177	0x3d54db3c	0.05196689
178	0x3e886d39	0.2664583
179	0x3d294f91	0.041335646
180	0xbdb9fb50	-0.09081137
181	0xbdabc6fe	-0.08387564
182	0x3da773be	0.08176373
183	0xbe02745f	-0.12739705
184	0x3d51c831	0.051216308
185	0x3e04d2fd	0.1297111
186	0xbe11dabf	-0.14243601
187	0xbc61cf9c	-0.013782408
188	0x3dc85053	0.09780946
189	0x3b3e4c62	0.0029037227
190	0x3e399347	0.18122588
191	0x3e5b7041	0.2142954
192	0x3d9fbdb5	0.077998556
193	0xbdad4d0b	-0.084619604
194	0xbe6eff4a	-0.23339573
195	0x3de11a8e	0.10991393
196	0xbda393d6	-0.07987182
197	0xbc7ee701	-0.015558005
198	0xbdd61df5	-0.104549326
199	0xbe2f4f55	-0.17120107
200	0xbdb29f20	-0.08721757
201	0x3d44750b	0.047963183
202	0x3d279064	0.040909186
203	0xbe89cb6f	-0.2691302
204	0xbd7a6b7c	-0.06113766
205	0x3cec7a12	0.028866801
206	0x3d879d71	0.066218264
207	0x3c903693	0.017604148
208	0xbd3b1e70	-0.045683324
209	0xbcb4a810	-0.022052795
210	0x3d53f763	0.0517496
211	0xbe2189fe	-0.15775296
212	0x3d059f26	0.03262248
213	0xbcc6caf6	-0.024266701
214	0xbdf90500	-0.12159157
215	0x3d08f2b3	0.03343458
216	0xbe59e537	-0.21278845
217	0x3e2db523	0.1696363
218	0xbbbe16bc	-0.00580105
219	0xbe57a761	-0.21059944
220	0xbcc721c9	-0.024308102
221	0xbe09e31c	-0.13465542
222	0x3b71edf0	0.0036915503
223	0x3c079390	0.008274928
224	0x3dc3e74e	0.09565602
225	0xbe00e49a	-0.12587205
226	0xbe35e12e	-0.1776168
227	0xbd99b093	-0.07504382
228	0xbd88cae9	-0.06679327
229	0xbd880c42	-0.06642963
230	0x3e22753d	0.15865035
231	0xbdc2d33e	-0.095129475
232	0xbd4fb8f5	-0.0507135
233	0xbe4e6277	-0.20154749
234	0xbe333129	-0.17499222
235	0x3edbd3a8	0.42934918
236	0x3c54f249	0.012997218
237	0xbe6bc8aa	-0.23025766
238	0xbe2f7a22	-0.17136434
239	0xbd6b4c8c	-0.057446048
240	0xbcfe0bcf	-0.03101149
241	0x3d99a6d4	0.07502523
242	0xbdfbaabb	-0.12288424
243	0x3e2a79bb	0.16647999
244	0xbda8fe2a	-0.08251603
245	0x3dbc14fa	0.091836885
246	0xbd937cc4	-0.072015315
247	0xbc2ca7a3	-0.010538015
248	0xbe4534f4	-0.19258481
249	0xbd92f6dc	-0.07175991
250	0xbe0808b6	-0.13284573
251	0xbe2f430f	-0.17115425
252	0x3e115325	0.14191873
253	0xbe1b26dc	-0.15151542
254	0x3c948466	0.018129539
255	0xbd3ecb10	-0.046580374

backbone.4.bias f4 [11]
0	0x3ea6dae6	0.3258888
1	0xbd9fdc52	-0.07805695
2	0xbe08adfa	-0.13347617
3	0x3dafa602	0.08576585
4	0xbd7b587a	-0.061363675
5	0x3e8204e6	0.25394362
6	0xbe7cc655	-0.24685033
7	0x3dea3acf	0.11436998
8	0x3d629897	0.055321302
9	0xbead3486	-0.33829135
10	0xbcef3382	-0.029199366

branch_theta_y.0.weight f4 [128, 11]
0	0xbe2adc70	-0.16685653
1	0x3def2d2e	0.11678539
2	0xbbc5604d	-0.006023443
3	0x3e07a0f2	0.1324499
4	0x3e518bba	0.20463458
5	0x3d4a83bb	0.049442034
6	0x3eefd606	0.46842974
7	0x3e2d9315	0.16950639
8	0x3e6203e1	0.22071792
9	0xbe154d94	-0.14580375
10	0x3dc9c400	0.09851837
11	0xbe9a4cb3	-0.30136642
12	0xbe80b840	-0.25140572
13	0xbde17475	-0.110085405
14	0xbdc7633e	-0.09735726
15	0x3c46f1c7	0.012142605
16	0x3de19d74	0.1101636
17	0x3e6ecced	0.2332036
18	0x3e27583c	0.16342252
19	0xbca7db0a	-0.020490188
20	0xbb5a2297	-0.0033284777
21	0x3d4c9362	0.049945243
22	0x3e24d33a	0.16096202
23	0x3e6c4b70	0.23075652
24	0x3e3b1c54	0.18272525
25	0xbea58ee3	-0.32335576
26	0x3b2a6d25	0.0026004997
27	0x3dae15e5	0.0850027
28	0x3e5bd51b	0.21468012
29	0xbe6f54b2	-0.23372152
30	0xbe7bf133	-0.24603729
31	0xbe22e62f	-0.1590812
32	0x3d31c916	0.04340466
33	0x3e843e51	0.25828794
34	0xbdeaf953	-0.11473336
35	0xbe492361	-0.19642402
36	0x3e7b1b8d	0.24522229
37	0x3e5c4a0b	0.2151262
38	0x3d3aadf2	0.045576043
39	0x3d991e08	0.07476431
40	0x3dc36877	0.095414095
41	0x3dac75a3	0.08420875
42	0xbe8b3df7	-0.27195713
43	0x3db2bdea	0.087276295
44	0xbe27c28a	-0.16382805
45	0x3e90ed7d	0.2830619
46	0x3dd6e6ac	0.10493216
47	0x3da5408e	0.080689535
48	0x3e39e3c3	0.1815329
49	0x3d04b59d	0.032399762
50	0x3ec00fcb	0.3751205
51	0x3e8a12fa	0.26967603
52	0xbc284c0f	-0.01027204
53	0x3e74f091	0.23919894
54	0xbe5fddd4	-0.21861964
55	0xbdca91ad	-0.09891067
56	0xbe89a5a0	-0.26884174
57	0xbd4cb346	-0.049975656
58	0xbe8c0eed	-0.27355137
59	0x3e8ac84b	0.27105936
60	0xbe98b727	-0.29827234
61	0x3e20f957	0.15720116
62	0x3ddf7dab	0.10912641
63	0x3ebf0066	0.3730499
64	0x3e5743d6	0.21021971
65	0xbea562bd	-0.32301894
66	0x3ceac6f0	0.028659314
67	0xbeb98f9d	-0.3624238
68	0xbe01801d	-0.12646528
69	0x3e1538c6	0.14572439
70	0x3e819231	0.25306848
71	0x3c9b2ca5	0.018942187
72	0x3e284891	0.16433932
73	0xbe828d46	-0.25498408
74	0x3e96f780	0.29485703
75	0xbe98decd	-0.29857484
76	0x3d845023	0.06460597
77	0x3e5c5581	0.21516992
78	0x3dea396e	0.11436735
79	0xbee80f21	-0.45324042
80	0x3e37121b	0.17878
81	0xbe69c2ed	-0.22828265
82	0x3e4d997c	0.20078081
83	0x3e353cd6	0.17698988
84	0x3e353813	0.17697172
85	0x3eba0d10	0.3633809
86	0xbe21f331	-0.15815426
87	0x3d16b9af	0.036798175
88	0x3e59c4d9	0.21266498
89	0xbdac2ef1	-0.08407391
90	0xbbf094e5	-0.0073419684
91	0x3e484c2e	0.1956031
92	0xbe103853	-0.14083986
93	0x3e46966c	0.19393319
94	0x3d895046	0.06704764
95	0x3e053a6b	0.13010566
96	0xbe894211	-0.26808217
97	0xbaa8de51	-0.0012883638
98	0x3e82998e	0.25507778
99	0xbe410807	-0.18850718
100	0xbe63daa6	-0.22251377
101	0xbe065101	-0.13116838
102	0xbe8d668e	-0.27617306
103	0xbe82fabd	-0.25581923
104	0xbd877251	-0.06613601
105	0xbe8160ef	-0.25269267
106	0x3e89a050	0.2688012
107	0x3e42f0d7	0.19037186
108	0xbe6dc8db	-0.23221152
109	0x3dc7a058	0.0974738
110	0x3b9730ba	0.004613963
111	0xbd439478	-0.047749013
112	0xbd98cd98	-0.07461089
113	0xbe81d6e9	-0.25359276
114	0xbe049d0f	-0.12950538
115	0x3e6094f5	0.21931823
116	0x3e11f970	0.14255309
117	0x3e6bb4c2	0.23018172
118	0xbe69c42c	-0.2282874
119	0x3deb25bd	0.114818074
120	0xbebc5f97	-0.3679168
121	0xbdbf1369	-0.09329874
122	0x3e814ad1	0.25252393
123	0xbe5f0533	-0.21779327
124	0x3bd63b3b	0.0065378225
125	0x3d43337d	0.047656525
126	0x3e07e970	0.13272643
127	0x3e649c21	0.22325183
128	0xbdd097a8	-0.10185176
129	0x3e42cb13	0.19022779
130	0xbdc9745f	-0.09836649
131	0xbe6cb793	-0.23116903
132	0xbdd2e0af	-0.10296761
133	0xbe559b89	-0.20860113
134	0xbe9f2976	-0.3108632
135	0xbe9a60a0	-0.30151844
136	0xbdd6e06c	-0.10492024
137	0xbe2b38de	-0.16720912
138	0x3e0ef6bf	0.13961314
139	0x3e29cbd1	0.16581656
140	0x3e6bcac6	0.2302657
141	0x3e7610e3	0.2402988
142	0x3e3a9d7c	0.18224138
143	0xbd863f5b	-0.06555053
144	0x3d953917	0.0728628
145	0xbe571497	-0.21003948
146	0x3ddf5fc3	0.10906937
147	0xbe2b09d3	-0.16702966
148	0xbdd25567	-0.102701955
149	0xbdd8300a	-0.10556038
150	0x3e8bdd88	0.27317452
151	0xbd51dd73	-0.05123658
152	0xbc69d4dc	-0.014271941
153	0x3dab971d	0.08378432
154	0x3acc2e8b	0.0015577836
155	0x3ea4bf17	0.3217704
156	0xbe2b10b5	-0.16705592
157	0xbe846683	-0.2585946
158	0x3e38a1e9	0.18030514
159	0xbea7c1de	-0.32765096
160	0x3e442b20	0.19157076
161	0xbcdf5f8a	-0.027267236
162	0xbe4dd963	-0.20102458
163	0x3e23f2e0	0.16010618
164	0x3d4c87d4	0.049934223
165	0xbe85654c	-0.26053846
166	0xbe19f11b	-0.1503338
167	0xbe820004	-0.25390637
168	0xbcbfd0ff	-0.023415087
169	0x3d715a38	0.05892393
170	0x3de34ea3	0.11098983
171	0x3e9e8d9c	0.30967414
172	0x3d9a21d5	0.07525984
173	0x3c1a5bba	0.009421283
174	0xbe0739b7	-0.1320561
175	0xbe30cfd2	-0.17266777
176	0x3e39b095	0.18133767
177	0xbe86e698	-0.26347804
178	0xbecccc2d	-0.39999524
179	0xbd15e31f	-0.036593553
180	0x3e72c9df	0.2370982
181	0x3e7b5f87	0.2454816
182	0xbcd2ee52	-0.025748406
183	0x3e0fbd8c	0.1403715
184	0x3e51daaa	0.2049357
185	0xbd741640	-0.05959153
186	0x3e850d5e	0.2598676
187	0x3caf84b4	0.021425582
188	0xbe6be079	-0.23034848
189	0xbdb21315	-0.08695046
190	0x3e522f4c	0.20525855
191	0x3e40b811	0.18820216
192	0x3e6342ab	0.221934
193	0xbd0d3999	-0.034478758
194	0x3e914999	0.28376463
195	0x3e262900	0.16226578
196	0x3e14d5ba	0.14534655
197	0x3d475464	0.048664466
198	0xbe3ba62e	-0.18325111
199	0xbe64c768	-0.22341692
200	0x3dcae978	0.09907812
201	0xbea1edae	-0.31626648
202	0x3e8ff600	0.2811737
203	0x3d49cf06	0.0492697
204	0x3e376cf5	0.17912658
205	0x3e15a948	0.14615357
206	0x3d87a304	0.0662289
207	0x3d7f8c7e	0.062389843
208	0x3e667716	0.22506365
209	0xbcb7a1f8	-0.0224161
210	0xbe0f12c2	-0.13972
211	0xbf3ed25a	-0.7453972
212	0xbebcf0a2	-0.36902338
213	0x3d38f603	0.04515649
214	0x3c1b8180	0.009491324
215	0xbd488155	-0.048951466
216	0xbd7c90c3	-0.061661493
217	0x3e28a352	0.16468552
218	0xbdf28eea	-0.11843665
219	0xbd9def4f	-0.0771166
220	0x3e818200	0.25294495
221	0x3dfca438	0.1233601
222	0xbe848b58	-0.2588756
223	0xbccbf19f	-0.024895487
224	0x3e7681f0	0.24073005
225	0x3e958afb	0.29207596
226	0xbe8de475	-0.2771336
227	0x3d12c65f	0.035833713
228	0xbe4fae98	-0.20281446
229	0x3ddc4afc	0.1075649
230	0x3e30b474	0.17256337
231	0xbe975de3	-0.29563817
232	0xbe6f928f	-0.23395751
233	0xbe836fa4	-0.25671113
234	0x3dd52826	0.10408048
235	0xbc0cc23d	-0.008591232
236	0xbbe3ba35	-0.006949688
237	0xbe7474e0	-0.2387271
238	0xbe5c67d8	-0.21523988
239	0xbe10a9e2	-0.14127305
240	0xbe215ddc	-0.15758461
241	0x3e549d07	0.20763026
242	0x3d899a5b	0.06718894
243	0xbe6668d2	-0.22500923
244	0x3e46564e	0.1936886
245	0xbd968677	-0.07349866
246	0xbdfe8f28	-0.12429649
247	0xbe45fa76	-0.19333825
248	0x3de0a82a	0.10969575
249	0xbe3569a4	-0.1771608
250	0xbe406ff8	-0.18792713
251	0x3ee87e21	0.4540873
252	0x3a986726	0.001162742
253	0x3d50f1b6	0.051011764
254	0x3d9b1419	0.07572193
255	0x3b3a22e6	0.0028402149

branch_theta_y.0.bias f4 [128]
0	0xbd294589	-0.04132608
1	0x3eab0bbb	0.33407387
2	0x3f05b579	0.5223003
3	0x3d5a18a0	0.05324614
4	0xbe2d2be3	-0.16911273
5	0x3d353e1c	0.044248685
6	0x3efb89f7	0.49128696
7	0x3e01c003	0.12670903
8	0x3d113e7c	0.03545998
9	0x3e873125	0.26404682
10	0xbed0c8c9	-0.40778187
11	0x3e5efd94	0.2177642
12	0x3eedec84	0.4646951
13	0xbe6ab2e7	-0.22919808
14	0x3d4f519a	0.05061493
15	0xbdaefaa4	-0.085439
16	0xbc96a320	-0.018388331
17	0xbdc74d69	-0.09731562
18	0x3ef7b011	0.48376516
19	0xbd867569	-0.06565363
20	0x3d8c4832	0.06849708
21	0x3d42e0fa	0.047577836
22	0x3d7a40c6	0.06109693
23	0x3e7c5647	0.24642287
24	0x3dda22ee	0.106511936
25	0xbdb45b73	-0.08806505
26	0x3d39ee0c	0.045393035
27	0xbe10b446	-0.14131269
28	0xbdc9b0ad	-0.09848151
29	0x3b42d475	0.0029728685
30	0x3d1d6bde	0.03843295
31	0xbe5b2514	-0.21400863
32	0xbd7383f3	-0.05945201
33	0xbe05656d	-0.13026972
34	0x3ed539c7	0.41645643
35	0x3e3af48c	0.1825735
36	0xbd0f33cf	-0.034961518
37	0x3dd28fee	0.10281359
38	0x3ede5506	0.43424243
39	0x3ecd5c1f	0.40109345
40	0x3eb3c528	0.35111356
41	0x3d20e22c	0.039278194
42	0x3e8596c8	0.260916
43	0xbe88d5e3	-0.26725683
44	0xbd999b41	-0.075003155
45	0x3ec8d01e	0.3922128
46	0x3ea9ce48	0.33165193
47	0x3ea1f0b9	0.3162897
48	0x3eca7034	0.3953873
49	0x3eb1254e	0.34598774
50	0x3ee6c42d	0.45071545
51	0xbeb50b7e	-0.3536033
52	0x3ef8551a	0.48502427
53	0x3e72c877	0.23709284
54	0x3edba854	0.42901862
55	0x3e8ab5bb	0.27091774
56	0xbdb23b4d	-0.08702717
57	0xbd8623f1	-0.06549824
58	0xbc4a0345	-0.012329881
59	0xbd195c2e	-0.037441425
60	0xbd728d41	-0.05921674
61	0x3e45739a	0.1928238
62	0x3eab3232	0.33436733
63	0x3e7f491a	0.2493023
64	0x3e0f23aa	0.13978449
65	0xbe92d53a	-0.28678304
66	0x3ead920a	0.3390048
67	0x3e0bf9ca	0.13669506
68	0x3e443f87	0.19164859
69	0x3e6a7ce4	0.22899204
70	0x3ed0558b	0.40690264
71	0x3ef538a8	0.47894788
72	0xbd436cbf	-0.04771113
73	0x3ecefb0e	0.40425915
74	0xbe75a84f	-0.23989986
75	0x3eebacc1	0.46030238
76	0xbe4887d8	-0.1958307
77	0x3e6bb4b2	0.23018149
78	0x3eec24a4	0.46121705
79	0x3ef04d5e	0.46934026
80	0x3eaf2a27	0.34211847
81	0xbec667ef	-0.3875117
82	0x3eaf3e96	0.34227437
83	0x3d18ef49	0.037337575
84	0x3db956a9	0.09049732
85	0x3c54fbfa	0.012999529
86	0x3e8c7cc0	0.27438927
87	0x3e6bca81	0.23026468
88	0x3ecb5a13	0.3971716
89	0x3d967f43	0.07348492
90	0x3ef12954	0.47101843
91	0x3d6b1810	0.057395995
92	0x3db1157c	0.08646676
93	0x3d8fd4be	0.07022999
94	0x3d931605	0.07181934
95	0x3ce53a43	0.027981883
96	0xbe8b115f	-0.2716169
97	0x3e900181	0.28126147
98	0x3e6c9cd4	0.231067
99	0x3e3effe0	0.18652296
100	0x3ef3d061	0.47619918
101	0xbe0b7372	-0.13618258
102	0x3ef17536	0.47159737
103	0x3e88f20d	0.2674717
104	0x3e947fa0	0.2900362
105	0x3f01fd03	0.5077669
106	0xbb0b9851	-0.0021300504
107	0x3eed92da	0.464011
108	0x3bfbe5aa	0.00768729
109	0x3ed75f7d	0.4206504
110	0x3e9c7917	0.30561134
111	0x3e29c250	0.1657803
112	0x3e0879ea	0.13327757
113	0x3eca55dc	0.3951863
114	0x3ecd3d45	0.40085807
115	0xbe9a236d	-0.30105153
116	0x3ea3898f	0.31940886
117	0xbd470328	-0.048586994
118	0x3e421d8a	0.18956581
119	0x3d4f2c33	0.05057926
120	0x3e2ccc79	0.16874875
121	0x3e962f54	0.29332983
122	0xbd2844e8	-0.04108134
123	0x3f003542	0.50081265
124	0x3dd46617	0.103710346
125	0x3e480baa	0.195357
126	0x3ed8292b	0.4221891
127	0xbca59b64	-0.020215698

branch_theta_y.2.weight f4 [16, 128]
0	0x3c90ffe2	0.01770014
1	0xbd9aae6a	-0.07552798
2	0x3e0d3cec	0.13792771
3	0x3d5c15d3	0.05373175
4	0xbd9177ff	-0.071029656
5	0xbce15f17	-0.027511163
6	0xbdb4015b	-0.08789321
7	0x3bcd334b	0.006262218
8	0xbda14bae	-0.07875763
9	0xbdb9d099	-0.0907299
10	0x3d0b03cf	0.03393918
11	0x3d8c838a	0.068610266
12	0x3c72a0ba	0.014808828
13	0xbd436a95	-0.047709066
14	0x3d19c39e	0.03754007
15	0xbd2765e0	-0.04086864
16	0x3d3b694f	0.045754727
17	0xbd993fc1	-0.07482863
18	0x3d068600	0.032842636
19	0x3b4c7681	0.0031198564
20	0x3cefeb3d	0.029286975
21	0xba9f474c	-0.0012151985
22	0xbd860d0d	-0.06545458
23	0xbe157c4e	-0.145982
24	0xbd6e2386	-0.058139347
25	0x3d2079e0	0.03917873
26	0xbe8d3a80	-0.27583694
27	0x3c62c81c	0.013841655
28	0xbd65e61a	-0.056127645
29	0x3d465b8a	0.048427142
30	0xbd993068	-0.07479936
31	0x3cf0fd0c	0.029417537
32	0xbcb3dc02	-0.021955494
33	0xbdaf2862	-0.08552624
34	0xbb12d589	-0.002240511
35	0xbd34cb9e	-0.044139497
36	0xbd4a7761	-0.049430255
37	0x3d87d6ec	0.0663279
38	0x3d3952e2	0.04524506
39	0x3c1cb6fe	0.009565113
40	0xbd07c37d	-0.033145417
41	0xbdbc1308	-0.091833174
42	0xbd6ef0f1	-0.05833525
43	0xbdbc5808	-0.09196478
44	0xbda76550	-0.08173621
45	0xbc7970ca	-0.015224645
46	0x3dc459e6	0.09587459
47	0x3db74252	0.089481965
48	0x3d4a5b9a	0.049403764
49	0xbd02f101	-0.03196812
50	0x3dc5af0f	0.096525304
51	0xbd318a88	-0.043345004
52	0xbc287ec7	-0.010284132
53	0xbd185bd4	-0.03719695
54	0xbd57a078	-0.05264327
55	0xbd9deb09	-0.07710845
56	0x3cfacd12	0.030615363
57	0xbc0732d1	-0.008251862
58	0x3d9f069e	0.07764934
59	0xba19477d	-0.00058471394
60	0xbccef957	-0.025265379
61	0xbd413593	-0.047170233
62	0x3cfa1a43	0.0305301
63	0x3d980ec0	0.07424688
64	0xbcc11633	-0.023570156
65	0xbd4e9973	-0.05043931
66	0xbe05f998	-0.13083494
67	0xbd852f8e	-0.06503211
68	0x3de56c6a	0.11202319
69	0xbc3cd171	-0.011524544
70	0x3d841f5c	0.06451294
71	0xbc5ee3b9	-0.013604098
72	0x3d69d84c	0.057091042
73	0x3d275e41	0.040861372
74	0xbd124247	-0.03570774
75	0x3c2edd65	0.010672902
76	0x3dad1d65	0.08452872
77	0x3dd41df4	0.103572756
78	0xbcf358c5	-0.029705415
79	0x3c7dc61e	0.015489129
80	0x3d4df1e1	0.0502795
81	0x3db9d64f	0.09074079
82	0x3bff1536	0.007784511
83	0x3d40caab	0.04706828
84	0x3dc63751	0.096785195
85	0x3e028a41	0.12748052
86	0x3c290fb6	0.010318687
87	0xbc454ef3	-0.012042749
88	0xbd159054	-0.036514595
89	0x3d54f6eb	0.05199329
90	0xbd9bf325	-0.076147355
91	0x3d67735e	0.056506507
92	0x3ccd3f59	0.02505462
93	0x3d7cc45a	0.061710693
94	0xbd1e3683	-0.038626205
95	0xbd26b6b1	-0.04070157
96	0x3d2c43ee	0.04205697
97	0x3d926847	0.071487956
98	0xbcb51cc3	-0.022108441
99	0x3cc7b0b0	0.024376243
100	0xbd30d75c	-0.043174133
101	0x3d6961b3	0.05697794
102	0xbd8fc8fb	-0.07020756
103	0xbdc2ab4c	-0.095053285
104	0x3d7bfaab	0.061518352
105	0x3d35405c	0.04425083
106	0xbd1ead30	-0.038739383
107	0x3c38c193	0.01127662
108	0x3c85edb8	0.016348705
109	0xbe3ce28f	-0.184458
110	0xbd8b60ea	-0.06805594
111	0xbdeee1ec	-0.11664185
112	0x3d4b7ffb	0.0496826
113	0xbd9f34bb	-0.077737294
114	0xbe089e21	-0.13341571
115	0xbce28d2f	-0.027655212
116	0x3cc3b0a3	0.023887938
117	0xbbc03c0e	-0.005866534
118	0xbd3db6e2	-0.04631699
119	0xbe03aff5	-0.12860091
120	0x3e14a6f2	0.1451681
121	0x3c4479de	0.011991946
122	0xbcfa9f21	-0.030593457
123	0xbd1c7cf0	-0.038205087
124	0x3c29ab4a	0.01035578
125	0xbaf9e06a	-0.0019064073
126	0x3d861b0b	0.06548127
127	0x3ce7d332	0.028298948
128	0x3d5fffd1	0.054687325
129	0xbd0583ec	-0.032596514
130	0x3d1f2b0b	0.03885941
131	0x3a073869	0.0005158247
132	0xbcefd1ba	-0.02927481
133	0x3cc858bb	0.024456372
134	0xbd47c730	-0.048773944
135	0xbda512d2	-0.0806023
136	0x3d9ecfee	0.07754503
137	0xbd32c0f6	-0.043641053
138	0x394a4404	0.00019289559
139	0xbd87e705	-0.0663586
140	0x3cab2491	0.02089146
141	0x3da7c811	0.081924565
142	0x3c6a8d1f	0.014315872
143	0x3c0a5ebc	0.008445438
144	0x3c202404	0.009774212
145	0xbdabc156	-0.08386485
146	0xbd32a742	-0.04361654
147	0x3bf62b09	0.0075124544
148	0x3d0f4a78	0.03498313
149	0x3cf0df61	0.02940339
150	0x3d6efb11	0.058344904
151	0xbd08af9c	-0.0333706
152	0x3d2fda8d	0.042933036
153	0xbb3bac5f	-0.0028636677
154	0x3d945d8c	0.07244405
155	0x3c7bd02f	0.015369459
156	0x3d762613	0.060094904
157	0xbbc052df	-0.005869254
158	0xbd711abe	-0.058863394
159	0xbd5615f8	-0.052267045
160	0x3bcc5724	0.006235974
161	0xbd4b0930	-0.04956931
162	0x3cd4bbc2	0.025968436
163	0xbd6d3feb	-0.057922285
164	0xbda2683a	-0.07930036
165	0x3d990e2f	0.074734084
166	0xbd8e13ab	-0.06937345
167	0x3d125cdf	0.0357331
168	0xbd07f70a	-0.03319458
169	0xbd88fa20	-0.066883326
170	0x3d808d04	0.062768966
171	0x3d1176a1	0.035513524
172	0x3d9081af	0.07055985
173	0x3d199f8a	0.037505664
174	0x3cfb25f8	0.030657753
175	0x3d25fc1c	0.040523633
176	0xbd27cd41	-0.04096723
177	0xbda957ef	-0.08268725
178	0x3c41b405	0.011822705
179	0xbd2fc44f	-0.042911824
180	0x3a5e0cee	0.00084705546
181	0x3d43415c	0.047669753
182	0x3d489925	0.048974175
183	0x3d8d3b11	0.06896032
184	0xbd2e2550	-0.042516053
185	0xbd675e26	-0.05648627
186	0xbd746a63	-0.05967177
187	0x3d8dab35	0.06917421
188	0x3da18e9a	0.07888527
189	0xbbc69ff0	-0.0060615465
190	0xbbad5658	-0.005289834
191	0x3c3a5cab	0.011374633
192	0xbd466ff5	-0.048446614
193	0xbda6d415	-0.0814592
194	0xbdb4a01a	-0.088195994
195	0x3d02e6c0	0.03195834
196	0xbd994ab9	-0.07484955
197	0x3da10844	0.07862905
198	0xbcff6613	-0.031176602
199	0xbc7fc2ea	-0.015610436
200	0x3d4057bc	0.04695867
201	0x3d4a94c2	0.049458273
202	0xbd7c32f0	-0.061572015
203	0x3d76edde	0.06028544
204	0x3cdd88d6	0.027042788
205	0x3c6fb933	0.014631557
206	0x3cde4f17	0.027137322
207	0x3d217a8e	0.039423518
208	0x3d2448ee	0.040108614
209	0xbc64ade6	-0.013957476
210	0x3da056cb	0.078290544
211	0x3daf2f5b	0.08553954
212	0xbd32d9e4	-0.043664828
213	0x3d89afcf	0.06722986
214	0x3da66a32	0.08125724
215	0x3d379386	0.044818424
216	0x3cb682c2	0.022279147
217	0xbd9c5f56	-0.076353714
218	0xbd7bee75	-0.061506707
219	0xbda3fca8	-0.08007175
220	0xbd0c416a	-0.03424207
221	0x3d660e84	0.056166187
222	0x3c5199e9	0.012793043
223	0x3d1812cd	0.037127305
224	0xbd6803e3	-0.05664433
225	0xbcccdfbd	-0.02500903
226	0x3c543a24	0.012953315
227	0xbc993dce	-0.018706229
228	0xbd34657f	-0.044042107
229	0xbd0427e3	-0.0322646
230	0xbb97cc85	-0.004632535
231	0xbc503b4f	-0.012709453
232	0x3d787f8f	0.060668524
233	0xbd1c10f6	-0.038102113
234	0x3d59b6ee	0.05315297
235	0x3ce127ce	0.0274848
236	0xbd0d7cf5	-0.034542996
237	0x3d2d42d5	0.042300064
238	0xbd9d3d54	-0.07677713
239	0xbd70f390	-0.05882603
240	0xbd857231	-0.06515921
241	0xbcc027fd	-0.023456568
242	0xbd2a40ea	-0.041565813
243	0x3d27db55	0.040980656
244	0x3d9bc465	0.07605819
245	0x3d2a3884	0.041557804
246	0xbd19f978	-0.037591428
247	0xbd7d7f92	-0.06188924
248	0xbb849c05	-0.0040469193
249	0xbd1107e4	-0.035407916
250	0xbd9c9842	-0.076462284
251	0xbd4b123d	-0.04957794
252	0x3cb3d0a8	0.021950081
253	0xbda2704d	-0.07931576
254	0x3d99ae1a	0.0750391
255	0xbd9e6397	-0.07733839

branch_theta_y.2.bias f4 [16]
0	0x3c2b898f	0.010469808
1	0xbd4e307e	-0.050339215
2	0x3df35172	0.11880769
3	0x3e58c149	0.21167482
4	0x3e2d6452	0.169328
5	0xbe201585	-0.15633209
6	0x3e3d4b35	0.1848572
7	0x3df4d016	0.11953752
8	0x3d822f0c	0.0635663
9	0x3e9be516	0.30448216
10	0x3ea0e59e	0.31425184
11	0x3e6f51fa	0.23371115
12	0x3d8139e0	0.06309867
13	0x3d6be3e7	0.05759039
14	0xbd899bed	-0.067191936
15	0xbc7be068	-0.015373327

branch_theta_y.4.weight f4 [4, 16]
0	0xbea54bdb	-0.32284436
1	0xbe39f8c5	-0.18161304
2	0x3e8747ef	0.26422068
3	0x3dafd44b	0.085854135
4	0x3db44331	0.08801878
5	0xbe7a0763	-0.2441688
6	0x3e914827	0.2837536
7	0x3e5f4506	0.21803674
8	0xbe5ee894	-0.21768409
9	0x3e91d5d3	0.28483447
10	0x3e29e86c	0.16592568
11	0x3e91624a	0.283953
12	0xbe0f22dd	-0.13978143
13	0xbe1508f2	-0.14554194
14	0xbcb36e33	-0.021903133
15	0xbdf29c2b	-0.11846193
16	0xbed556dc	-0.4166783
17	0x3cabb1da	0.02095883
18	0x3e654411	0.22389247
19	0x3e779ec3	0.24181657
20	0x3e78eed7	0.2430986
21	0xbc3609ca	-0.011110732
22	0x3e607643	0.21920113
23	0xbc0dc22e	-0.008652253
24	0xbe30cb87	-0.1726514
25	0xbd2c7a25	-0.042108674
26	0xbcb03d1f	-0.02151352
27	0x3e98980f	0.29803512
28	0xbd924246	-0.07141547
29	0x3e690e0e	0.22759268
30	0x3cc7113f	0.024300216
31	0xbe26e1ff	-0.16297148
32	0x3e87d475	0.2652928
33	0xbd60ee56	-0.054914795
34	0xbd95d735	-0.07316438
35	0xbee06041	-0.43823436
36	0xbe55f2c0	-0.20893383
37	0x3d28325e	0.04106366
38	0x3e10b490	0.14131379
39	0xbe763405	-0.24043281
40	0x3e6724ff	0.22572707
41	0xbcb98410	-0.02264598
42	0xbe568b4d	-0.20951577
43	0xbe92c0fd	-0.28662863
44	0x3e313ed6	0.17309126
45	0xbe56a487	-0.209612
46	0x3e00fe46	0.12596998
47	0x3dc868da	0.09785624
48	0x3e26b336	0.16279301
49	0xbda48359	-0.08032865
50	0x3e281fb7	0.16418348
51	0x3e83a763	0.25713643
52	0x3e6b19c7	0.22959052
53	0x3d79bf64	0.06097354
54	0x3c6fe274	0.014641393
55	0x3e66f7a3	0.22555403
56	0x3e7d5e5a	0.24743024
57	0xbe529978	-0.20566356
58	0xbe0fec0e	-0.14054891
59	0x3e936845	0.2879049
60	0x3e1284cf	0.14308475
61	0xbe57801d	-0.21044965
62	0xbd8401e1	-0.06445671
63	0xbe36de73	-0.17858295

branch_theta_y.4.bias f4 [4]
0	0x3ee2e29a	0.44313508
1	0x3d9329a2	0.07185675
2	0x3d79fad4	0.061030224
3	0x3e9693d0	0.29409647
