pthfiles/finaldraft1.pt (torch, 79044 bytes, 30 tensors)

clamp_param f4 [3]
0.9 0.9 0.9
00000000: 6666 663f 6666 663f 6666 663f

H f4 [11, 4]
0.008522176 0.0247589 0.05142354 0.1580219 0.0077408473 0.03136758 0.0670191 0.09605867
-0.0005291479 0.0010714971 0.003180419 0.0016706507 -0.018595004 0.01252117 0.049975295 -0.12214269
0.00067124376 -0.0003117718 -0.0019007612 0.0005051846 -0.052292358 -0.019999107 0.009961776 -0.30001038
-0.020314552 -0.01642245 -0.014216954 -0.10809887 -0.0016783404 -3.0247927e-05 0.0020884909 -0.0021473584
0.0069852476 -0.02288446 -0.07235091 -0.025748258 0.024201583 -0.0016404454 -0.036973067 0.18296847
0.0012625528 -0.0011733919 -0.0044813985 0.0037996375
00000000: 99a0 0b3c 2dd3 ca3c 7da1 523d 7ed0 213e
00000010: efa6 fd3b 4b7b 003d 4f41 893d 68ba c43d
00000020: 84b6 0aba 7a71 8c3a 946e 503b bcf9 da3a
00000030: 8d54 98bc 9825 4d3c e5b2 4c3d f225 fabd
00000040: 68f6 2f3a 4d75 a3b9 f622 f9ba 5d6e 043a
00000050: 8330 56bd 2bd5 a3bc b836 233c f69a 99be
00000060: b46a a6bc 6088 86bc 3aee 68bc f162 ddbd
00000070: c2fb dbba eebc fdb7 10df 083b b2ba 0cbb
00000080: 81e4 e43b 3178 bbbc b72c 94bd 03ee d2bc
00000090: 6642 c63c 3704 d7ba 1271 17bd 165c 3b3e
000000a0: 3e7c a53a 80cc 99ba b2d8 92bb 5703 793b

clamp_min f4 [3]
0.7 0.7 0.7
00000000: 3333 333f 3333 333f 3333 333f

clamp_max f4 [3]
1.1 1.1 1.1
00000000: cdcc 8c3f cdcc 8c3f cdcc 8c3f

backbone.0.weight f4 [128, 11]
-0.03898874 -0.056308687 0.0700295 -0.15473263 -0.030055733 0.3058593 0.046636242 0.30659083
-0.25668913 0.1518127 -0.04882301 0.24134555 0.16315395 -0.038937658 -0.1151325 -0.25508812
0.026966194 0.31889752 0.10006416 -0.024435895 -0.23605627 -0.27648133 -0.00024396328 0.13202837
0.28807908 0.07100843 0.33441272 0.30152872 0.07883673 -0.04453385 -0.33513224 -0.24188934
-0.21594037 -0.5124751 -0.20284256 0.32280612 -1.0129442 0.46599036 0.36971685 0.2957635
0.15421815 -0.085634924 -0.250569 -0.02069525 0.4189867 -0.07388884 -0.1525103 0.031707928
-0.2593501 0.16353941 -0.17034198 -0.005856879 -0.09380383 0.036908183 -0.15950966 0.12653653
0.32732287 0.18098126 0.19177279 -0.16193125 -0.09550529 0.059390835 0.25416234 0.21950492
-0.16168663 -0.06493709 -0.16979137 0.31752563 0.11584573 -0.16313717 0.042031504 0.010607512
-0.024939049 0.1378527 0.13323486 0.0035463716 -0.41076127 0.15928578 0.21044229 0.3954751
0.26363555 -0.25488752 -0.23440792 0.23288882 0.13508666 -0.2645674 0.09711033 -0.4037629
0.4005446 0.017237289 0.5227354 -0.20548366 -0.07640663 0.37272656 0.061088342 -0.47047636
0.1265947 -0.13570808 -0.43529692 0.04007059 -0.2982303 -0.15840462 0.050847173 0.27799386
0.19664448 0.092778526 0.031015443 0.06475749 -0.22412613 0.09518198 0.26535046 0.2334533
-0.08069363 -0.25525016 -0.37078175 0.0009446583 0.081758186 -0.35497344 -0.042563744 0.2651448
-0.07449981 -0.23475955 -0.04277902 0.2959013 -0.3061455 0.24658161 0.19988315 0.0057860194
0.24502891 0.023594713 0.18945451 -0.053056177 0.2950711 0.26060405 0.3908727 -0.35824037
-0.14875984 0.15970126 -0.33808637 -0.17041919 -0.17927602 0.13245595 -0.08178324 0.2162984
0.3278471 0.07323556 0.11457428 -0.012577334 -0.38187614 -0.18937202 0.0012086622 -0.2708335
-0.073251106 -0.4846033 0.32092574 0.2099826 0.22854915 0.0068173856 0.18713745 -0.24011022
-0.25589305 -0.018910084 -0.14969443 -0.11283087 -0.3633019 0.34023985 0.03508809 0.03627098
0.30320603 0.39097172 -0.24031389 -0.2554063 0.0339875 -0.26990667 0.16154814 -0.24236533
-0.10409937 0.052999824 -0.27026746 0.11695671 0.20715807 -0.19390532 0.2717252 0.104248375
0.18320397 -0.038207445 -0.03543267 0.05631511 0.04038351 0.46098816 -0.26240095 0.32438228
0.23233007 -0.054153815 -0.02247994 0.12041544 0.03039541 -0.4166026 0.16327056 0.3807703
0.42489335 0.3164602 -0.20855798 0.12930568 -0.25460893 -0.25610745 0.037249934 4.739257e-05
-0.10288053 0.021015381 0.08637748 0.16061392 0.010616668 0.14489248 -0.18356647 -0.1857852
0.25451857 0.37292024 -0.23404299 -0.2089495 -0.12761454 -0.4039373 -0.06725377 -0.42620113
0.10699641 -0.6986994 0.07374801 0.2310736 0.047442872 -0.1944637 -0.35331425 0.06394294
0.020901542 0.27084455 -0.18074416 0.13957693 0.15067126 -0.05491373 -0.29254305 0.19837639
0.16356006 -0.548789 0.0022029511 -0.17287911 0.4899568 -0.23204066 0.18492767 0.16325161
-0.101633795 -0.00858801 0.19330831 0.28173795 -0.13254054 0.38645485 0.07591139 -0.012846939
00000000: a8b2 1fbd f0a3 66bd a06b 8f3d 3b72 1ebe
00000010: 7137 f6bc 9799 9c3e a505 3f3d 79f9 9c3e
00000020: c26c 83be ca74 1b3e a3fa 47bd 4a23 773e
00000030: d411 273e 187d 1fbd 97ca ebbd e99a 82be
00000040: 35e8 dc3c 8946 a33e 70ee cc3d c92d c8bc
00000050: bcb8 71be f68e 8dbe 65d0 7fb9 7232 073e
00000060: 1a7f 933e de6c 913d 2538 ab3e f961 9a3e
00000070: 2775 a13d 2069 36bd 7496 abbe d7b1 77be
00000080: 791f 5dbe 9131 03bf f6b5 4fbe d846 a53e
00000090: 28a8 81bf 4a96 ee3e 874b bd3e 506e 973e
000000a0: 5deb 1d3e 5d61 afbd 944a 80be 1689 a9bc
000000b0: 6d85 d63e 0853 97bd a92b 1cbe 2ce0 013d
000000c0: 89c9 84be e076 273e 216e 2ebe 10eb bfbb
000000d0: 391c c0bd 092d 173d 8056 23be cb92 013e
000000e0: dd96 a73e 2753 393e 1660 443e 4ed1 25be
000000f0: 4798 c3bd ce43 733d 9121 823e e6c5 603e
00000100: 2e91 25be bdfd 84bd cadd 2dbe b892 a23e
00000110: 8740 ed3d 6e0d 27be 3a29 2c3d 21cb 2d3c
00000120: fa4c ccbc 4229 0d3e b86e 083e 3e6a 683b
00000130: 4d4f d2be d01b 233e 2f7e 573e b67b ca3e
00000140: 3dfb 863e 9e80 82be a108 70be 687a 6e3e
00000150: 2854 0a3e 6175 87be c8e1 c63d 03ba cebe
00000160: 2f14 cd3e 3735 8d3c fdd1 053f 4f6a 52be
00000170: 147b 9cbd 04d6 be3e c537 7a3d 47e2 f0be
00000180: 0ba2 013e 0ff7 0abe 3ddf debe 0f21 243d
00000190: a4b1 98be d234 22be 2045 503d 3655 8e3e
000001a0: 2c5d 493e ab02 be3d 1914 fe3c 939f 843d
000001b0: 5281 65be c5ee c23d 04dc 873e 620e 6f3e
000001c0: b442 a5bd 26b0 82be 1bd7 bdbe f2a2 773a
000001d0: d670 a73d 14bf b5be 5257 2ebd 0fc1 873e
000001e0: 5b93 98bd cf64 70be 0e39 2fbd 6080 973e
000001f0: 1abf 9cbe e47f 7c3e 2bae 4c3e a698 bd3b
00000200: dce8 7a3e b349 c13c 5d00 423e 6f51 59bd
00000210: 8f13 973e e56d 853e 7720 c83e 486b b7be
00000220: 8054 18be ba88 233e a819 adbe 5e82 2ebe
00000230: 2294 37be 88a2 073e f97d a7bd 547d 5d3e
00000240: 93db a73e 86fc 953d eca5 ea3d 2a11 4ebc
00000250: 4585 c3be bdea 41be f96b 9e3a b0aa 8abe
00000260: ad04 96bd ec1d f8be 6150 a43e ae05 573e
00000270: ca08 6a3e 6064 df3b f6a0 3f3e 74df 75be
00000280: 6a04 83be 52e9 9abc 7f49 19be df13 e7bd
00000290: b502 babe eb33 ae3e 87b8 0f3d e190 143d
000002a0: d23d 9b3e 722d c83e d814 76be 9dc4 82be
000002b0: 7a36 0b3d 3531 8abe e06c 253e 9e2e 78be
000002c0: 0d32 d5bd 5816 593d 7f60 8abe 0087 ef3d
000002d0: 3f21 543e 1e8f 46be 911f 8b3e 2c80 d53d
000002e0: d299 3b3e 697f 1cbd d921 11bd acaa 663d
000002f0: 2e69 253d a406 ec3e 6b59 86be 6f15 a63e
00000300: efe7 6d3e 64d0 5dbd da27 b8bc 5f9c f63d
00000310: cbff f83c f04c d5be 6630 273e 53f4 c23e
00000320: 9f8b d93e 1207 a23e 3990 55be b568 043e
00000330: 1a5c 82be 8420 83be 6393 183d 62c7 4638
00000340: 07b3 d2bd 7328 ac3c ade6 b03d fa77 243e
00000350: 88f1 2d3c b25e 143e d9f8 3bbe 7a3e 3ebe
00000360: 4250 823e 67ef be3e f7a8 6fbe dcf6 55be
00000370: 63ad 02be dfd0 cebe 58bc 89bd 0937 dabe
00000380: ef20 db3d f7dd 32bf 3209 973d 8f9e 6c3e
00000390: 7553 423d 7e21 47be 9be5 b4be 84f4 823d
000003a0: b639 ab3c 23ac 8a3e ff14 39be 41ed 0e3e
000003b0: 9149 1a3e 38ed 60bd 34c8 95be 2e23 4b3e
000003c0: 4a7c 273e 707d 0cbf 635f 103b 3907 31be
000003d0: 9edb fa3e 119c 6dbe ae5d 3d3e 6e2b 273e
000003e0: 6125 d0bd bab4 0cbc 9df2 453e f53f 903e
000003f0: b5b8 07be 69dd c53e 6e77 9b3d f87b 52bc

backbone.0.bias f4 [128]
0.56318814 0.48424613 0.3276032 -0.11752225 -0.18072334 0.3880374 0.12504129 0.2800969
0.14983685 0.22756179 0.3215671 0.58628196 0.22165552 0.31906784 -0.037761606 0.10819394
0.029246014 0.48223236 0.68225753 -0.0036706475 0.63155955 0.3403547 0.43641642 0.47526127
0.1869075 0.4060907 0.25954062 0.19727732 0.45481607 0.43959266 0.28703842 0.48210996
-0.23899917 0.4117386 -0.29404953 -0.020047555 0.53139 0.017592313 0.5945338 0.5659957
0.38936883 0.6056107 0.22481988 0.11067684 -0.31524485 0.071353436 0.5456213 0.12318599
0.26157972 0.039453827 -0.062078297 0.16791199 0.18228252 0.59636366 0.18124974 0.4238824
0.6156175 -0.26601416 0.6149754 0.63279736 0.678794 0.30282143 0.40297168 0.5141314
0.058594674 0.041792233 0.1485756 0.2588326 0.14971194 0.18472627 0.08791095 -0.12697525
0.10111178 0.13176994 0.37236756 0.33389693 -0.2957075 -0.10739031 0.20079675 0.5378826
0.04005657 0.16993612 0.29402715 0.24836865 0.34867695 0.3361613 -0.15473984 0.41325906
-0.21249957 0.10525451 0.3566427 0.38865322 0.22865361 -0.15570247 0.41386455 0.2644667
0.28315285 0.5384486 0.13440502 0.21519013 0.5994974 0.3433 0.1303518 -0.29976156
-0.12092748 0.35887542 0.53949636 0.2172253 0.065871485 0.021947911 0.043814857 0.5344142
0.26840523 0.25184757 0.6193709 0.10903849 0.093429714 0.28255478 0.37009716 0.6657166
0.41020712 0.45997488 -0.2765772 0.5843453 0.056723014 0.6310066 0.48792902 0.28116757
00000000: 192d 103f 1cef f73e 9bbb a73e 81af f0bd
00000010: 8a0f 39be d7ac c63e d30a 003e dc68 8f3e
00000020: d56e 193e f505 693e 71a4 a43e 9316 163f
00000030: aaf9 623e dc5c a33e eaab 1abd c994 dd3d
00000040: 5695 ef3c 29e7 f63e 6ea8 2e3f 3f8f 70bb
00000050: e3ad 213f f942 ae3e f971 df3e 7255 f33e
00000060: ae64 3f3e 1feb cf3e 82e2 843e 1103 4a3e
00000070: a7dd e83e 4a12 e13e b3f6 923e 1ed7 f63e
00000080: 33bc 74be 67cf d23e a98d 96be c53a a4bc
00000090: 2d09 083f c11d 903c 5e33 183f 18e5 103f
000000a0: 5a5b c73e 4e09 1b3f 2f37 663e 8aaa e23d
000000b0: c667 a1be c021 923d d6ad 0b3f f048 fc3d
000000c0: c7ed 853e 569a 213d d045 7ebd 1ff1 2b3e
000000d0: 45a8 3a3e 4aab 183f 8899 393e 1d07 d93e
000000e0: 1c99 1d3f 0233 88be 076f 1d3f 02ff 213f
000000f0: 72c5 2d3f 690b 9b3e 4e52 ce3e 1e9e 033f
00000100: f800 703d 552e 2b3d 3424 183e b585 843e
00000110: 164e 193e e228 3d3e a80a b43d cd05 02be
00000120: b113 cf3d b3ee 063e f6a6 be3e 8af4 aa3e
00000130: f966 97be 73ef dbbd aa9d 4d3e adb2 093f
00000140: 5c12 243d bc03 2e3e ba8a 963e 5a54 7e3e
00000150: c985 b23e 551d ac3e 1f74 1ebe b196 d33e
00000160: 7d99 59be ad8f d73d df99 b63e 8efd c63e
00000170: 2c24 6a3e 7870 1fbe 0ee6 d33e 2e68 873e
00000180: 69f9 903e c4d7 093f 78a1 093e cd5a 5c3e
00000190: a978 193f 05c5 af3e f17a 053e 597a 99be
000001a0: d4a8 f7bd 85be b73e 6f1c 0a3f 4f70 5e3e
000001b0: a1e7 863d 1bcc b33c 3577 333d 5ecf 083f
000001c0: 696c 893e 2af2 803e 178f 1e3f 924f df3d
000001d0: 1458 bf3d 05ab 903e 607d bd3e 676c 2a3f
000001e0: ab06 d23e d481 eb3e 879b 8dbe a797 153f
000001f0: 6456 683d a689 213f d5d1 f93e 32f5 8f3e

backbone.2.weight f4 [32, 128]
0.020471804 0.023273487 -0.059817344 0.081349365 -0.039559674 -0.047902178 0.07068299 0.04043404
0.043968003 -0.060017515 -0.07925351 0.020601265 0.034912933 -0.06954385 -0.042691704 0.047242455
0.005878932 -0.0843322 0.07282901 -0.016123135 0.022984745 0.07624407 0.032880425 -0.0015886071
0.050764713 0.0724811 -0.05114699 0.037531823 -0.07665332 0.020358913 -0.06987061 0.01554106
-0.0038567176 -0.056248788 -0.065956615 -0.018680077 -0.04004687 0.0485879 0.02823643 -0.009606827
0.00051784597 0.016130067 -0.034019876 -0.03147576 0.03275174 -0.028897917 0.0006527731 0.009023809
0.015109318 -0.071654506 -0.059761133 -0.058368966 0.041095596 -0.08147619 -0.029669601 0.008267437
-0.031936355 0.040871326 0.0041267327 0.018270025 -0.04762488 -0.056075916 -0.032237016 -0.0796535
0.010535655 0.07168863 0.015297518 0.0022834206 0.022744162 -0.021780754 -0.083571814 0.03122851
0.06958258 0.04530412 0.022226822 -0.037541635 -0.035930935 -0.03548139 -0.07012834 -0.007355438
-0.04956523 0.06878838 0.029687956 0.016764201 -0.058534533 0.077749155 -0.0512954 0.026063439
0.009909819 -0.011234972 -0.08403353 -0.09147322 0.04002598 -0.019175803 0.030203015 0.012723806
-0.07289971 0.045706123 0.07608505 0.0040551787 -0.07032919 0.045968153 -0.08523724 0.031780913
-0.088126816 -0.06860934 -0.025987409 0.069969565 0.019005781 -0.030130742 0.015081452 0.076873966
-0.057928298 -0.029940266 -0.08363 -0.055753917 -0.086803675 0.016564306 0.07180932 0.009323254
-0.0786912 -0.04136253 0.022696668 0.079291515 0.039033566 0.07138761 -0.088284634 0.06677461
0.17936188 0.08797307 -0.16393475 0.049092125 -0.14166172 0.108615905 -0.011123989 0.08069473
0.077221446 -0.023981126 0.070788436 0.08978732 0.20185427 0.18570733 0.09973099 0.14495651
-0.0022159156 0.10269389 0.23437175 0.13427693 -0.22941421 0.17030258 -0.002112235 0.1407341
0.1251055 0.03520446 0.06364712 -0.026984906 0.08910449 0.069885366 0.14861697 0.10184081
-0.3992813 0.23731259 -0.025772765 0.015101403 0.05301035 0.09902425 0.07396039 0.0886786
0.10293136 0.07460178 -0.3445005 0.19623308 -0.17108473 0.08430411 0.14175811 0.002912737
-0.0042398255 0.044197395 -0.01766899 0.009121787 0.18395022 0.038088482 0.13442743 0.19211914
0.26398978 0.038113195 0.15770426 0.088301316 0.15236203 0.034754675 -0.0031196496 0.07881386
-0.08792135 0.087013036 0.20653488 0.10065368 0.09132166 0.11423745 0.45601335 0.24987808
0.034061477 0.13276027 0.0032307424 0.033683658 -0.05857432 -0.3284156 0.056052558 -0.016672134
0.42258212 0.009393584 0.023853721 0.12312274 0.054099187 0.55193585 0.08236433 0.12596023
-0.026948972 0.094303235 0.03564997 0.1488501 0.030357828 0.02928896 0.12624423 0.018134525
0.18054149 0.1409542 -0.0326722 0.05863278 0.13068183 0.02856057 0.092218086 -0.008249971
0.016089728 0.14748651 0.38293353 0.11656215 0.22183721 0.05477435 0.055258084 0.14488633
0.24039315 0.028723534 0.35086438 0.06078551 0.22577588 0.11380203 0.103459574 0.11917021
0.55248517 0.11442714 0.0562444 0.20523842 0.14877863 0.18824813 0.041690946 0.536538
00000000: 7cb4 a73c 0aa8 be3c 0803 75bd 7f9a a63d
00000010: 5309 22bd 1335 44bd 3ec2 903d 2a9e 253d
00000020: cb17 343d edd4 75bd aa4f a2bd fcc3 a83c
00000030: dd00 0f3d 026d 8ebd 7fdd 2ebd 4e81 413d
00000040: 0ea4 c03b 5cb6 acbd 6027 953d aa14 84bc
00000050: 814a bc3c da25 9c3d a0ad 063d cf38 d0ba
00000060: a9ee 4f3d f970 943d 827f 51bd f8ba 193d
00000070: 6afc 9cbd bcc7 a63c 5318 8fbd ee9f 7e3c
00000080: fcc0 7cbb 2165 66bd 4314 87bd f606 99bc
00000090: 3008 24bd 1b04 473d 1650 e73c f465 1dbc
000000a0: 0ec0 073a 3423 843c 6d58 0bbd baec 00bd
000000b0: b026 063d 53bb ecbc dc1e 2b3a 99d8 133c
000000c0: 138d 773c 99bf 92bd 17c8 74bd 4c14 6fbd
000000d0: db53 283d fddc a6bd aa0d f3bc 2574 073c
000000e0: b2cf 02bd b168 273d 8b39 873b 05ab 953c
000000f0: 4e12 43bd dcaf 65bd f60a 04bd 6021 a3bd
00000100: bd9d 2c3c 7dd1 923d 71a2 7a3c 71a5 153b
00000110: f751 ba3c 8d6d b2bc b327 abbd efd2 ff3c
00000120: 5081 8e3d d090 393d 0615 b63c 42c5 19bd
00000130: 512c 13bd ef54 11bd 729f 8fbd e305 f1bb
00000140: e904 4bbd ece0 8c3d 2834 f33c 1455 893c
00000150: e8c1 6fbd f33a 9f3d 201b 52bd fe82 d53c
00000160: cb5c 223c e312 38bc c519 acbd 5056 bbbd
00000170: 48f2 233d 9316 9dbc 506c f73c 8377 503c
00000180: 714c 95bd 5836 3b3d 7bd2 9b3d 4ee1 843b
00000190: c008 90bd 1a49 3c3d dd90 aebd b42c 023d
000001a0: d57b b4bd 0e83 8cbd 8ce3 d4bc 344c 8f3d
000001b0: 03b2 9b3c bfd4 f6bc 3218 773c 1970 9d3d
000001c0: 3946 6dbd 4a45 f5bc 3546 abbd 385e 64bd
000001d0: 20c6 b1bd deb1 873c c410 933d 90c0 183c
000001e0: da28 a1bd c26b 29bd 5dee b93c 9763 a23d
000001f0: a9e1 1f3d ab33 923d 93ce b4bd 20c1 883d
00000200: a4aa 373e 3a2b b43d 83de 27be d314 493d
00000210: c50f 11be 0472 de3d 6441 36bc 4743 a53d
00000220: 4726 9e3d 1174 c4bc 87f9 903d 6ae2 b73d
00000230: e3b2 4e3e 102a 3e3e c33f cc3d 7b6f 143e
00000240: e538 11bb 2d51 d23d 26ff 6f3e e47f 093e
00000250: 8feb 6abe cd63 2e3e 6c6d 0abb 9a1c 103e
00000260: a81b 003e 8d32 103d 6c59 823d 730f ddbc
00000270: 6a7c b63d 0f20 8f3d 0c2f 183e ea91 d03d
00000280: 996e ccbe 1202 733e 6821 d3bc e06b 773c
00000290: 6121 593d 3acd ca3d 8c78 973d 209d b53d
000002a0: adcd d23d d1c8 983d 5f62 b0be 53f1 483e
000002b0: d630 2fbe a2a7 ac3d 0a29 113e 9ee3 3e3b
000002c0: 3cee 8abb 5408 353d 8fbe 90bc 8c73 153c
000002d0: 725d 3c3e ab02 1c3d 58a7 093e e1ba 443e
000002e0: ab29 873e 951c 1c3d 3a7d 213e 52d7 b43d
000002f0: cb04 1c3e eb5a 0e3d 0973 4cbb 2969 a13d
00000300: 1c10 b4bd e433 b23d e17d 533e 8423 ce3d
00000310: da06 bb3d 53f5 e93d 957a e93e 0ae0 7f3e
00000320: 0c84 0b3d 4ff2 073e ddba 533b e0f7 093d
00000330: a0eb 6fbd 1726 a8be 5e97 653d 0094 88bc
00000340: af5c d83e 8ce7 193c e168 c33c c627 fc3d
00000350: 1c97 5d3d ab4b 0d3f a1ae a83d b8fb 003e
00000360: 17c4 dcbc 0e22 c13d b405 123d 296c 183e
00000370: fbb0 f83c 67ef ef3c 2b46 013e db8e 943c
00000380: dedf 383e 4c56 103e 49d3 05bd ed28 703d
00000390: 75d1 053e dbf7 e93c d6dc bc3d e32a 07bc
000003a0: 9bce 833c b406 173e dd0f c43e 23b8 ee3d
000003b0: 4b29 633e 125b 603d 4d56 623d 155d 143e
000003c0: 9f29 763e 9e4d eb3c 7fa4 b33e 3afa 783d
000003d0: cb31 673e 0a11 e93d 9de2 d33d 830f f43d
000003e0: ab6f 0d3f c758 ea3d 8760 663d 052a 523e
000003f0: 6d59 183e 1ec4 403e 20c4 2a3d 8e5a 093f

backbone.2.bias f4 [32]
-0.036273528 0.35782173 -0.03494713 0.31503 0.04936401 -0.0480469 -0.0037620487 0.03768915
0.05140153 0.07888069 0.32485506 0.3119646 0.2738321 0.053541068 0.025858738 0.23603742
0.05945799 0.30522552 0.37262338 0.37287444 0.051238183 0.40008795 0.0012173638 0.07105513
0.40219554 0.05720101 -0.058624253 0.2609504 0.2898252 0.41515577 0.00060324714 0.36643058
00000000: 8d93 14bd 6934 b73e b924 0fbd 9d4b a13e
00000010: eb31 4a3d d4cc 44bd b48c 76bb f05f 1a3d
00000020: 698a 523d 338c a13d 6753 a63e d3b9 9f3e
00000030: b933 8c3e e14d 5b3d b4d5 d33c cbb3 713e
00000040: 398a 733d 8546 9c3e 7ec8 be3e 66e9 be3e
00000050: 21df 513d 54d8 cc3e f38f 9f3a 5a85 913d
00000060: 93ec cd3e 9b4b 6a3d fc1f 70bd 4a9b 853e
00000070: f863 943e 4c8f d43e 3b23 1e3a ca9c bb3e

backbone.4.weight f4 [11, 32]
0.07996554 0.0019664075 0.010874621 -0.22767735 -0.021035703 0.056303173 0.07696025 0.012480772
0.0975669 -0.1692358 -0.15513651 0.07364674 -0.11051832 0.06953113 0.03289731 -0.28765625
0.12304417 -0.2268521 -0.15666695 -0.034325346 0.11594129 -0.27134308 0.14750552 -0.08904746
-0.13805194 -0.016117979 -0.17010313 -0.16774423 -0.27956754 -0.289019 -0.03705004 -0.29066718
-0.1545909 -0.20353298 0.11371254 -0.18106426 0.118137605 0.13373728 0.08234588 0.105035074
0.10028096 -0.0926762 -0.25144738 -0.07944981 -0.24702822 -0.111960866 0.061628908 -0.6876474
0.1217517 0.07251232 0.03875166 -0.04145604 0.06490533 0.10810079 0.11500906 -0.36178657
-0.22282435 -0.06892668 0.09854583 -0.06815823 -0.24493532 -0.18876669 -0.026002543 0.05130622
0.07175687 0.0733997 -0.09636083 0.059396073 0.07291252 0.12891158 0.11422194 -0.0519283
-0.17760395 -0.12073799 0.08797317 0.051038355 0.057967808 0.08635809 -0.04357602 0.22766638
0.12371825 -0.2596474 0.10498649 -0.0032595752 0.047596082 -0.17570698 0.111300826 -0.4683173
-0.2789818 -0.055810325 -0.12163358 0.18034714 -0.24241139 -0.17537645 -0.08432422 -0.13808309
-0.028604561 -0.074381195 -0.016779039 -0.23336957 0.13345687 -0.058611345 -0.11280893 0.07797683
0.16875285 0.11002283 0.031541854 -0.033591103 -0.055628974 0.13454245 0.12316841 -0.031378
0.03280309 -0.16524337 -0.2597028 -0.16936284 -0.15689576 -0.2585929 0.14849946 0.10621272
-0.032646578 -0.016679099 0.12778611 -0.16923007 -0.07669935 -0.19590722 0.01473327 -0.12376263
0.11730329 0.047156386 0.13294166 0.2615005 -0.10440783 -0.17660882 0.06986761 0.09943856
0.07055665 -0.059387017 -0.033125576 0.24529313 0.029653767 -0.037926767 0.067695655 -0.10630689
0.16733816 0.16305047 0.22437915 -0.13342312 0.14517291 0.09923461 -0.14819086 0.010460083
0.23867624 -0.106059864 0.10661672 0.27254862 0.16614589 0.031370934 -0.15491384 0.03869791
-0.011232214 -0.24932721 0.11815427 -0.11942689 0.13279988 -0.119904175 0.02986435 0.13006245
0.122904696 0.08860395 -0.28922275 -0.29377306 0.062113617 -0.06619344 0.03925433 0.14083672
-0.06941571 -0.23641413 -0.26607743 -0.30873922 0.054900527 -0.18347988 -0.028012391 0.41003147
-0.045718927 -0.050564002 0.14952004 -0.12738512 -0.037077088 -0.085521884 0.13620932 0.060865708
0.092928946 -0.19995163 -0.12055009 -0.29051265 -0.097112164 -0.14891037 0.069618076 -0.031580355
-0.14092223 0.1647433 0.018946724 -0.17969824 -0.17881735 0.024416955 0.09522261 0.41484717
-0.023107743 -0.12137703 0.08387188 -0.14701931 0.03220242 -0.15706548 0.0011643895 0.16761456
-0.24311467 0.10832313 -0.11818647 -0.1623869 -0.15599585 0.039258175 0.047116403 -0.2927129
0.08084548 -0.21783349 -0.05008242 -0.07967253 -0.10972605 0.06521696 -0.105765745 0.037775457
-0.05636939 -0.156381 -0.035634693 -0.10919727 -0.32558677 -0.027693598 -0.120834194 -0.88269454
-0.10285813 0.12595172 -0.07087727 0.06302077 0.0065323794 0.0931421 0.023774954 -0.29854366
-0.21932128 0.042062897 0.03875167 -0.3337022 -0.05056413 -0.2578352 -0.12528922 0.019860474
00000000: f9c4 a33d d8de 003b 772b 323c 4024 69be
00000010: 1153 acbc 289e 663d 569d 9d3d 277c 4c3c
00000020: 28d1 c73d 264c 2dbe 1bdc 1ebe 1ad4 963d
00000030: 6e57 e2bd 5666 8e3d 54bf 063d ae47 93be
00000040: 95fe fb3d eb4b 68be 4d6d 20be bc98 0cbd
00000050: a172 ed3d 7bed 8abe b00b 173e 845e b6bd
00000060: 7d5d 0dbe da09 84bc 842f 2ebe 25c5 2bbe
00000070: 7a23 8fbe 4cfa 93be c8c1 17bd 54d2 94be
00000080: 144d 1ebe f36a 50be 1fe2 e83d e968 39be
00000090: 21f2 f13d 6df2 083e f5a4 a83d a11c d73d
000000a0: 1b60 cd3d 05cd bdbd b6bd 80be 95b6 a2bd
000000b0: f7f4 7cbe bd4b e5bd 986e 7c3d a909 30bf
000000c0: f558 f93d 5781 943d 10ba 1e3d cfcd 29bd
000000d0: 16ed 843d f263 dd3d df89 eb3d 173c b9be
000000e0: 112c 64be 6e29 8dbd 65d2 c93d 8b96 8bbd
000000f0: 53d0 7abe 0e4c 41be 4903 d5bc 7926 523d
00000100: 44f5 923d 9552 963d d458 c5bd 4c49 733d
00000110: 2953 953d 6601 043e 31ed e93d c5b2 54bd
00000120: cfdd 35be 7b45 f7bd 472b b43d 980d 513d
00000130: a76f 6d3d 83dc b03d c57c 32bd 6021 693e
00000140: fe5f fd3d 81f0 84be 2803 d73d 999e 55bb
00000150: 1cf4 423d 88ec 33be b0f1 e33d 49c7 efbe
00000160: b4d6 8ebe 5e99 64bd 071b f9bd ecac 383e
00000170: b13a 78be e295 33be 2db2 acbd a765 0dbe
00000180: 1d54 eabc 2b55 98bd 3274 89bc 6ff8 6ebe
00000190: eba8 083e 7312 70bd 5e08 e7bd 51b2 9f3d
000001a0: 8ccd 2c3e a653 e13d 0832 013d d396 09bd
000001b0: 35db 63bd 7fc5 093e b83f fc3d 3886 00bd
000001c0: 885c 063d 8f35 29be c4f7 84be 746d 2dbe
000001d0: 48a9 20be 4a66 84be 3e10 183e 0e86 d93d
000001e0: 6bb8 05bd 9ba2 88bc 5dda 023e a64a 2dbe
000001f0: 8c14 9dbd e79b 48be d063 713c 4377 fdbd
00000200: b53c f03d 0e27 413d dc21 083e 65e3 853e
00000210: c6d3 d5bd f1d8 34be c016 8f3d 72a6 cb3d
00000220: 0180 903d cd3f 73bd afae 07bd 1f2e 7b3e
00000230: 75ec f23c 1959 1bbd 05a4 8a3d 6db7 d9bd
00000240: b25a 2b3e b4f6 263e a6c3 653e 12a0 08be
00000250: 35a8 143e 843b cb3d 58bf 17be c560 2b3c
00000260: 8b67 743e ea35 d9bd de59 da3d 7e8b 8b3e
00000270: 2622 2a3e cf7e 003d bca1 1ebe b381 1e3d
00000280: 5207 38bc a24f 7fbe defa f13d 1696 f4bd
00000290: b1fc 073e 5290 f5bd 15a6 f43c 172f 053e
000002a0: 75b5 fb3d fd75 b53d 0115 94be 6c69 96be
000002b0: d96a 7e3d 6d90 87bd 26c9 203d 8037 103e
000002c0: d329 8ebd 8c16 72be 4d3b 88be 1113 9ebe
000002d0: 60df 603d 26e2 3bbe 3e7a e5bc a5ef d13e
000002e0: c543 3bbd 331c 4fbd c81b 193e 3f71 02be
000002f0: 25de 17bd 1926 afbd 757a 0b3e 524e 793d
00000300: 8851 be3d 1fc0 4cbe f7e2 f6bd 13be 94be
00000310: bee2 c6bd f67b 18be ec93 8e3d 675a 01bd
00000320: eb4d 10be 78b2 283e 2936 9b3c d102 38be
00000330: e51b 37be 1106 c83c 1204 c33d d966 d43e
00000340: 734c bdbc 8594 f8bd 05c5 ab3d 3b8c 16be
00000350: afe6 033d c6d5 20be 6e9e 983a 27a3 2b3e
00000360: 0df3 78be 84d8 dd3d bf0b f2bd c048 26be
00000370: 60bd 1fbe 2ecd 203d 21fd 403d 77de 95be
00000380: 5192 a53d be0f 5fbe 3923 4dbd 5a2b a3bd
00000390: 0db8 e0bd 7890 853d b69b d8bd 70ba 1a3d
000003a0: 97e3 66bd 5722 20be aff5 11bd d1a2 dfbd
000003b0: 4fb3 a6be afdd e2bc eb77 f7bd 45f8 61bf
000003c0: 49a7 d2bd 7df9 003e 1a28 91bd 0911 813d
000003d0: 920d d63b 49c1 be3d b1c3 c23c b7da 98be
000003e0: c295 60be 254a 2c3d 12ba 1e3d 04db aabe
000003f0: 551c 4fbd fa02 84be d14b 00be 6fb2 a23c

backbone.4.bias f4 [11]
-0.23799662 -0.09740473 -0.35299864 -0.34599042 0.5115467 -0.11742624 -0.2898202 -0.043705225
0.37734723 0.19697957 0.2211752
00000000: 63b5 73be 227c c7bd 3dbc b4be a825 b1be
00000010: b9f4 023f 2b7d f0bd 5063 94be 4004 33bd
00000020: a833 c13e 03b5 493e c07b 623e

branch_theta_y.0.weight f4 [128, 11]
0.18034899 0.2834979 -0.20211703 0.3077157 -0.2780432 -0.16076112 -0.06120417 0.1695963
-0.00407209 -0.2207392 -0.1558073 -0.012433686 0.22212496 0.041190356 -0.2434836 0.106279455
0.16110505 -0.21550064 0.22470205 -0.2785531 -0.020393226 -0.12726642 0.2875705 0.36550853
0.100766264 0.12311623 0.17952879 -0.2861897 0.057788596 0.058683652 0.1534641 -0.09618004
-0.049316116 0.26616195 -0.013312213 0.02778452 0.062253088 0.06326079 -0.29623702 0.08686176
-0.22873637 0.21520713 0.22267914 -0.025337147 0.0026787035 -0.0059946678 -0.16135046 -0.22085474
-0.22727016 -0.15344179 -0.10819475 0.23236193 0.29537064 -0.07418912 -0.054795753 -0.07800619
0.16834942 -0.11596721 0.0019309446 0.101472504 -0.18827216 -0.015045682 -0.236895 0.12447711
0.30365473 0.23771295 0.14350165 0.12484761 0.07784275 -0.25436604 0.036249265 0.07802916
0.20852828 -0.28160927 0.113371514 -0.19812284 -0.10756315 -0.16226856 0.1944606 0.40981203
0.15062231 -0.08598779 -0.37859312 0.08306764 -0.09349419 0.10553639 0.06952774 -0.2599017
-0.007909327 -0.17329912 -0.009839654 0.14919806 0.21295841 0.15596423 -0.10329918 0.22022069
0.069863476 0.17364961 0.08192158 0.25928095 -0.10964333 0.4601821 -0.18428275 -0.19001885
-0.16889493 -0.14829722 -0.0367841 -0.16896266 0.31124863 0.13569555 0.051715 0.2375538
-0.036139917 -0.040402982 -0.20755313 0.238142 0.301707 -0.1960135 -0.2741158 -0.23232305
-0.35956538 -0.07853539 0.13280085 0.07109883 0.088087335 -0.0131063685 -0.14740886 -0.0073762382
0.2534653 -0.26159316 0.15894052 0.32051042 -0.28522095 0.099306025 0.032883767 -0.3918335
0.12676834 -0.2164832 -0.38284472 -0.25198647 0.12379509 0.09868567 -0.07055371 0.061618146
0.35475767 0.17689 0.08901626 -0.07818203 0.36373255 0.29150718 0.33308363 0.1391299
0.21628718 -0.27963915 -0.049810585 0.2581799 0.0058580833 0.18754582 -0.05476018 0.32339063
0.22863105 0.3747254 0.1690013 0.0552535 -0.21374942 -0.34283936 0.047344506 -0.34126827
-0.026580183 -0.22366612 -0.03926727 -0.2162976 0.08143192 0.00096589956 -0.20293413 0.33082637
-0.13542609 0.25246155 -0.18754424 0.29013044 -0.26846865 -0.174096 0.26600832 0.19041654
0.012343652 -0.10230544 -0.3183628 0.30230835 0.10224064 0.31058124 0.102363504 0.14679794
-0.09666719 0.15868132 0.33006158 0.23291627 0.23848838 0.08223168 -0.29692012 0.15859832
0.16794044 -0.2511739 0.19275953 -0.36113292 -0.2801536 -0.014931704 0.2935231 0.28700238
-0.024318349 -0.23838252 0.0134897195 -0.27333748 -0.18918586 -0.07598903 0.023305194 -0.072840676
0.16805069 0.09378056 0.10593404 0.33284128 0.019034587 -0.14557266 0.29015774 -0.260854
-0.2234121 0.15194665 0.023388926 0.04568353 0.08162849 -0.28425878 -0.23388639 -0.16399507
-0.27302828 -0.22286507 0.09567213 0.18242314 0.41365474 -0.1478955 -0.054638233 -0.18689337
-0.25523442 -0.22918701 0.23513658 0.004443631 0.059329193 -0.27420026 -0.17417972 0.1570268
-0.11691923 0.10945005 -0.29513237 0.013375068 0.09198142 -0.21123156 0.03512316 -0.09780212
00000000: 68ad 383e a326 913e c4f7 4ebe ea8c 9d3e
00000010: ae5b 8ebe 909e 24be 39b1 7abd a7aa 2d3e
00000020: 2b6f 85bb 7509 62be f38b 1fbe a9b6 4bbc
00000030: ba74 633e 38b7 283d c453 79be 0ba9 d93d
00000040: b9f8 243e 33ac 5cbe 4b18 663e 839e 8ebe
00000050: b20f a7bc 2152 02be 713c 933e ef23 bb3e
00000060: 8b5e ce3d 5d24 fc3d 65d6 373e 7587 92be
00000070: bcb3 6c3d 455e 703d b125 1d3e 0afa c4bd
00000080: b2ff 49bd 6146 883e 781b 5abc 5d9c e33c
00000090: 18fd 7e3d e08e 813d 61ac 97be 94e4 b13d
000000a0: de39 6abe 425f 5c3e 0006 643e d98f cfbc
000000b0: 308d 2f3b eb6e c4bb 0e39 25be bf27 62be
000000c0: 82b9 68be d81f 1dbe 3695 ddbd 49f0 6d3e
000000d0: d23a 973e 77f0 97bd 8371 60bd b6c1 9fbd
000000e0: ca63 2c3e 3780 edbd c017 fd3a d1d0 cf3d
000000f0: 6bca 40be 2a82 76bc 9a94 72be dbed fe3d
00000100: a278 9b3e 066b 733e 19f2 123e 1bb0 ff3d
00000110: 056c 9f3d 443c 82be 1c7a 143d c1cd 9f3d
00000120: 7088 553e 172f 90be 532f e83d b7e0 4abe
00000130: 124a dcbd bb29 26be ae20 473e e2d2 d13e
00000140: bc3c 1a3e 5e1a b0bd f5d6 c1be 5e1f aa3d
00000150: e279 bfbd 7623 d83d 8f64 8e3d d611 85be
00000160: 1f96 01bc 5375 31be 8036 21bc 60c7 183e
00000170: c511 5a3e 16b5 1f3e 858e d3bd 8881 613e
00000180: 9514 8f3d 34d1 313e 80c6 a73d 79c0 843e
00000190: af8c e0bd fd9c eb3e 9eb4 3cbe 4d94 42be
000001a0: cbf2 2cbe 3adb 17be edaa 16bd 8c04 2dbe
000001b0: fb5b 9f3e c6f3 0a3e 1cd3 533d 4e41 733e
000001c0: 7307 14bd 997d 25bd cf88 54be 7fdb 733e
000001d0: 5779 9a3e c3b7 48be e858 8cbe 18e6 6dbe
000001e0: f418 b8be 2ad7 a0bd f2fc 073e 439c 913d
000001f0: 2267 b43d 18bc 56bc 59f2 16be 5fb4 f1bb
00000200: 34c6 813e 8aef 85be 4ec1 223e f119 a43e
00000210: 7b08 92be f560 cb3d 21b1 063d 679e c8be
00000220: 8fcf 013e c6ad 5dbe 3904 c4be 5f04 81be
00000230: 4888 fd3d b61b ca3d 777e 90bd 4f63 7c3d
00000240: cca2 b53e a722 353e 284e b63d e61d a0bd
00000250: 273b ba3e 6e40 953e f089 aa3e 1278 0e3e
00000260: 637a 5d3e dd2c 8fbe 2f06 4cbd 2830 843e
00000270: 2af5 bf3b 030c 403e 364c 60bd 7593 a53e
00000280: 421e 6a3e 02dc bf3e ad0e 2d3e 7e51 623d
00000290: 21e1 5abe a488 afbe 50ec 413d b7ba aebe
000002a0: afbe d9bc bb08 65be b8d6 20bd 1e7d 5dbe
000002b0: c7c5 a63d 6c34 7d3a f7cd 4fbe 1362 a93e
000002c0: 23ad 0abe a442 813e 990b 40be fa8b 943e
000002d0: b974 89be 3946 32be 3e32 883e 8efc 423e
000002e0: 073d 4a3c 8485 d1bd 7300 a3be 29c8 9a3e
000002f0: 8a63 d13d 8104 9f3e f5a3 d13d 3352 163e
00000300: 73f9 c5bd 5b7d 223e d5fd a83e 9a81 6e3e
00000310: 4c36 743e 1569 a83d ea05 98be 9967 223e
00000320: 94f8 2b3e de99 80be c162 453e 6ae6 b8be
00000330: 4b70 8fbe 1ba4 74bc a948 963e faf1 923e
00000340: 4637 c7bc 8c1a 74be fc03 5d3c e4f2 8bbe
00000350: f0b9 41be 23a0 9bbd 89ea be3c 7e2d 95bd
00000360: 7b15 2c3e 0610 c03d f2f3 d83d 2c6a aa3e
00000370: 6cee 9b3c 0011 15be 8e8f 943e a88e 85be
00000380: 24c6 64be e797 1b3e 229a bf3c a71e 3b3d
00000390: d62c a73d 5e8a 91be ea7f 6fbe 53ee 27be
000003a0: 5dca 8bbe be36 64be c0ef c33d 22cd 3a3e
000003b0: 8eca d33e eb71 17be 57cc 5fbd fa60 3fbe
000003c0: 16ae 82be 00b0 6abe a5c7 703e e19b 913b
000003d0: 2b03 733d fa63 8cbe 2b5c 32be a2cb 203e
000003e0: 5973 efbd 5927 e03d 971b 97be 1a23 5b3c
000003f0: c160 bc3d 164d 58be 4ddd 0f3d 7a4c c8bd

branch_theta_y.0.bias f4 [128]
0.43093452 0.3997946 -0.21763746 0.072131574 0.06172275 0.4506125 0.21940203 -0.50030863
0.42413864 -0.21683607 0.77252686 -0.38189796 0.5606752 0.58523726 0.3349524 0.43947747
0.26185146 -0.14889331 0.46281138 0.4639115 0.20321271 0.093224525 0.38504496 0.25712997
0.36578798 0.45685923 0.039514665 -0.21922746 0.008318853 0.8183339 0.5253089 0.6332656
-0.04804395 0.47039503 0.37634167 0.47415373 0.16833054 0.24879324 0.8002249 0.6287112
0.13200973 0.2700975 0.8055839 0.22203936 0.23771445 0.55865806 0.3898715 0.2289435
0.14226978 0.8250715 0.6519317 -0.37211263 0.14672174 0.7461028 0.11530692 0.03150032
0.5235128 0.1906009 0.24467173 0.7180383 0.1724461 0.5555339 0.6074123 0.28380242
0.5612194 -0.39629346 0.5186603 0.34791967 0.24281617 0.12052877 0.5455852 0.42955294
0.35026962 -0.04183521 0.23527734 0.34504732 0.15987113 0.22546168 0.23451407 0.5548092
0.11127278 -0.0385754 0.4128232 0.43960252 0.20707127 0.24598756 -0.34675434 0.50050634
0.4407855 -0.26561272 0.2644268 0.048100382 0.6043178 0.5109938 0.22459365 0.30156896
0.1340727 -0.015863203 0.2144787 0.32753775 0.34271756 0.2757468 0.16350634 -0.10869983
0.07100277 0.6228569 0.5211771 0.22422126 -0.13010044 0.119712055 0.6899717 0.41141602
0.33429307 -0.029332928 0.012513303 0.39071044 0.20066336 0.77083325 0.1891346 0.28058952
0.40896687 0.31213182 0.67040384 0.37696782 0.67864966 0.09370886 0.78302324 0.5102832
00000000: 73a3 dc3e e1b1 cc3e 5bdc 5ebe b8b9 933d
00000010: ffd0 7c3d aeb6 e63e edaa 603e 3a14 00bf
00000020: b328 d93e 460a 5ebe 52c4 453f 2188 c3be
00000030: 6988 0f3f 1cd2 153f e27e ab3e 3103 e13e
00000040: 6511 863e 7d77 18be 9df5 ec3e cf85 ed3e
00000050: fe16 503e 80ec be3d 9d24 c53e 8aa6 833e
00000060: 9048 bb3e 74e9 e93e 21da 213d 2a7d 60be
00000070: cc4b 083c 557e 513f a57a 063f b21d 223f
00000080: bcc9 44bd 9ed7 f03e dbaf c03e 47c4 f23e
00000090: d75e 2c3e a8c3 7e3e 8adb 4c3f 38f3 203f
000000a0: 8f2d 073e 384a 8a3e bf3a 4e3f 495e 633e
000000b0: 6b6b 733e 3704 0f3f 3d9d c73e 2a70 6a3e
000000c0: 2baf 113e e337 533f ffe4 263f 8c85 bebe
000000d0: 393e 163e 9800 3f3f 0926 ec3d 7b06 013d
000000e0: ef04 063f e22c 433e 3a8b 7a3e 5cd1 373f
000000f0: b695 303e 7837 0e3f 5f7f 1b3f 8d4e 913e
00000100: 13ac 0f3f fae6 cabe ecc6 043f 8722 b23e
00000110: cda4 783e cad7 f63d 79ab 0b3f 5dee db3e
00000120: 8a56 b33e 665b 2bbd 8bec 703e 0baa b03e
00000130: 42b5 233e 6ddf 663e 7524 703e fa07 0e3f
00000140: fce2 e33d 3d01 1ebd 905d d33e 9513 e13e
00000150: 7e0a 543e 2ae4 7b3e c989 b1be 2f21 003f
00000160: a3ae e13e 64fe 87be f362 873e e804 453d
00000170: 92b4 1a3f 7dd0 023f e1fb 653e 3f67 9a3e
00000180: 5b4a 093e 8cf3 81bc 4ea0 5b3e 07b3 a73e
00000190: ad78 af3e af2e 8d3e 356e 273e 049e debd
000001a0: e669 913d 8d73 1f3f dd6b 053f 429a 653e
000001b0: 0d39 05be 982b f53d fca1 303f 1fa5 d23e
000001c0: 7628 ab3e 9c4b f0bc 9904 4d3c 330b c83e
000001d0: b27a 4d3e 5455 453f 80ac 413e 6ea9 8f3e
000001e0: 1b64 d13e becf 9f3e 969f 2b3f ed01 c13e
000001f0: fcbb 2d3f 6eea bf3d 3674 483f eba1 023f

branch_theta_y.2.weight f4 [16, 128]
-0.065533236 0.015488461 0.029169675 0.07283449 -0.004661378 -0.070431136 0.040158708 0.078884445
-0.02319458 0.010781343 -0.046320345 -0.043141555 0.044159044 0.08171994 -0.0044041453 0.05960399
-0.06493794 -0.04657939 -0.023024 -0.08546175 0.07811638 -0.021806927 0.018982645 -0.08290734
0.05713096 -0.066686384 0.012415176 0.02126219 -0.034290887 -0.034569636 -0.06723508 -0.0026142742
-0.07675655 -0.031360153 0.06960767 -0.04222384 -0.0016980016 -0.066631325 0.019955669 0.040940553
-0.057562236 0.00335314 0.078157336 -0.07709393 0.07376771 -0.03995518 -0.017313978 0.06285647
-0.016090097 0.024635307 0.002811595 -0.023947818 9.218569e-05 -0.013732812 -0.06362326 -0.075583324
0.015459822 -0.074158505 0.08337812 -0.013384891 -0.023110308 0.025418658 -0.023643253 0.040911946
-0.07323389 -0.045826383 -0.006072771 0.07597675 0.004134184 -0.06900209 0.060218457 -0.0168729
-0.033878986 0.0054403786 -0.08747838 -0.060810335 0.054158762 0.018217817 0.0014848334 -0.081773944
0.087919526 0.061995074 -0.07581501 -0.079955205 -0.03987884 0.04505177 0.06082123 0.03088441
-0.035262562 0.07462964 -0.05875713 -0.028786603 -0.021604642 0.05871766 0.06296749 0.01758021
0.02766438 -0.028640637 0.037799694 -0.07092085 -0.03044918 0.08101981 0.03276967 -0.047063023
-0.023958365 0.08584568 -0.055793058 0.006251294 -0.0013983375 0.023217835 -0.03855109 -0.033925917
-0.0742032 0.02309583 0.069079705 0.022409132 0.0664592 -0.08492045 -0.07252786 -0.036780827
-0.013908175 0.043290883 0.00095059053 0.01028086 -0.068713926 0.038582943 -0.05411526 0.025911292
0.05621126 0.105637655 -0.009482462 0.05029952 0.14632826 0.097308405 0.040307228 -0.2160175
0.15238912 0.46434534 0.14548895 0.035622165 0.13638999 0.07739048 0.07105731 0.08479046
0.123918496 0.02625042 0.08148649 0.01189774 0.08652842 0.007726921 0.024171228 0.07039455
0.15516026 0.03556497 0.08198478 -0.014453371 -0.0260841 0.05083947 0.088827245 0.036547743
0.068870775 0.003064958 0.086371124 0.033406243 0.047380246 0.12291235 0.02893504 0.13976929
-0.014613454 0.12509605 0.1227265 0.07514186 -0.31575704 0.15432133 0.08425181 -0.009904956
0.02856653 0.09702204 0.04921489 -0.034782067 0.027089722 0.16971193 0.002173987 0.06255056
0.14219397 0.05635667 0.1405445 0.05270581 0.01507248 0.04453452 0.09340596 0.07374859
0.06845927 -0.03084444 0.16393913 0.054050274 0.07138859 0.070987396 0.0050492384 0.06345995
0.012055366 -0.008581984 0.012377746 0.1050013 0.002932261 0.082338855 0.14448175 0.060697
0.061086975 0.1036044 0.15929814 0.060330562 0.046861272 0.10061525 -0.04275563 0.16017555
0.12087923 -0.02551296 0.13693577 -0.7477737 0.094490625 0.072890155 0.15324605 0.04869705
0.14693995 0.13293064 0.095371015 0.086762555 0.124305494 0.08613144 -0.0045862277 0.095331274
0.073554024 0.14624076 0.12221503 0.010908656 0.00295198 0.8600099 0.12451233 0.023318067
0.0419023 0.11892932 -0.011828479 0.12644947 0.09157387 0.14536417 0.0790233 0.14903006
0.016665787 0.1690569 0.06767724 0.016717482 0.15529005 0.13971719 0.08033828 0.113594994
00000000: 4a36 86bd 50c3 7d3c 3ef5 ee3c 402a 953d
00000010: 79be 98bb 333e 90bd 757d 243d 2b8e a13d
00000020: 8f02 bebc 3ba4 303c 67ba 3dbd 33b5 30bd
00000030: 1de0 343d c95c a73d a650 90bb 5023 743d
00000040: 2ffe 84bd 08ca 3ebd d49c bcbc 9206 afbd
00000050: 7bfb 9f3d 71a4 b2bc 7e81 9b3c 53cb a9bd
00000060: 2702 6a3d df92 88bd 0669 4b3c 0b2e ae3c
00000070: 9a74 0cbd e498 0dbd 8cb2 89bd 3e54 2bbb
00000080: 8a32 9dbd 8173 00bd 778e 8e3d e8f2 2cbd
00000090: 7b8f deba 0176 88bd 127a a33c 48b1 273d
000000a0: 61c6 6bbd 5bc0 5b3b f410 a03d 6ce3 9dbd
000000b0: 8613 973d 0ba8 23bd 0bd6 8dbc e5ba 803d
000000c0: 61cf 83bc fccf c93c bd42 383b 372e c4bc
000000d0: d153 c138 97ff 60bc e94c 82bd 6ecb 9abd
000000e0: 314b 7d3c 6ae0 97bd 26c2 aa3d 4d4c 5bbc
000000f0: d451 bdbc ca3a d03c 7faf c1bc 4993 273d
00000100: a6fb 95bd 72b4 3bbd 18fe c6bb b399 9b3d
00000110: 0d78 873b f850 8dbd a1a7 763d 0939 8abc
00000120: b1c4 0abd 3445 b23b dd27 b3bd 4214 79bd
00000130: 94d5 5d3d 883d 953c be9e c23a 1979 a7bd
00000140: 270f b43d 8cee 7d3d e644 9bbd 8ebf a3bd
00000150: ff57 23bd 3488 383d af1f 793d 4d01 fd3c
00000160: 7a6f 10bd 6dd7 983d 51ab 70bd e2d1 ebbc
00000170: 38fc b0bc ee81 703d 19f5 803d 5f04 903c
00000180: 69a0 e23c c59f eabc dad3 1a3d f33e 91bd
00000190: 8f70 f9bc b7ed a53d 7d39 063d 28c5 40bd
000001a0: 5544 c4bc dccf af3d 4387 64bd a8d7 cc3b
000001b0: 6c48 b7ba 5433 be3c bfe7 1dbd e7f5 0abd
000001c0: d9f7 97bd 7733 bd3c a979 8d3d 5b93 b73c
000001d0: c31b 883d c6ea adbd 7d89 94bd 7ea7 16bd
000001e0: 1ddf 63bc c851 313d 0d31 793a 0d71 283c
000001f0: e3b9 8cbd 2609 1e3d f6a7 5dbd eb43 d43c
00000200: c73d 663d 8e58 d83d 545c 1bbc df06 4e3d
00000210: 13d7 153e a149 c73d 3119 253d b133 5dbe
00000220: e50b 1c3e acbe ed3e 0efb 143e 8ce8 113d
00000230: d1a9 0b3e e67e 9e3d 7f86 913d 9fa6 ad3d
00000240: fbc8 fd3d 1f0b d73c 64e2 a63d bdee 423c
00000250: d035 b13d 1c32 fd3b bd02 c63c 052b 903d
00000260: 55e2 1e3e 93ac 113d a3e7 a73d d5cd 6cbc
00000270: 53ae d5bc 0c3d 503d 0feb b53d 16b3 153d
00000280: 1f0c 8d3d 76dd 483b 58e3 b03d fcd4 083d
00000290: ca11 423d 78b9 fb3d 2d09 ed3c ae1f 0f3e
000002a0: 456d 6fbc 2e19 003e 0858 fb3d fae3 993d
000002b0: e8aa a1be 6906 1e3e 378c ac3d 6648 22bc
000002c0: 5b04 ea3c 7eb3 c63d 8d95 493d a477 0ebd
000002d0: 44eb dd3c f7c8 2d3e 7379 0e3b 821a 803d
000002e0: 4c9b 113e 40d6 663d e6ea 0f3e 0ce2 573d
000002f0: 90f2 763c d469 363d a04b bf3d 8009 973d
00000300: 6034 8c3d 7bad fcbc a9df 273e d263 5d3d
00000310: 2e34 923d d761 913d 1574 a53b 4af7 813d
00000320: df83 453c 739b 0cbc 08cc 4a3c ec0a d73d
00000330: 2d2b 403b 46a1 a83d 06f3 133e 6b9d 783d
00000340: 5636 7a3d 8b2e d43d 0d1f 233e 2e1d 773d
00000350: 9bf1 3f3d 5e0f ce3d 8720 2fbd 0f05 243e
00000360: 888f f73d 8e00 d1bc e438 0c3e 196e 3fbf
00000370: 4d84 c13d 6f47 953d 88ec 1c3e 8f76 473d
00000380: 6d77 163e f81e 083e e151 c33d 91b0 b13d
00000390: e193 fe3d ae65 b03d 1148 96bb 0b3d c33d
000003a0: 7ea3 963d 23c0 153e e04b fa3d 38ba 323c
000003b0: 0276 413b 9c29 5c3f 5200 ff3d 8805 bf3c
000003c0: bfa1 2b3d 3791 f33d 3dcc 41bc f87b 013e
000003d0: 158b bb3d 58da 143e f8d6 a13d 569b 183e
000003e0: b086 883c 411d 2d3e 5d9a 8a3d 1af3 883c
000003f0: 5b04 1f3e 0612 0f3e 6588 a43d 7ea4 e83d

branch_theta_y.2.bias f4 [16]
0.0054840953 0.48015165 0.02071876 0.25240782 -0.08009986 0.32438508 0.35402182 0.009395708
0.060633138 0.047863368 -0.0819223 -0.043970246 0.001815894 0.23676693 -0.08599165 -0.012596879
00000000: edb3 b33b 70d6 f53e 64ba a93c 993b 813e
00000010: 650b a4bd cd15 a63e 5942 b53e 75f0 193c
00000020: 745a 783d 610c 443d e1c6 a7bd 251a 34bd
00000030: 4b03 ee3a 0873 723e 641c b0bd 2463 4ebc

branch_theta_y.4.weight f4 [4, 16]
0.06711468 -0.1985927 0.16917808 0.14567254 0.1825956 -0.0375266 -0.2598401 0.07582109
0.120675445 0.30378583 0.19851834 -0.09422299 0.06012934 -0.99555546 0.12577555 0.22957908
0.16834152 -0.08340316 -0.12919408 -0.3358968 -0.018405523 0.035644393 0.04148204 0.1780837
0.23263377 -0.32125485 0.090601854 0.07959211 0.17608069 -0.6612754 0.19014293 -0.21579418
-0.22108671 -0.32328296 -0.07841076 0.12550747 -0.054246638 -0.04655843 -0.03806414 0.108080134
0.11662577 -0.34873956 -0.13752091 0.23023227 -0.071356915 0.920157 0.09003332 -0.067167036
0.113054454 0.032736164 -0.31224215 0.19873093 0.088083416 -0.28491876 0.15917616 0.010979616
0.03987929 0.06926299 0.047123767 -0.0350025 -0.07461625 0.6183522 0.1947624 -0.25675467
00000000: 6c73 893d e25b 4bbe 053d 2d3e 2f2b 153e
00000010: 57fa 3a3e 7eb5 19bd c309 85be 1648 9b3d
00000020: b024 f73d d189 9b3e 6448 4b3e fcf7 c0bd
00000030: 2f4a 763d b9dc 7ebf 4ecb 003e c716 6b3e
00000040: b861 2c3e 47cf aabd 744b 04be aafa abbe
00000050: 2ec7 96bc dbff 113d 12e9 293d 935b 363e
00000060: 8c37 6e3e 847b a4be 778d b93d 3001 a33d
00000070: 7f4e 343e 5849 29bf d4b4 423e 26f9 5cbe
00000080: 8e64 62be 5885 a5be d295 a0bd 0885 003e
00000090: b931 5ebd 0db4 3ebd 25e9 1bbd 1e59 dd3d
000000a0: 7ed9 ee3d fe8d b2be 48d2 0cbe 02c2 6b3e
000000b0: 9323 92bd 698f 6b3f 6463 b83d df8e 89bd
000000c0: 1889 e73d 5b16 063d 34de 9fbe 1f80 4b3e
000000d0: 1465 b43d dfe0 91be 13ff 223e d9e3 333c
000000e0: 7758 233d c1d9 8d3d da04 413d c85e 0fbd
000000f0: 68d0 98bd 544c 1e3f cb6f 473e 5975 83be

branch_theta_y.4.bias f4 [4]
-0.5378934 -0.3865085 0.028303804 0.01998136
00000000: 62b3 09bf 71e4 c5be 61dd e73c f3af a33c

branch_theta_z.0.weight f4 [128, 11]
0.1785634 -0.24221306 -0.037293762 -0.11501591 0.103415065 -0.2927924 -0.30055436 -0.2911137
-0.17812389 0.13330619 0.038505975 0.25816572 -0.15090261 -0.28509223 0.21182254 -0.023154272
0.299626 -0.21057524 0.23182234 -0.07544088 -0.18330866 -0.12235844 -0.29371625 -0.24667107
-0.27021155 0.11770807 -0.10773606 0.12769252 0.14169072 -0.009988942 -0.057987127 -0.18813616
0.044511106 0.12944596 -0.048852224 -0.09475361 0.011335797 -0.09788377 -0.07413054 -0.23097241
-0.2698186 0.06891562 -0.19395253 0.071530506 0.05745021 -0.11900126 0.22714818 -0.2441263
0.06645672 0.015908783 0.09358237 -0.2012773 -0.029910756 0.1606144 -0.21273294 0.2739445
-0.1828137 -0.2742168 0.161636 -0.0037019446 -0.11134523 0.23666707 0.14085174 -0.06868878
-0.21702665 -0.21413529 0.26812875 -0.24112035 -0.24502182 -0.18481766 -0.28838456 0.27568892
-0.29487878 -0.21964014 0.29450268 -0.106689975 0.25343966 0.011132791 -0.0879119 0.19619814
0.05791348 0.28481308 -0.25531718 0.22037077 -0.13765231 0.20252916 0.026862254 -0.037841067
0.13727908 -0.15354607 -0.13673918 0.17731719 -0.14350793 0.18611394 -0.26571026 0.03518783
-0.06276873 0.004416562 0.29791012 0.053285573 0.21750307 -0.03857973 0.10594351 0.022410251
0.2939805 0.049677078 -0.04575182 0.0847735 0.025739504 0.24944285 -0.08368907 -0.2715602
0.19116957 -0.2514251 -0.1556019 0.22744381 0.18203218 0.037380457 0.09173993 0.1377951
0.20587826 -0.21190527 0.07579244 -0.08559865 0.108351685 -0.19540344 -0.15517357 -0.22333841
-0.12393878 -0.058635395 -0.2690498 -0.10112877 -0.06814159 0.2897098 0.044951912 0.12337393
-0.21774855 0.20972875 0.2536239 0.18851735 -0.22651842 -0.009884168 -0.2633452 0.20793736
-0.14618829 -0.08884322 0.040157158 -0.23336063 -0.03226509 -0.28043422 -0.0955478 -0.054472048
-0.26044178 -0.042952657 -0.059455395 -0.085617624 -0.008544431 0.12709396 0.27672696 0.002886902
-0.01671067 -0.28940564 0.008429809 -0.29636303 -0.22083214 -0.0045047663 -0.01654127 0.21801752
0.1820163 -0.072072454 -0.25491035 -0.12787497 0.08398855 -0.10372982 -0.18520308 0.19798616
-0.073778875 -0.048860885 -0.19961944 -0.19257177 0.03937461 -0.21472742 -0.1264076 -0.12495345
0.05553251 0.18463334 -0.17631388 0.2899043 0.18332021 -0.022832725 0.011463215 0.097692154
-0.23190458 -0.019255826 -0.061647773 0.061749276 -0.10809696 -0.28726614 0.04055393 0.2893693
-0.07284299 0.28317264 -0.007509885 -0.066850945 0.29146606 -0.14843336 -0.18178587 -0.14672661
0.022185069 -0.27071384 0.27707818 0.29379973 0.05967454 -0.028555634 -0.22843626 -0.22633938
0.032013923 0.15121679 0.030690862 0.28910637 -0.0516391 -0.13433212 -0.19865696 0.2830422
0.18717279 -0.28082615 -0.13229631 0.18529207 -0.18443534 0.16015655 0.0036123027 0.22743613
0.11905464 -0.03340876 0.19973452 0.04625362 -0.15597503 0.2078399 0.20898484 0.26340464
0.29696116 0.2788627 -0.21516868 0.17127874 -0.26497954 0.02624745 0.034553975 0.12272639
0.07353037 -0.068701215 0.053721666 -0.080900684 0.13808341 -0.19429776 0.23482 -0.19603309
00000000: 53d9 363e b306 78be 58c1 18bd 768d ebbd
00000010: 47cb d33d e3e8 95be 43e2 99be db0c 95be
00000020: 1c66 36be 6b81 083e 71b8 1d3d 4c2e 843e
00000030: 3786 1abe 9cf7 91be 02e8 583e 07ae bdbc
00000040: 9468 993e 09a1 57be d662 6d3e c080 9abd
00000050: 44b5 3bbe 1097 fabd fa61 96be 5797 7cbe
00000060: 2b59 8abe ee10 f13d b9a4 dcbd d4c1 023e
00000070: 5f17 113e a9a8 23bc e983 6dbd c4a6 40be
00000080: 4751 363d 7b8d 043e 4519 48bd 2e0e c2bd
00000090: c7b9 393c 4977 c8bd c1d1 97bd 0884 6cbe
000000a0: aa25 8abe a223 8d3d 7e9b 46be 967e 923d
000000b0: e950 6b3d efb6 f3bd 8899 683e 3ffc 79be
000000c0: 761a 883d 2353 823c 1da8 bf3d a31b 4ebe
000000d0: 6707 f5bc 1a78 243e aad6 59be 7442 8c3e
000000e0: 8433 3bbe 2566 8cbe e883 253e 539c 72bb
000000f0: f808 e4bd da58 723e 703b 103e b4ac 8cbd
00000100: 3c3c 5ebe 4846 5bbe 2c48 893e 41e8 76be
00000110: 00e7 7abe d740 3dbe 24a7 93be 1927 8d3e
00000120: 5afa 96be 58e9 60be 0ec9 963e 4680 dabd
00000130: d8c2 813e 4f66 363c 270b b4bd 2ae8 483e
00000140: af36 6d3d 05d3 913e efb8 82be e0a8 613e
00000150: baf4 0cbe ce63 4f3e 3b0e dc3c 3cff 1abd
00000160: e392 0c3e 2e3b 1dbe 5b05 0cbe a392 353e
00000170: bef3 12be a794 3e3e 2d0b 88be 1d21 103d
00000180: e48c 80bd cfb8 903b ad87 983e f941 5a3d
00000190: 20b9 5e3e c705 1ebd e9f8 d83d b495 b73c
000001a0: 9d84 963e 317a 4b3d 4366 3bbd bb9d ad3d
000001b0: a7db d23c f26d 7f3e 2d65 abbd f009 8bbe
000001c0: f5c1 433e caba 80be 1b56 1fbe 08e7 683e
000001d0: a566 3a3e 401c 193d 25e2 bb3d 291a 0d3e
000001e0: c0d1 523e b2fd 58be 1139 9b3d 584e afbd
000001f0: 7de7 dd3d d717 48be d2e5 1ebe d3b2 64be
00000200: 9dd3 fdbd ab2b 70bd e5c0 89be 9a1c cfbd
00000210: d18d 8bbd d854 943e 7f1f 383d 79ab fc3d
00000220: 7af9 5ebe 22c3 563e feda 813e b10a 413e
00000230: 72f4 67be 35f1 21bc 2fd5 86be 88ed 543e
00000240: 62b2 15be 6ff3 b5bd d57b 243d 17f6 6ebe
00000250: 6628 04bd 1395 8fbe 91ae c3bd 151e 5fbd
00000260: a058 85be 20ef 2fbd 8087 73bd 4b58 afbd
00000270: f1fd 0bbc eb24 023e 28af 8d3e 2e32 3d3b
00000280: d1e4 88bc fa2c 94be 2e1d 0a3c e5bc 97be
00000290: d221 62be b89c 93bb 8f81 87bc fc3f 5f3e
000002a0: 7b62 3a3e b99a 93bd 9c83 82be a8f1 02be
000002b0: 3002 ac3d 4d70 d4bd e0a5 3dbe e2bc 4a3e
000002c0: 6119 97bd 5a22 48bd 0a69 4cbe 8931 45be
000002d0: 4547 213d 81e1 5bbe fe70 01be 98e7 ffbd
000002e0: 0f76 633d 8610 3d3e a08b 34be 566e 943e
000002f0: 4bb8 3b3e b20b bbbc 35d0 3b3c d312 c83d
00000300: 6578 6dbe 65be 9dbc 6082 7cbd cfec 7c3d
00000310: f061 ddbd 8c14 93be e11b 263d 3628 943e
00000320: b52e 95bd 01fc 903e 7b15 f6bb 26e9 88bd
00000330: 0a3b 953e eafe 17be 1326 3abe 803f 16be
00000340: 76bd b53c 019b 8abe 31dd 8d3e eb6c 963e
00000350: 4a6d 743d 81ed e9bc 32eb 69be 83c5 67be
00000360: 0821 033d 93d8 1a3e 676b fb3c c005 943e
00000370: 8583 53bd 5c8e 09be bb6c 4bbe e8ea 903e
00000380: 39aa 3f3e 72c8 8fbe af78 07be 34bd 3d3e
00000390: 9edc 3cbe 1400 243e 62bc 6c3b 04e5 683e
000003a0: ebd2 f33d a0d7 08bd 3587 4c3e 7074 3d3d
000003b0: ebb7 1fbe fcd3 543e 1f00 563e f9dc 863e
000003c0: 4b0b 983e 18c7 8e3e 2e55 5cbe b263 2f3e
000003d0: 66ab 87be e404 d73c 7888 0d3d f957 fb3d
000003e0: 1797 963d 39b3 8cbd 400b 5c3d 42af a5bd
000003f0: bd65 0d3e fef5 46be a774 703e e6bc 48be
