Firstokay.pt (torch, 97522 bytes, 62 tensors)

tcn_layers.0.tcnblock.network.0.conv1.bias f4 [11]
-0.015886808 0.014360998 0.040374685 0.020451041 0.05180051 -0.015278178 0.027069252 -0.11685518
0.06437974 0.023165442 0.082255416
00000000: 0d25 82bc 644a 6b3c ed5f 253d f188 a73c
00000010: c62c 543d 5351 7abc 56c0 dd3c c551 efbd
00000020: 86d9 833d 74c5 bd3c 8775 a83d

tcn_layers.0.tcnblock.network.0.conv1.weight_g f4 [11, 1, 1]
0.5761381 0.56773317 0.6943319 0.7027378 0.6622319 0.59396565 0.6442634 0.74279076
0.63214314 0.6148312 0.5707947
00000000: c97d 133f f656 113f bcbf 313f a0e6 333f
00000010: 0888 293f 220e 183f 72ee 243f 8927 3e3f
00000020: 22d4 213f 9465 1d3f 9a1f 123f

tcn_layers.0.tcnblock.network.0.conv1.weight_v f4 [11, 11, 3]
-0.034411646 0.108106956 0.1674771 -0.021062572 0.0613434 0.083529755 0.0047457423 0.0034663836
-0.06904162 -0.10386736 0.054186705 0.05920624 0.06323938 -0.01079735 -0.21036686 -0.05748894
0.08765815 -0.13582723 0.11754731 0.008142222 0.09674789 0.12589438 0.0718091 0.18451028
0.09276275 -0.047108162 0.0056743613 -0.05770292 -0.03745146 -0.010824917 0.13960749 0.03439881
-0.05575772 0.03242656 0.18022187 0.02410014 0.1078984 0.046645723 0.12052351 -0.2872621
-0.045222312 -0.14959109 -0.07016335 0.18906586 0.09873287 0.033224802 -0.13802713 0.006978558
-0.060791906 -0.02787969 -0.09831512 -0.046671845 -0.09809034 -0.022267204 0.1513213 0.13107082
-0.122480735 0.079984926 0.032655846 0.040975805 0.03097858 -0.1998842 -0.03138734 -0.26863316
0.11361856 0.0075772484 -0.069448695 0.10505378 -0.12519981 -0.010504619 0.019698568 0.068405606
-0.059845313 0.17897715 0.1031148 0.1451526 0.12723224 0.12180866 0.017833693 -0.12858042
0.04086062 -0.08758799 0.012699502 -0.012583152 0.028907046 -0.02364032 0.002060797 0.019202325
-0.050746955 0.06608774 0.115613 -0.10606127 -0.20220238 -0.122870885 -0.11122708 -0.15024371
0.0890618 0.035978887 0.12473933 0.09080435 0.17704542 0.04772575 -0.07226995 -0.039436385
-0.10316257 0.11490008 -0.12145772 -0.00814175 0.1367394 -0.07939249 -0.22883675 0.010944755
-0.19580002 -0.2576993 -0.07075813 0.13787156 -0.00815929 0.14001392 0.13054487 0.03183422
-0.01769307 -0.061165966 0.048957713 0.0042020697 -0.037412338 -0.10356637 -0.14252637 0.10870227
0.05042219 -0.14895819 -0.12269158 -0.19457322 0.16962866 -0.053424574 0.011856888 0.28414544
0.22743246 0.182352 -0.11017133 -0.037581343 0.04188064 0.22634515 -0.050719246 -0.07275908
0.076519534 -0.12459842 -0.042014297 -0.06535929 -0.048876673 0.1700097 0.0602598 -0.0112033775
0.029366223 -0.019264081 0.039771635 -0.11892664 0.12711146 -0.034789946 -0.08493583 -0.00031589527
0.032449342 -0.042513996 0.050471913 0.0067884596 -0.11817325 0.10900961 -0.08117171 0.14889237
-0.23219222 0.042997155 -0.33531427 0.1330149 -0.052478552 0.03985597 0.028861195 0.113514364
-0.1585389 -0.014222554 -0.16444424 0.07121466 -0.0483675 -0.09142547 -0.09582492 -0.019996537
-0.015681535 0.11730458 0.09785156 -0.104655094 0.0904535 -0.04486635 -0.09259388 -0.1020516
0.023955159 0.059681278 -0.1907661 0.03304661 -0.080002226 0.08479243 -0.13486427 -0.1799815
-0.07799807 0.18152449 0.17922436 0.17834632 0.1865623 -0.06728654 -0.06349041 -0.12612852
-0.055718374 0.06129749 -0.04963298 0.13443673 0.043362174 -0.11387543 0.0064770887 0.0207863
0.017286342 -0.04729796 0.009007832 0.07689943 -0.092479676 -0.10559321 -0.032969173 0.057600226
-0.18530197 0.021388669 -0.03415108 0.18487188 -0.10670199 -0.011903306 -0.06593653 0.18425684
0.113230996 -0.1528139 -0.11671627 0.07549824 -0.093505904 0.1467049 0.19551586 0.028223094
-0.05947629 0.065776244 0.155383 -0.095105395 0.064597346 -0.037782446 0.04920644 -0.0618465
-0.21082732 0.11236987 -0.07391758 0.11519489 0.069140546 0.14764076 -0.027547088 -0.104850344
00000000: 3af3 0cbd 2e67 dd3d 1e7f 2b3e 6a8b acbc
00000010: 3843 7b3d a611 ab3d 2c82 9b3b 442c 633b
00000020: b165 8dbd 69b8 d4bd e1f2 5d3d 3e82 723d
00000030: a683 813d 5ee7 30bc 696a 57be 8679 6bbd
00000040: 1e86 b33d 4b16 0bbe a5bc f03d f466 053c
00000050: c223 c63d 75ea 003e a610 933d 43f0 3c3e
00000060: 66fa bd3d 7df4 40bd feef b93b e659 6cbd
00000070: b466 19bd fe5a 31bc 44f5 0e3e c4e5 0c3d
00000080: 3562 64bd b6d1 043d 158c 383e a86d c53c
00000090: d6f9 dc3d 960f 3f3d 08d5 f63d 0514 93be
000000a0: 083b 39bd 682e 19be cdb1 8fbd 7b9a 413e
000000b0: 7534 ca3d bb16 083d fc56 0dbe 63ac e43b
000000c0: ef00 79bd f363 e4bc 7059 c9bd fa2a 3fbd
000000d0: 97e3 c8bd b669 b6bc f9f3 1a3e 6e37 063e
000000e0: 2ed7 fabd 23cf a33d 23c2 053d 3fd6 273d
000000f0: cac6 fd3c 72ae 4cbe 0390 00bd 498a 89be
00000100: d9b0 e83d 914a f83b 1e3b 8ebd 7026 d73d
00000110: 6134 00be 911b 2cbc e45e a13c 3d18 8c3d
00000120: 5c20 75bd c945 373e da2d d33d e2a2 143e
00000130: 2b49 023e d276 f93d f717 923c 96aa 03be
00000140: 775d 273d 5561 b3bd 9211 503c 9129 4ebc
00000150: 78ce ec3c 58a9 c1bc 700e 073b 324e 9d3c
00000160: 0adc 4fbd 0259 873d 82c6 ec3d a736 d9bd
00000170: 240e 4fbe bba3 fbbd 06cb e3bd 7dd9 19be
00000180: 0866 b63d 995e 133d 5577 ff3d a2f7 b93d
00000190: 654b 353e 137c 433d 4402 94bd 0c88 21bd
000001a0: e646 d3bd bc50 eb3d d3be f8bd f964 05bc
000001b0: 6a05 0c3e 8898 a2bd 2e54 6abe a151 333c
000001c0: cd7f 48be 2af1 83be a3e9 90bd 342e 0d3e
000001d0: 8bae 05bc cf5f 0f3e 8ead 053e 9964 023d
000001e0: 0ff1 90bc 2a89 7abd e287 483d 84b1 893b
000001f0: ae3d 19bd 9b1a d4bd 6ff2 11be 4c9f de3d
00000200: 8087 4e3d 7f88 18be b945 fbbd 343e 47be
00000210: 23b3 2d3e bad3 5abd 6543 423c 837b 913e
00000220: 0ee4 683e 7cba 3a3e 82a1 e1bd e5ee 19bd
00000230: 098b 2b3d 06c7 673e fcbe 4fbd b602 95bd
00000240: 46b6 9c3d 752d ffbd 2f17 2cbd 17db 85bd
00000250: e832 48bd 0617 2e3e fbd2 763d 5f8e 37bc
00000260: 6f91 f03c b5cf 9dbc 95e7 223d cf8f f3bd
00000270: 8229 023e e77f 0ebd d6f2 adbd bf9e a5b9
00000280: 9ae9 043d 2823 2ebd a3bb 4e3d ba71 de3b
00000290: d104 f2bd 6e40 df3d 5a3d a6bd 3e77 183e
000002a0: ccc3 6dbe c91d 303d 50ae abbe 0f35 083e
000002b0: c0f3 56bd 0340 233d 506e ec3c 387a e83d
000002c0: 0558 22be b705 69bc 1264 28be fed8 913d
000002d0: 001d 46bd 473d bbbd db3f c4bd c7cf a3bc
000002e0: 9076 80bc 623d f03d 6666 c83d 6955 d6bd
000002f0: af3f b93d c7c5 37bd dca1 bdbd 6e00 d1bd
00000300: 9c3d c43c 5b74 743d 3058 43be e25b 073d
00000310: 35d8 a3bd a7a7 ad3d dc19 0abe 124d 38be
00000320: 74bd 9fbd 8ee1 393e 9786 373e 6ba0 363e
00000330: 300a 3f3e 87cd 89bd 4307 82bd d627 01be
00000340: f338 64bd 1413 7b3d f44b 4bbd c8a9 093e
00000350: 899c 313d 8537 e9bd c23d d43b 0848 aa3c
00000360: 169c 8d3c 81bb 41bd 9695 133c 737d 9d3d
00000370: fc65 bdbd 4141 d8bd af0a 07bd 37ee 6b3d
00000380: cdbf 3dbe 4a37 af3c 01e2 0bbd 0e4f 3d3e
00000390: 9386 dabd 1506 43bc bb09 87bd d3ad 3c3e
000003a0: a7e5 e73d 3f7b 1cbe f108 efbd d29e 9a3d
000003b0: 0680 bfbd cf39 163e 4f35 483e 1e34 e73c
000003c0: 699d 73bd b2b5 863d b91c 1f3e 9ec6 c2bd
000003d0: 9d4b 843d c4c1 1abd b18c 493d c152 7dbd
000003e0: 1ee3 57be 2d22 e63d 1a62 97bd 4ceb eb3d
000003f0: 8f99 8d3d 242f 173e 6eaa e1bc c7bb d6bd

tcn_layers.0.tcnblock.network.0.conv2.bias f4 [11]
0.004955288 0.0051880414 0.12043207 0.030673465 0.24427137 0.16486485 0.121392205 0.11414388
0.1790882 0.08529345 0.070410006
00000000: f85f a23b 7200 aa3b 17a5 f63d eb46 fb3c
00000010: 4622 7a3e 55d2 283e 7a9c f83d 44c4 e93d
00000020: e662 373e 55ae ae3d 1f33 903d

tcn_layers.0.tcnblock.network.0.conv2.weight_g f4 [11, 1, 1]
0.64793557 0.64241713 0.6452807 0.60296744 0.51570785 0.64579725 0.48749375 0.5156182
0.66259867 0.76722425 0.6937279
00000000: 1bdf 253f 7375 243f 1e31 253f 135c 1a3f
00000010: 6e05 043f f852 253f c898 f93e 8eff 033f
00000020: 11a0 293f cf68 443f 2798 313f

tcn_layers.0.tcnblock.network.0.conv2.weight_v f4 [11, 11, 3]
0.19576919 0.014227571 0.15176965 0.086585924 0.038089298 0.18940242 -0.158953 -0.05866004
-0.055825103 0.13747297 0.1609872 0.13430825 -0.02967162 0.026886782 -0.13150062 0.01162128
0.14072976 -0.02698304 -0.08478073 0.012017536 0.036420364 0.028912745 -0.016809316 -0.08121915
-0.0536594 -0.085279964 -0.041716248 0.114396945 -0.023075918 0.09867762 -0.025022773 0.15535028
0.1832817 0.068919204 0.014554224 -0.17222399 0.008400942 0.0010750944 -0.14473172 -0.18743743
-0.12891403 -0.06290391 0.018941225 0.1810833 0.08883962 -0.092567086 0.014021092 -0.10679611
-0.1266726 -0.14146474 0.04095591 -0.08154972 0.13306451 0.040606152 -0.2614671 -0.21089211
-0.18663423 0.09835116 -0.1111977 -0.10610515 0.040815655 0.1485398 0.012505235 -0.030340476
-0.08160663 -0.16742602 -0.019038392 -0.036872152 0.0060519427 0.15349458 -0.0016089801 -0.066155754
0.0014913352 -0.036121096 -0.044923373 0.022377646 -0.006105556 -0.020063015 0.029353933 -0.022094738
-0.08068718 -0.054158136 -0.021341525 -0.002657587 0.02691402 0.14182147 0.18709378 0.08637383
0.35039282 0.07689593 -0.021959113 -0.05109366 -0.12159779 -0.017580427 -0.061278578 0.092953585
0.040830363 -0.06452952 0.010282356 -0.09359333 -0.11342189 -0.029030902 -0.057597436 0.1466933
0.07523939 -0.117427096 0.13972129 0.14457716 -0.100452185 0.088685 0.071114846 0.06251953
0.10830816 0.06121063 0.16358282 0.087732695 -0.022218293 -0.011315421 0.062340334 0.22892125
-0.027206609 0.037238356 0.1690128 -0.14383739 -0.079730414 -0.08924875 0.0060944096 -0.028201949
-0.011914176 -0.13256462 0.007893755 0.12853026 -0.010530376 0.13907759 0.0047008526 0.043196224
0.0039730086 -0.030598305 0.1787425 0.24722947 0.29818222 -0.053571705 -0.05296146 0.11280377
-0.031779435 -0.030691437 0.011684058 -0.09167209 0.036477566 0.101429164 -0.041529033 -0.014210182
0.018947376 -0.033714764 0.008354046 -0.029179912 0.06326082 -0.14785957 0.15971988 -0.09830607
-0.040257264 -0.018049583 0.066849135 0.030441087 0.1011996 0.13018663 0.0015666321 -0.1627959
-0.043336384 0.18431534 0.21363717 -0.09482286 0.043819744 -0.07032177 0.028754825 -0.07922488
-0.12668799 0.25954357 -0.0037552558 0.004943138 -0.116118066 -0.10415787 -0.027227562 0.13571446
0.17387524 0.16019808 -0.16171306 -0.16018179 0.015389544 0.10786651 0.10536181 -0.1291292
-0.07909949 -0.08798238 0.045551304 -0.060546543 0.16591544 -0.035658866 0.10798787 0.13754475
-0.041161872 0.09446863 -0.0029583026 0.11929463 -0.20960456 -0.11190198 -0.24576586 -0.15640505
0.034474637 0.070295565 -0.12138437 0.052330047 -0.029517448 0.055488337 -0.066232726 -0.039534964
-0.02881742 0.09742459 -0.031555787 0.042582694 -0.016267365 -0.09736786 -0.16934955 -0.044075042
-0.12837876 0.008186058 -0.08280851 -0.10201545 0.1400252 0.1450928 0.018929897 0.19672476
0.35653153 0.45397636 -0.0012362729 0.16255088 -0.040400274 -0.0508693 -0.024179293 0.08120753
-0.029352974 0.08506836 0.08282991 -0.08929965 0.015025491 -0.04352814 -0.008551582 0.023248866
-0.05688743 -0.052677076 -0.12521891 -0.007212947 0.07929072 -0.057389393 -0.026387097 -0.109666295
00000000: b877 483e c21a 693c 8169 1b3e f653 b13d
00000010: 8603 1c3d b5f2 413e 93c4 22be 8345 70bd
00000020: dda8 64bd b7c5 0c3e d4d9 243e 1a88 093e
00000030: e611 f3bc ab41 dc3c 19a8 06be 2e67 3e3c
00000040: 761b 103e 890b ddbc 85a1 adbd 33e5 443c
00000050: 852d 153d 6cda ec3c b1b3 89bc 3a56 a6bd
00000060: f6c9 5bbd 43a7 aebd a8de 2abd f248 ea3d
00000070: b509 bdbc 7e17 ca3d 8ffc ccbc 2514 1f3e
00000080: 33ae 3b3e 8325 8d3d d774 6e3c 7c5b 30be
00000090: 1ba4 093c 2fea 8c3a 8d34 14be 99ef 3fbe
000000a0: 0a02 04be c4d3 80bd a12a 9b3c e76d 393e
000000b0: 8cf1 b53d d093 bdbd b9b8 653c ebb7 dabd
000000c0: 76b6 01be 22dc 10be 62c1 273d 8a03 a7bd
000000d0: 1042 083e a352 263d 04df 85be 1af4 57be
000000e0: 0b1d 3fbe 556c c93d 9fbb e3bd a84d d9bd
000000f0: 512e 273d d11a 183e c2e2 4c3c 978c f8bc
00000100: 6021 a7bd ba71 2bbe 67f6 9bbc 4107 17bd
00000110: 604f c63b af2d 1d3e 6ae4 d2ba ab7c 87bd
00000120: e878 c33a b7f3 13bd 9201 38bd 5351 b73c
00000130: 1e11 c8bb 315b a4bc a977 f03c 0600 b5bc
00000140: 523f a5bd ecd4 5dbd 6cd4 aebc e92a 2ebb
00000150: ca7a dc3c a639 113e 8395 3f3e c3e4 b03d
00000160: b066 b33e 9d7b 9d3d 99e3 b3bc 9647 51bd
00000170: 4308 f9bd d404 90bc 3fff 7abd 735e be3d
00000180: bd3d 273d 0e28 84bd 5477 283c dcad bfbd
00000190: bc49 e8bd 37d2 edbc 4aeb 6bbd c536 163e
000001a0: 1c17 9a3d 9e7d f0bd 1913 0f3e 090c 143e
000001b0: e0b9 cdbd 7ba0 b53d a9a4 913d 3d0a 803d
000001c0: abd0 dd3d ffb7 7a3d 4182 273e 33ad b33d
000001d0: 2303 b6bc 5164 39bc 9458 7f3d 556a 6a3e
000001e0: 65e0 debc 3f87 183d b111 2d3e 1c4a 13be
000001f0: b349 a3bd 0cc8 b6bd 9db3 c73b c607 e7bc
00000200: ad33 43bc 05bf 07be cf54 013c 709d 033e
00000210: 9987 2cbc 5b6a 0e3e 9c09 9a3b 86ee 303d
00000220: 0330 823b 4ca9 fabc 4608 373e b929 7d3e
00000230: 57ab 983e 016e 5bbd 1eee 58bd aa05 e73d
00000240: 272b 02bd 9c6c fbbc 7e6e 3f3c 94be bbbd
00000250: 8069 153d 18ba cf3d 591a 2abd d3d1 68bc
00000260: 8737 9b3c 7e18 0abd 69df 083c b60a efbc
00000270: e48e 813d 8068 17be 9c8d 233e b154 c9bd
00000280: cde4 24bd b8dc 93bc 33e8 883d 965f f93c
00000290: bc41 cf3d a54f 053e 7357 cd3a f8b3 26be
000002a0: 7e81 31bd 29bd 3c3e b4c3 5a3e 7d32 c2bd
000002b0: 557c 333d dc04 90bd 3d8f eb3c a740 a2bd
000002c0: 7fba 01be e5e2 843e bd1a 76bb 0cfa a13b
000002d0: 4fcf edbd b950 d5bd 560c dfbc bbf8 0a3e
000002e0: 5a0c 323e f70a 243e 1c98 25be b206 24be
000002f0: 6d24 7c3c 1ee9 dc3d efc7 d73d 723a 04be
00000300: eafe a1bd 1b30 b4bd 0194 3a3d a7ff 77bd
00000310: bde5 293e 080f 12bd bf28 dd3d 88d8 0c3e
00000320: 5a99 28bd c578 c13d 15e0 41bb be50 f43d
00000330: 94a2 56be de2c e5bd 0caa 7bbe a528 20be
00000340: 4735 0d3d 1ff7 8f3d 5e98 f8bd 0858 563d
00000350: 93ce f1bc bd47 633d 06a5 87bd 6aef 21bd
00000360: 8312 ecbc 8b86 c73d a440 01bd 316b 2e3d
00000370: 2343 85bc cd68 c7bd f869 2dbe 0888 34bd
00000380: b975 03be d11e 063c 8297 a9bd 7aed d0bd
00000390: c462 0f3e 3593 143e df12 9b3c 3772 493e
000003a0: 4d8b b63e 976f e83e 6f0a a2ba bd73 263e
000003b0: c27a 25bd 545c 50bd a713 c6bc 2250 a63d
000003c0: a675 f0bc 5238 ae3d baa2 a93d bce2 b6bd
000003d0: 7a2d 763c 904a 32bd ef1b 0cbc 6874 be3c
000003e0: cb02 69bd ebc3 57bd 6339 00be 965a ecbb
000003f0: 2c63 a23d 2411 6bbd c129 d8bc b998 e0bd

tcn_layers.0.tcnblock.network.0.net.0.bias f4 [11]
-0.015886808 0.014360998 0.040374685 0.020451041 0.05180051 -0.015278178 0.027069252 -0.11685518
0.06437974 0.023165442 0.082255416
00000000: 0d25 82bc 644a 6b3c ed5f 253d f188 a73c
00000010: c62c 543d 5351 7abc 56c0 dd3c c551 efbd
00000020: 86d9 833d 74c5 bd3c 8775 a83d

tcn_layers.0.tcnblock.network.0.net.0.weight_g f4 [11, 1, 1]
0.5761381 0.56773317 0.6943319 0.7027378 0.6622319 0.59396565 0.6442634 0.74279076
0.63214314 0.6148312 0.5707947
00000000: c97d 133f f656 113f bcbf 313f a0e6 333f
00000010: 0888 293f 220e 183f 72ee 243f 8927 3e3f
00000020: 22d4 213f 9465 1d3f 9a1f 123f

tcn_layers.0.tcnblock.network.0.net.0.weight_v f4 [11, 11, 3]
-0.034411646 0.108106956 0.1674771 -0.021062572 0.0613434 0.083529755 0.0047457423 0.0034663836
-0.06904162 -0.10386736 0.054186705 0.05920624 0.06323938 -0.01079735 -0.21036686 -0.05748894
0.08765815 -0.13582723 0.11754731 0.008142222 0.09674789 0.12589438 0.0718091 0.18451028
0.09276275 -0.047108162 0.0056743613 -0.05770292 -0.03745146 -0.010824917 0.13960749 0.03439881
-0.05575772 0.03242656 0.18022187 0.02410014 0.1078984 0.046645723 0.12052351 -0.2872621
-0.045222312 -0.14959109 -0.07016335 0.18906586 0.09873287 0.033224802 -0.13802713 0.006978558
-0.060791906 -0.02787969 -0.09831512 -0.046671845 -0.09809034 -0.022267204 0.1513213 0.13107082
-0.122480735 0.079984926 0.032655846 0.040975805 0.03097858 -0.1998842 -0.03138734 -0.26863316
0.11361856 0.0075772484 -0.069448695 0.10505378 -0.12519981 -0.010504619 0.019698568 0.068405606
-0.059845313 0.17897715 0.1031148 0.1451526 0.12723224 0.12180866 0.017833693 -0.12858042
0.04086062 -0.08758799 0.012699502 -0.012583152 0.028907046 -0.02364032 0.002060797 0.019202325
-0.050746955 0.06608774 0.115613 -0.10606127 -0.20220238 -0.122870885 -0.11122708 -0.15024371
0.0890618 0.035978887 0.12473933 0.09080435 0.17704542 0.04772575 -0.07226995 -0.039436385
-0.10316257 0.11490008 -0.12145772 -0.00814175 0.1367394 -0.07939249 -0.22883675 0.010944755
-0.19580002 -0.2576993 -0.07075813 0.13787156 -0.00815929 0.14001392 0.13054487 0.03183422
-0.01769307 -0.061165966 0.048957713 0.0042020697 -0.037412338 -0.10356637 -0.14252637 0.10870227
0.05042219 -0.14895819 -0.12269158 -0.19457322 0.16962866 -0.053424574 0.011856888 0.28414544
0.22743246 0.182352 -0.11017133 -0.037581343 0.04188064 0.22634515 -0.050719246 -0.07275908
0.076519534 -0.12459842 -0.042014297 -0.06535929 -0.048876673 0.1700097 0.0602598 -0.0112033775
0.029366223 -0.019264081 0.039771635 -0.11892664 0.12711146 -0.034789946 -0.08493583 -0.00031589527
0.032449342 -0.042513996 0.050471913 0.0067884596 -0.11817325 0.10900961 -0.08117171 0.14889237
-0.23219222 0.042997155 -0.33531427 0.1330149 -0.052478552 0.03985597 0.028861195 0.113514364
-0.1585389 -0.014222554 -0.16444424 0.07121466 -0.0483675 -0.09142547 -0.09582492 -0.019996537
-0.015681535 0.11730458 0.09785156 -0.104655094 0.0904535 -0.04486635 -0.09259388 -0.1020516
0.023955159 0.059681278 -0.1907661 0.03304661 -0.080002226 0.08479243 -0.13486427 -0.1799815
-0.07799807 0.18152449 0.17922436 0.17834632 0.1865623 -0.06728654 -0.06349041 -0.12612852
-0.055718374 0.06129749 -0.04963298 0.13443673 0.043362174 -0.11387543 0.0064770887 0.0207863
0.017286342 -0.04729796 0.009007832 0.07689943 -0.092479676 -0.10559321 -0.032969173 0.057600226
-0.18530197 0.021388669 -0.03415108 0.18487188 -0.10670199 -0.011903306 -0.06593653 0.18425684
0.113230996 -0.1528139 -0.11671627 0.07549824 -0.093505904 0.1467049 0.19551586 0.028223094
-0.05947629 0.065776244 0.155383 -0.095105395 0.064597346 -0.037782446 0.04920644 -0.0618465
-0.21082732 0.11236987 -0.07391758 0.11519489 0.069140546 0.14764076 -0.027547088 -0.104850344
00000000: 3af3 0cbd 2e67 dd3d 1e7f 2b3e 6a8b acbc
00000010: 3843 7b3d a611 ab3d 2c82 9b3b 442c 633b
00000020: b165 8dbd 69b8 d4bd e1f2 5d3d 3e82 723d
00000030: a683 813d 5ee7 30bc 696a 57be 8679 6bbd
00000040: 1e86 b33d 4b16 0bbe a5bc f03d f466 053c
00000050: c223 c63d 75ea 003e a610 933d 43f0 3c3e
00000060: 66fa bd3d 7df4 40bd feef b93b e659 6cbd
00000070: b466 19bd fe5a 31bc 44f5 0e3e c4e5 0c3d
00000080: 3562 64bd b6d1 043d 158c 383e a86d c53c
00000090: d6f9 dc3d 960f 3f3d 08d5 f63d 0514 93be
000000a0: 083b 39bd 682e 19be cdb1 8fbd 7b9a 413e
000000b0: 7534 ca3d bb16 083d fc56 0dbe 63ac e43b
000000c0: ef00 79bd f363 e4bc 7059 c9bd fa2a 3fbd
000000d0: 97e3 c8bd b669 b6bc f9f3 1a3e 6e37 063e
000000e0: 2ed7 fabd 23cf a33d 23c2 053d 3fd6 273d
000000f0: cac6 fd3c 72ae 4cbe 0390 00bd 498a 89be
00000100: d9b0 e83d 914a f83b 1e3b 8ebd 7026 d73d
00000110: 6134 00be 911b 2cbc e45e a13c 3d18 8c3d
00000120: 5c20 75bd c945 373e da2d d33d e2a2 143e
00000130: 2b49 023e d276 f93d f717 923c 96aa 03be
00000140: 775d 273d 5561 b3bd 9211 503c 9129 4ebc
00000150: 78ce ec3c 58a9 c1bc 700e 073b 324e 9d3c
00000160: 0adc 4fbd 0259 873d 82c6 ec3d a736 d9bd
00000170: 240e 4fbe bba3 fbbd 06cb e3bd 7dd9 19be
00000180: 0866 b63d 995e 133d 5577 ff3d a2f7 b93d
00000190: 654b 353e 137c 433d 4402 94bd 0c88 21bd
000001a0: e646 d3bd bc50 eb3d d3be f8bd f964 05bc
000001b0: 6a05 0c3e 8898 a2bd 2e54 6abe a151 333c
000001c0: cd7f 48be 2af1 83be a3e9 90bd 342e 0d3e
000001d0: 8bae 05bc cf5f 0f3e 8ead 053e 9964 023d
000001e0: 0ff1 90bc 2a89 7abd e287 483d 84b1 893b
000001f0: ae3d 19bd 9b1a d4bd 6ff2 11be 4c9f de3d
00000200: 8087 4e3d 7f88 18be b945 fbbd 343e 47be
00000210: 23b3 2d3e bad3 5abd 6543 423c 837b 913e
00000220: 0ee4 683e 7cba 3a3e 82a1 e1bd e5ee 19bd
00000230: 098b 2b3d 06c7 673e fcbe 4fbd b602 95bd
00000240: 46b6 9c3d 752d ffbd 2f17 2cbd 17db 85bd
00000250: e832 48bd 0617 2e3e fbd2 763d 5f8e 37bc
00000260: 6f91 f03c b5cf 9dbc 95e7 223d cf8f f3bd
00000270: 8229 023e e77f 0ebd d6f2 adbd bf9e a5b9
00000280: 9ae9 043d 2823 2ebd a3bb 4e3d ba71 de3b
00000290: d104 f2bd 6e40 df3d 5a3d a6bd 3e77 183e
000002a0: ccc3 6dbe c91d 303d 50ae abbe 0f35 083e
000002b0: c0f3 56bd 0340 233d 506e ec3c 387a e83d
000002c0: 0558 22be b705 69bc 1264 28be fed8 913d
000002d0: 001d 46bd 473d bbbd db3f c4bd c7cf a3bc
000002e0: 9076 80bc 623d f03d 6666 c83d 6955 d6bd
000002f0: af3f b93d c7c5 37bd dca1 bdbd 6e00 d1bd
00000300: 9c3d c43c 5b74 743d 3058 43be e25b 073d
00000310: 35d8 a3bd a7a7 ad3d dc19 0abe 124d 38be
00000320: 74bd 9fbd 8ee1 393e 9786 373e 6ba0 363e
00000330: 300a 3f3e 87cd 89bd 4307 82bd d627 01be
00000340: f338 64bd 1413 7b3d f44b 4bbd c8a9 093e
00000350: 899c 313d 8537 e9bd c23d d43b 0848 aa3c
00000360: 169c 8d3c 81bb 41bd 9695 133c 737d 9d3d
00000370: fc65 bdbd 4141 d8bd af0a 07bd 37ee 6b3d
00000380: cdbf 3dbe 4a37 af3c 01e2 0bbd 0e4f 3d3e
00000390: 9386 dabd 1506 43bc bb09 87bd d3ad 3c3e
000003a0: a7e5 e73d 3f7b 1cbe f108 efbd d29e 9a3d
000003b0: 0680 bfbd cf39 163e 4f35 483e 1e34 e73c
000003c0: 699d 73bd b2b5 863d b91c 1f3e 9ec6 c2bd
000003d0: 9d4b 843d c4c1 1abd b18c 493d c152 7dbd
000003e0: 1ee3 57be 2d22 e63d 1a62 97bd 4ceb eb3d
000003f0: 8f99 8d3d 242f 173e 6eaa e1bc c7bb d6bd

tcn_layers.0.tcnblock.network.0.net.4.bias f4 [11]
0.004955288 0.0051880414 0.12043207 0.030673465 0.24427137 0.16486485 0.121392205 0.11414388
0.1790882 0.08529345 0.070410006
00000000: f85f a23b 7200 aa3b 17a5 f63d eb46 fb3c
00000010: 4622 7a3e 55d2 283e 7a9c f83d 44c4 e93d
00000020: e662 373e 55ae ae3d 1f33 903d

tcn_layers.0.tcnblock.network.0.net.4.weight_g f4 [11, 1, 1]
0.64793557 0.64241713 0.6452807 0.60296744 0.51570785 0.64579725 0.48749375 0.5156182
0.66259867 0.76722425 0.6937279
00000000: 1bdf 253f 7375 243f 1e31 253f 135c 1a3f
00000010: 6e05 043f f852 253f c898 f93e 8eff 033f
00000020: 11a0 293f cf68 443f 2798 313f

tcn_layers.0.tcnblock.network.0.net.4.weight_v f4 [11, 11, 3]
0.19576919 0.014227571 0.15176965 0.086585924 0.038089298 0.18940242 -0.158953 -0.05866004
-0.055825103 0.13747297 0.1609872 0.13430825 -0.02967162 0.026886782 -0.13150062 0.01162128
0.14072976 -0.02698304 -0.08478073 0.012017536 0.036420364 0.028912745 -0.016809316 -0.08121915
-0.0536594 -0.085279964 -0.041716248 0.114396945 -0.023075918 0.09867762 -0.025022773 0.15535028
0.1832817 0.068919204 0.014554224 -0.17222399 0.008400942 0.0010750944 -0.14473172 -0.18743743
-0.12891403 -0.06290391 0.018941225 0.1810833 0.08883962 -0.092567086 0.014021092 -0.10679611
-0.1266726 -0.14146474 0.04095591 -0.08154972 0.13306451 0.040606152 -0.2614671 -0.21089211
-0.18663423 0.09835116 -0.1111977 -0.10610515 0.040815655 0.1485398 0.012505235 -0.030340476
-0.08160663 -0.16742602 -0.019038392 -0.036872152 0.0060519427 0.15349458 -0.0016089801 -0.066155754
0.0014913352 -0.036121096 -0.044923373 0.022377646 -0.006105556 -0.020063015 0.029353933 -0.022094738
-0.08068718 -0.054158136 -0.021341525 -0.002657587 0.02691402 0.14182147 0.18709378 0.08637383
0.35039282 0.07689593 -0.021959113 -0.05109366 -0.12159779 -0.017580427 -0.061278578 0.092953585
0.040830363 -0.06452952 0.010282356 -0.09359333 -0.11342189 -0.029030902 -0.057597436 0.1466933
0.07523939 -0.117427096 0.13972129 0.14457716 -0.100452185 0.088685 0.071114846 0.06251953
0.10830816 0.06121063 0.16358282 0.087732695 -0.022218293 -0.011315421 0.062340334 0.22892125
-0.027206609 0.037238356 0.1690128 -0.14383739 -0.079730414 -0.08924875 0.0060944096 -0.028201949
-0.011914176 -0.13256462 0.007893755 0.12853026 -0.010530376 0.13907759 0.0047008526 0.043196224
0.0039730086 -0.030598305 0.1787425 0.24722947 0.29818222 -0.053571705 -0.05296146 0.11280377
-0.031779435 -0.030691437 0.011684058 -0.09167209 0.036477566 0.101429164 -0.041529033 -0.014210182
0.018947376 -0.033714764 0.008354046 -0.029179912 0.06326082 -0.14785957 0.15971988 -0.09830607
-0.040257264 -0.018049583 0.066849135 0.030441087 0.1011996 0.13018663 0.0015666321 -0.1627959
-0.043336384 0.18431534 0.21363717 -0.09482286 0.043819744 -0.07032177 0.028754825 -0.07922488
-0.12668799 0.25954357 -0.0037552558 0.004943138 -0.116118066 -0.10415787 -0.027227562 0.13571446
0.17387524 0.16019808 -0.16171306 -0.16018179 0.015389544 0.10786651 0.10536181 -0.1291292
-0.07909949 -0.08798238 0.045551304 -0.060546543 0.16591544 -0.035658866 0.10798787 0.13754475
-0.041161872 0.09446863 -0.0029583026 0.11929463 -0.20960456 -0.11190198 -0.24576586 -0.15640505
0.034474637 0.070295565 -0.12138437 0.052330047 -0.029517448 0.055488337 -0.066232726 -0.039534964
-0.02881742 0.09742459 -0.031555787 0.042582694 -0.016267365 -0.09736786 -0.16934955 -0.044075042
-0.12837876 0.008186058 -0.08280851 -0.10201545 0.1400252 0.1450928 0.018929897 0.19672476
0.35653153 0.45397636 -0.0012362729 0.16255088 -0.040400274 -0.0508693 -0.024179293 0.08120753
-0.029352974 0.08506836 0.08282991 -0.08929965 0.015025491 -0.04352814 -0.008551582 0.023248866
-0.05688743 -0.052677076 -0.12521891 -0.007212947 0.07929072 -0.057389393 -0.026387097 -0.109666295
00000000: b877 483e c21a 693c 8169 1b3e f653 b13d
00000010: 8603 1c3d b5f2 413e 93c4 22be 8345 70bd
00000020: dda8 64bd b7c5 0c3e d4d9 243e 1a88 093e
00000030: e611 f3bc ab41 dc3c 19a8 06be 2e67 3e3c
00000040: 761b 103e 890b ddbc 85a1 adbd 33e5 443c
00000050: 852d 153d 6cda ec3c b1b3 89bc 3a56 a6bd
00000060: f6c9 5bbd 43a7 aebd a8de 2abd f248 ea3d
00000070: b509 bdbc 7e17 ca3d 8ffc ccbc 2514 1f3e
00000080: 33ae 3b3e 8325 8d3d d774 6e3c 7c5b 30be
00000090: 1ba4 093c 2fea 8c3a 8d34 14be 99ef 3fbe
000000a0: 0a02 04be c4d3 80bd a12a 9b3c e76d 393e
000000b0: 8cf1 b53d d093 bdbd b9b8 653c ebb7 dabd
000000c0: 76b6 01be 22dc 10be 62c1 273d 8a03 a7bd
000000d0: 1042 083e a352 263d 04df 85be 1af4 57be
000000e0: 0b1d 3fbe 556c c93d 9fbb e3bd a84d d9bd
000000f0: 512e 273d d11a 183e c2e2 4c3c 978c f8bc
00000100: 6021 a7bd ba71 2bbe 67f6 9bbc 4107 17bd
00000110: 604f c63b af2d 1d3e 6ae4 d2ba ab7c 87bd
00000120: e878 c33a b7f3 13bd 9201 38bd 5351 b73c
00000130: 1e11 c8bb 315b a4bc a977 f03c 0600 b5bc
00000140: 523f a5bd ecd4 5dbd 6cd4 aebc e92a 2ebb
00000150: ca7a dc3c a639 113e 8395 3f3e c3e4 b03d
00000160: b066 b33e 9d7b 9d3d 99e3 b3bc 9647 51bd
00000170: 4308 f9bd d404 90bc 3fff 7abd 735e be3d
00000180: bd3d 273d 0e28 84bd 5477 283c dcad bfbd
00000190: bc49 e8bd 37d2 edbc 4aeb 6bbd c536 163e
000001a0: 1c17 9a3d 9e7d f0bd 1913 0f3e 090c 143e
000001b0: e0b9 cdbd 7ba0 b53d a9a4 913d 3d0a 803d
000001c0: abd0 dd3d ffb7 7a3d 4182 273e 33ad b33d
000001d0: 2303 b6bc 5164 39bc 9458 7f3d 556a 6a3e
000001e0: 65e0 debc 3f87 183d b111 2d3e 1c4a 13be
000001f0: b349 a3bd 0cc8 b6bd 9db3 c73b c607 e7bc
00000200: ad33 43bc 05bf 07be cf54 013c 709d 033e
00000210: 9987 2cbc 5b6a 0e3e 9c09 9a3b 86ee 303d
00000220: 0330 823b 4ca9 fabc 4608 373e b929 7d3e
00000230: 57ab 983e 016e 5bbd 1eee 58bd aa05 e73d
00000240: 272b 02bd 9c6c fbbc 7e6e 3f3c 94be bbbd
00000250: 8069 153d 18ba cf3d 591a 2abd d3d1 68bc
00000260: 8737 9b3c 7e18 0abd 69df 083c b60a efbc
00000270: e48e 813d 8068 17be 9c8d 233e b154 c9bd
00000280: cde4 24bd b8dc 93bc 33e8 883d 965f f93c
00000290: bc41 cf3d a54f 053e 7357 cd3a f8b3 26be
000002a0: 7e81 31bd 29bd 3c3e b4c3 5a3e 7d32 c2bd
000002b0: 557c 333d dc04 90bd 3d8f eb3c a740 a2bd
000002c0: 7fba 01be e5e2 843e bd1a 76bb 0cfa a13b
000002d0: 4fcf edbd b950 d5bd 560c dfbc bbf8 0a3e
000002e0: 5a0c 323e f70a 243e 1c98 25be b206 24be
000002f0: 6d24 7c3c 1ee9 dc3d efc7 d73d 723a 04be
00000300: eafe a1bd 1b30 b4bd 0194 3a3d a7ff 77bd
00000310: bde5 293e 080f 12bd bf28 dd3d 88d8 0c3e
00000320: 5a99 28bd c578 c13d 15e0 41bb be50 f43d
00000330: 94a2 56be de2c e5bd 0caa 7bbe a528 20be
00000340: 4735 0d3d 1ff7 8f3d 5e98 f8bd 0858 563d
00000350: 93ce f1bc bd47 633d 06a5 87bd 6aef 21bd
00000360: 8312 ecbc 8b86 c73d a440 01bd 316b 2e3d
00000370: 2343 85bc cd68 c7bd f869 2dbe 0888 34bd
00000380: b975 03be d11e 063c 8297 a9bd 7aed d0bd
00000390: c462 0f3e 3593 143e df12 9b3c 3772 493e
000003a0: 4d8b b63e 976f e83e 6f0a a2ba bd73 263e
000003b0: c27a 25bd 545c 50bd a713 c6bc 2250 a63d
000003c0: a675 f0bc 5238 ae3d baa2 a93d bce2 b6bd
000003d0: 7a2d 763c 904a 32bd ef1b 0cbc 6874 be3c
000003e0: cb02 69bd ebc3 57bd 6339 00be 965a ecbb
000003f0: 2c63 a23d 2411 6bbd c129 d8bc b998 e0bd

tcn_layers.0.tcnblock.network.1.conv1.bias f4 [33]
0.033238888 -0.00041472557 0.03701307 0.024541292 0.015082552 -0.0014792423 0.01283675 0.070762254
0.06672664 0.06680881 0.03833834 0.03322348 0.036093287 0.051913504 -0.0952669 0.04824719
0.019409874 0.0011781587 0.004282891 0.10322823 0.0494428 0.010592605 0.03771341 0.0306326
0.013445188 0.03836393 0.056273967 -0.09004343 0.07711222 -0.032328673 0.06479054 0.016890785
-0.0013789943
00000000: 8025 083d 866f d9b9 049b 173d d20a c93c
00000010: cf1c 773c 23e3 c1ba 3b51 523c cdeb 903d
00000020: faa7 883d 0fd3 883d aa08 1d3d 5815 083d
00000030: 8ed6 133d 41a3 543d 4b1b c3bd d89e 453d
00000040: 7501 9f3c 726c 9a3a 7e57 8c3b 5269 d33d
00000050: 8984 4a3d 9b8c 2d3c 6079 1a3d 38f1 fa3c
00000060: 3549 5c3c 7f23 1d3d 887f 663d b168 b8bd
00000070: 03ed 9d3d 126b 04bd e7b0 843d 8b5e 8a3c
00000080: 5fbf b4ba

tcn_layers.0.tcnblock.network.1.conv1.weight_g f4 [33, 1, 1]
0.69075394 0.76525396 0.626095 0.6737361 0.850401 0.7163279 0.7849251 0.6726404
0.750406 0.6698454 0.6133982 0.66572225 0.7966259 0.8262272 0.78616303 0.7103852
0.6334441 0.7267741 0.83677423 0.69852054 0.76105756 0.7848113 0.6347181 0.6542157
0.78699154 0.6390578 0.67763156 0.7122838 0.63794833 0.8147108 0.78521985 0.83799887
0.64556307
00000000: 40d5 303f afe7 433f c347 203f f879 2c3f
00000010: e1b3 593f 4461 373f daf0 483f 2932 2c3f
00000020: 9c1a 403f fd7a 2b3f aa07 1d3f c66c 2a3f
00000030: adef 4b3f a083 533f fb41 493f cedb 353f
00000040: 6429 223f de0d 3a3f d636 563f 3ed2 323f
00000050: abd4 423f 65e9 483f e37c 223f ae7a 273f
00000060: 4778 493f 4b99 233f 4379 2d3f 3b58 363f
00000070: 9550 233f e390 503f 2b04 493f 1887 563f
00000080: 9f43 253f

tcn_layers.0.tcnblock.network.1.conv1.weight_v f4 [33, 11, 3]
0.18022272 -0.002405719 -0.035021644 -0.13518608 -0.11500537 -0.10939835 0.025020814 0.10878596
0.15468976 -0.07555532 0.09068573 0.07787179 0.21938941 0.15802133 0.020366255 0.17426103
0.10523656 0.09159859 0.16693546 -0.08669751 0.07734913 0.12060587 -0.041029245 -0.10991963
0.18830256 -0.058091577 -0.08832906 -0.0066853086 -0.08324764 -0.15412281 0.16880497 0.0068791113
0.16706753 -0.06983264 0.056816194 0.106675245 0.012578169 0.16614659 0.10561115 0.02972021
-0.027155725 -0.024965929 -0.15348192 -0.09443394 -0.029250445 -0.101525135 -0.13976431 -0.13520172
-0.044351425 -0.03221791 -0.04310001 -0.061983768 0.075337715 0.07470988 -0.028854301 0.12038391
-0.04549262 0.10222983 -0.044356562 -0.027906999 0.03189816 0.11198989 0.0049132803 -0.118836656
-0.116257384 -0.1103839 0.16204646 0.07184071 0.1391622 0.18391953 0.038919695 0.11517045
0.06304377 0.07764155 0.032677393 0.02638353 -0.06905045 0.03550187 -0.20974286 -0.004666962
-0.0379818 -0.10664473 -0.10671474 -0.08938476 0.15411496 0.0057295565 -0.025454275 -0.034262523
-0.08501971 -0.09311485 -0.03568024 -0.048216987 0.08124066 -0.014350674 -0.061209124 0.076725304
-0.012237634 -0.051567186 0.008402719 0.10495336 0.06677485 0.12065278 -0.07653475 -0.0023677603
-0.030990485 0.08140697 0.0367012 -0.034126747 -0.016428566 -0.0056397566 -0.106382325 -0.17346744
-0.17840965 0.0583961 0.15731438 0.124177225 0.03710373 0.07716549 0.12343927 0.11062778
-0.15685117 -0.10619173 0.003992933 0.128968 -0.11149545 -0.06560219 0.010808402 -0.10334961
0.011917853 0.16898814 0.0803288 0.11270259 -0.07360935 0.08677092 0.013672029 -0.040579922
-0.047783583 0.059261452 -0.06156495 -0.06727708 -0.059580524 0.13755333 0.033492565 0.10205344
-0.1440962 -0.0063155955 0.026679644 -0.07660677 -0.0695519 -0.019606398 -0.09903461 -0.12013161
-0.23312888 -0.12600179 -0.14214794 -0.2320311 -0.104617804 0.029706186 0.057870843 0.040796403
0.03556751 0.09461299 -0.059867784 -0.017208107 0.004767719 0.18016468 0.16665676 0.04823064
0.09890026 0.095129706 0.16315928 -0.0155829135 -0.08904962 -0.0070223697 -0.16027324 0.033905946
-0.10549096 0.020304913 0.04466419 0.06303845 -0.13791008 -0.12927872 -0.12933359 0.022310464
0.07746211 -0.17496553 0.059894152 0.13653302 -0.1706007 0.018536095 -0.15088099 0.1454917
-0.023723865 0.20264076 0.15815689 -0.0730435 -0.096273854 0.03290058 -0.023414351 0.07893237
0.057364754 0.009744862 -0.007865237 -0.03202909 -0.080264956 -0.11326719 -0.032412898 0.1874394
0.1704845 0.15802 0.0567655 0.015251498 0.0068448735 -0.17015097 -0.11706494 -0.014615758
-0.09726132 -0.074666515 -0.18455894 -0.1988111 -0.16815385 -0.21294625 0.050820906 -0.14203775
-0.121770196 -0.08859224 0.073290564 0.13625494 0.06696342 0.12341427 0.08487211 0.03347249
0.18170008 0.22170085 -0.020407038 -0.058555398 -0.030827112 -0.040952392 -0.009179836 -0.01845467
0.21488951 0.09359864 0.111837626 0.027849218 0.08363296 -0.06534973 -0.009663612 -0.092039734
-0.11794531 0.042826068 -0.15893792 -0.05680918 0.18826883 -0.06493433 0.107553735 -0.13499519
00000000: 4e8c 383e 44a9 1dbb db72 0fbd 386e 0abe
00000010: ef87 ebbd 3e0c e0bd 73f8 cc3c 2ccb de3d
00000020: fe66 1e3e bfbc 9abd 71b9 b93d 3f7b 9f3d
00000030: 9ea7 603e 58d0 213e 22d7 a63c 7c71 323e
00000040: 4486 d73d 0b98 bb3d 21f1 2a3e 778e b1bd
00000050: 3869 9e3d 3600 f73d 480e 28bd 8b1d e1bd
00000060: 63d2 403e 6ff1 6dbd dee5 b4bd 6f10 dbbb
00000070: bd7d aabd 5fd2 1dbe 36db 2c3e 2b6a e13b
00000080: c013 2b3e 6a04 8fbd 19b8 683d 8d78 da3d
00000090: aa14 4e3c 5522 2a3e a94a d83d cc77 f33c
000000a0: af75 debc 5985 ccbc 5d2a 1dbe 9566 c1bd
000000b0: a19e efbc 69ec cfbd 601e 0fbe 5272 0abe
000000c0: d7a9 35bd edf6 03bd a389 30bd b1e2 7dbd
000000d0: a94a 9a3d 7e01 993d db5f ecbc d78b f63d
000000e0: 7856 3abd e05d d13d 3aaf 35bd 389d e4bc
000000f0: a5a7 023d f55a e53d 95ff a03b a260 f3bd
00000100: 5a18 eebd f410 e2bd 82ef 253e 3921 933d
00000110: 8980 0e3e 6755 3c3e 426a 1f3d 7cde eb3d
00000120: 181d 813d 8802 9f3d bbd8 053d 4622 d83c
00000130: 536a 8dbd 696a 113d d5c6 56be 51ed 98bb
00000140: ce92 1bbd 8d68 dabd 428d dabd 5b0f b7bd
00000150: 50d0 1d3e 01bf bb3b 7c85 d0bc dc56 0cbd
00000160: d01e aebd 00b3 bebd 7125 12bd 2d7f 45bd
00000170: 8161 a63d 171f 6bbc 6bb6 7abd 2822 9d3d
00000180: 5b80 48bc 1d38 53bd 8fab 093c caf1 d63d
00000190: 41c1 883d ce18 f73d 40be 9cbd 6d2c 1bbb
000001a0: c2df fdbc b3b8 a63d ff53 163d 7dc8 0bbd
000001b0: 3395 86bc b5cd b8bb fade d9bd 73a1 31be
000001c0: 05b1 36be c030 6f3d 0517 213e a150 fe3d
000001d0: 15fa 173d f108 9e3d bacd fc3d d190 e23d
000001e0: 989d 20be 0d7b d9bd 26d7 823b 3010 043e
000001f0: ba57 e4bd 715a 86bd b915 313c f6a8 d3bd
00000200: 1943 433c 3a0b 2d3e 6d83 a43d 9ed0 e63d
00000210: 80c0 96bd f4b4 b13d a500 603c 2237 26bd
00000220: b8b8 43bd 23bc 723d 872b 7cbd 91c8 89bd
00000230: b50a 74bd c8da 0c3e 802f 093d 6501 d13d
00000240: f48d 13be 0ef3 cebb 458f da3c 03e4 9cbd
00000250: 3a71 8ebd 999d a0bc a8d2 cabd 9007 f6bd
00000260: 56b9 6ebe 9d06 01be 3b8f 11be 9099 6dbe
00000270: dc41 d6bd 635a f33c fa09 6d3d 211a 273d
00000280: 3daf 113d 75c4 c13d ec37 75bd 04f8 8cbc
00000290: 873a 9c3b 177d 383e 12a8 2a3e 7e8d 453d
000002a0: 388c ca3d 5dd3 c23d 3a13 273e 7a4f 7fbc
000002b0: a65f b6bd e81b e6bb ab1e 24be f6e0 0a3d
000002c0: a50b d8bd 7d56 a63c ccf1 363d 4e1a 813d
000002d0: 4d38 0dbe a461 04be 0670 04be 6fc4 b63c
000002e0: 74a4 9e3d 2a2a 33be 9253 753d 50cf 0b3e
000002f0: f3b1 2ebe 02d9 973c 8c80 1abe c7fb 143e
00000300: 8d58 c2bc 0f81 4f3e e1f3 213e d597 95bd
00000310: 3a2b c5bd c2c2 063d 74cf bfbc 4ba7 a13d
00000320: 4ef7 6a3d eaa8 1f3c 32dd 00bc ef30 03bd
00000330: f461 a4bd a1f8 e7bd 63c3 04bd 1df0 3f3e
00000340: 7d93 2e3e ffcf 213e f182 683d 6be1 793c
00000350: f64a e03b 0e3c 2ebe bebf efbd ef76 6fbc
00000360: f130 c7bd c2ea 98bd 05fd 3cbe 2395 4bbe
00000370: 8630 2cbe 950e 5abe 9529 503d 5872 11be
00000380: a762 f9bd d96f b5bd 5d19 963d 6a86 0b3e
00000390: 1e24 893d 9fc0 fc3d 6ed1 ad3d 731a 093d
000003a0: 960f 3a3e 8c05 633e a92c a7bc c9d7 6fbd
000003b0: 2489 fcbc b2bd 27bd 0667 16bc 402e 97bc
000003c0: ff0b 5c3e a5b0 bf3d 200b e53d 0b24 e43c
000003d0: c247 ab3d 14d6 85bd 2054 1ebc 547f bcbd
000003e0: 508d f1bd 636a 2f3d 9fc0 22be beb0 68bd
000003f0: 8bc9 403e 4afc 84bd 2245 dc3d 2e3c 0abe

tcn_layers.0.tcnblock.network.1.conv2.bias f4 [33]
0.07636241 0.027691968 0.064307384 0.066482894 0.011076963 0.08350963 -0.03353855 0.04421131
-0.0058276565 -0.00041531114 0.02013113 0.03794381 0.109257296 0.08870539 -0.0020895186 0.07304092
-0.06595639 0.01741088 0.011069942 0.08264434 -0.118051015 -0.05310825 0.0094750365 0.06734061
0.023208288 0.0036987185 0.08341192 0.045265242 -0.00075440883 0.07167186 0.016997838 -0.01800145
0.019926285
00000000: e563 9c3d 44da e23c 97b3 833d 2f28 883d
00000010: 267c 353c 1907 ab3d b85f 09bd eb16 353d
00000020: edf5 bebb 1ebe d9b9 0aea a43c f86a 1b3d
00000030: 4ac2 df3d 2cab b53d 4ef0 08bb 7a96 953d
00000040: 2514 87bd 43a1 8e3c b45e 353c 7041 a93d
00000050: bbc4 f1bd 0988 59bd 2f3d 1b3c e0e9 893d
00000060: 4f1f be3c 3366 723b ded3 aa3d 0c68 393d
00000070: 85c3 45ba b2c8 923d 0d3f 8b3c c777 93bc
00000080: 733c a33c

tcn_layers.0.tcnblock.network.1.conv2.weight_g f4 [33, 1, 1]
0.74456155 0.70373243 0.6500508 0.6724638 0.6825194 0.6998278 0.66933155 0.7647125
0.6830419 0.7051222 0.7517185 0.6778624 0.837527 0.6696062 0.20196491 0.5660378
0.6408293 0.68310875 0.76223266 0.720216 0.58067596 0.80899054 0.605435 0.857122
0.5710387 0.7175385 0.6635581 0.75479466 0.76479524 0.6791979 0.70056707 0.6062717
0.64107215
00000000: 969b 3e3f cf27 343f bb69 263f 9626 2c3f
00000010: 97b9 2e3f ea27 333f 5059 2b3f 33c4 433f
00000020: d5db 2e3f e382 343f a070 403f 6488 2d3f
00000030: 2b68 563f 506b 2b3f e4cf 4e3e dae7 103f
00000040: 640d 243f 37e0 2e3f ae21 433f 1360 383f
00000050: 2ea7 143f 011a 4f3f cafd 1a3f 596c 5b3f
00000060: 982f 123f 9ab0 373f f2de 293f 393a 413f
00000070: 9fc9 433f eadf 2d3f 5d58 333f 9f34 1b3f
00000080: 4e1d 243f

tcn_layers.0.tcnblock.network.1.conv2.weight_v f4 [33, 33, 3]
0.05349892 0.015596555 -0.06119683 -0.16200788 -0.13319711 -0.12210668 -0.022730317 -0.053181168
-0.0823659 -0.12241452 -0.15394078 -0.12034872 -0.054876395 -0.058505256 -0.14618023 0.005278456
-0.044141755 -0.103697896 -0.063981764 -0.053369403 -0.034611862 0.10479836 -0.037742145 0.10834253
0.048769046 -0.07313692 -0.048251938 0.024023287 0.04124073 -0.036967773 0.014943375 -0.03957297
0.04421953 0.06447437 0.041228786 -0.02270963 0.04112187 0.0021240665 0.015916027 -0.011973138
0.00981901 0.02887791 0.063812494 0.028471595 -0.07097754 0.04532774 -0.022313045 -0.0034014776
0.082394995 -0.047656186 -0.05387015 0.04124886 0.003330995 -0.06338513 -0.0714557 -0.01987595
-0.114643894 0.06291481 0.07028119 0.082959406 0.01214522 -0.03617676 -0.066409454 0.040296856
-0.04077569 -0.12690243 0.07851339 0.055847984 -0.0015684762 -0.012797458 -0.038805008 -0.06233297
0.07838514 -0.021662038 0.03370454 -0.040032215 0.045394912 0.003668578 0.050888084 0.034617957
0.09524951 0.08507793 0.01887994 0.09162073 0.08068265 0.0804948 0.015861347 -0.066251114
-0.03948798 -0.071083166 -0.028415838 0.045277745 0.10494067 -0.08649508 -0.07124362 -0.058416896
0.048742823 -0.0333181 -0.02019716 0.033062275 -0.0008422564 -0.04275038 -0.06616825 -0.07825867
-0.05548663 -0.041066602 -0.009960581 -0.085732296 -0.06243963 -0.042304106 -0.07945624 -0.028652763
-0.08201377 -0.07471442 0.044324737 0.061071858 0.04342332 -0.08580566 -0.033195607 0.0229314
0.09029131 -0.0015475425 -0.0087931175 -0.0037505927 0.00041031063 0.031588063 -0.014701967 -0.032338314
0.0269531 0.0051267776 -0.050880536 -0.077630974 0.056337267 0.004589225 0.017326705 0.0019692453
-0.009876055 0.008539506 -0.009826624 0.06826746 0.074816525 -0.07382068 -0.031874713 -0.02311265
0.05654111 0.13904044 0.024481667 -0.04980501 -0.021313464 -0.005941766 -0.015151582 -0.019705247
-0.03058477 -0.09818056 -0.04461884 -0.103060156 0.10145638 0.043423217 0.0807164 0.14086623
0.11943112 0.10773379 0.012488816 0.023102917 0.026017414 0.018014291 -0.011767576 -0.07905011
0.09121699 0.01240543 0.07869477 0.06294892 0.011880565 -0.0052770567 0.09021304 0.0009411378
0.082012944 0.031753242 0.056168675 0.03303761 -0.058286674 -0.044640847 -0.07002774 0.08962798
-0.010744852 -0.01521955 -0.09434273 -0.07989747 -0.090561844 -0.0527057 -0.03957748 0.041118126
-0.06360705 -0.04825423 -0.08226675 -0.025960406 0.017545834 -0.036695767 -0.03848764 -0.0141129345
0.064995095 0.026601294 -0.028835658 -0.019877985 0.12232368 0.02924779 -0.010377611 -0.039380584
0.02384318 -0.02841014 0.1753438 0.0688752 -0.033338185 0.012834344 -0.028238202 0.039282598
-0.009769131 0.06881158 -0.040373497 0.09577309 0.025726037 -0.03415281 0.12303971 0.018845143
0.0814458 0.13213986 0.14046708 -0.044105437 -0.013399149 -0.0049318033 -0.020239173 -0.0038814473
0.029344419 -0.0005350161 0.05797553 0.1776267 0.05682484 -0.0860404 -0.065007165 0.005131141
-0.16528428 -0.12508738 -0.023777034 -0.017514667 -0.10019019 0.02712052 0.028915029 0.066679515
-0.012391654 -0.009848394 -0.026909167 -0.05505477 0.19484106 -0.046623312 0.09184969 0.046515338
00000000: af21 5b3d b188 7f3c 87a9 7abd 65e5 25be
00000010: d364 08be 1113 fabd ee34 babc 7fd4 59bd
00000020: 74af a8bd 77b4 fabd a7a2 1dbe 6479 f6bd
00000030: 12c6 60bd 35a3 6fbd 45b0 15be e6f6 ac3b
00000040: fccd 34bd 905f d4bd df08 83bd e099 5abd
00000050: 2bc5 0dbd 86a0 d63d 8297 1abd b0e2 dd3d
00000060: 0dc2 473d cfc8 95bd d3a3 45bd 7ccc c43c
00000070: 0aec 283d 856b 17bd 0fd5 743c 4417 22bd
00000080: 8a1f 353d 230b 843d 84df 283d 8c09 babc
00000090: 686f 283d ec33 0b3b 5462 823c fb2a 44bc
000000a0: eadf 203c 5e91 ec3c 20b0 823d 433d e93c
000000b0: ac5c 91bd 95a9 393d d9c9 b6bc 53eb 5ebb
000000c0: b5be a83d 2233 43bd f2a6 5cbd 91f4 283d
000000d0: d34c 5a3b 10d0 81bd 5e57 92bd e3d2 a2bc
000000e0: 6bca eabd 7bd9 803d 96ef 8f3d 9fe6 a93d
000000f0: bffc 463c 152e 14bd ae01 88bd 510e 253d
00000100: 6904 27bd b6f2 01be a1cb a03d dbc0 643d
00000110: 5495 cdba 6eac 51bc 00f2 1ebd db50 7fbd
00000120: 6388 a03d 9674 b1bc c60d 0a3d d2f8 23bd
00000130: 04f0 393d 876c 703b 0670 503d 8fcb 0d3d
00000140: 2d12 c33d 563d ae3d 1baa 9a3c a6a3 bb3d
00000150: f23c a53d 75da a43d a8ef 813c aaae 87bd
00000160: 26be 21bd 0d94 91bd 55c8 e8bc 2875 393d
00000170: 22eb d63d 5524 b1bd 2de8 91bd 8e46 6fbd
00000180: 8ea6 473d 8f78 08bd 8474 a5bc 4f6c 073d
00000190: dfca 5cba 061b 2fbd 3883 87bd 1546 a0bd
000001a0: f345 63bd 7435 28bd b431 23bc 6a94 afbd
000001b0: b3c0 7fbd 1247 2dbd f4b9 a2bd 33b9 eabc
000001c0: d6f6 a7bd e003 99bd db8d 353d 7c26 7a3d
000001d0: a7dc 313d e1ba afbd 1ef8 07bd a2da bb3c
000001e0: a6ea b83d e9d6 caba 0211 10bc 81cc 75bb
000001f0: f61e d739 7c62 013d 85e0 70bc 2e75 04bd
00000200: bfcc dc3c 87fe a73b 1c68 50bd fdfc 9ebd
00000210: e8c1 663d 3661 963b bcf0 8d3c 740e 013b
00000220: 2dcf 21bc 49e9 0b3c d9ff 20bc cfcf 8b3d
00000230: 6839 993d 4c2f 97bd 0f8f 02bd bd56 bdbc
00000240: a797 673d 9e60 0e3e c78d c83c 5700 4cbd
00000250: 9399 aebc 25b3 c2bb 573e 78bc e66c a1bc
00000260: e98c fabc e412 c9bd 3fc2 36bd 3411 d3bd
00000270: 5dc8 cf3d 8bdc 313d a44e a53d 3d3f 103e
00000280: 4e98 f43d 89a3 dc3d e49d 4c3c 5442 bd3c
00000290: 7922 d53c b592 933c cbcc 40bc 06e5 a1bd
000002a0: f9cf ba3d 2540 4b3c b92a a13d 5deb 803d
000002b0: b4a6 423c 29eb acbb 9dc1 b83d b0b6 763a
000002c0: 67f6 a73d b00f 023d 2011 663d 7252 073d
000002d0: 02be 6ebd 52d9 36bd b46a 8fbd e08e b73d
000002e0: 2d0b 30bc 6b5b 79bc c336 c1bd 49a1 a3bd
000002f0: 7d78 b9bd efe1 57bd ff1b 22bd 7b6b 283d
00000300: 6a44 82bd 3aa6 45bd 787b a8bd ebaa d4bc
00000310: 48bc 8f3c 4d4e 16bd 37a5 1dbd f039 67bc
00000320: 261c 853d f5ea d93c c238 ecbc 28d7 a2bc
00000330: d684 fa3d 1099 ef3c db06 2abc 894d 21bd
00000340: c652 c33c 62bc e8bc 538d 333e 710e 8d3d
00000350: 9f8d 08bd 2447 523c cd53 e7bc cae6 203d
00000360: b50e 20bc 16ed 8c3d ae5e 25bd af24 c43d
00000370: 69bf d23c d1e3 0bbd 3efc fb3d 2161 9a3c
00000380: 0ecd a63d ac4f 073e 9ad6 0f3e e7a7 34bd
00000390: 1b88 5bbc f79a a1bb 9fcc a5bc e15f 7ebb
000003a0: b563 f03c 5340 0cba c077 6d3d c6e3 353e
000003b0: 2ac1 683d f335 b0bd 7a22 85bd 2123 a83b
000003c0: 4840 29be e816 00be 0ec8 c2bc eb7a 8fbc
000003d0: 8430 cdbd da2b de3c 36df ec3c 458f 883d
000003e0: 5d06 4bbc 295b 21bc 9d70 dcbc 1c81 61bd
000003f0: 6a84 473e 16f8 3ebd b11b bc3d de86 3e3d

tcn_layers.0.tcnblock.network.1.net.0.bias f4 [33]
0.033238888 -0.00041472557 0.03701307 0.024541292 0.015082552 -0.0014792423 0.01283675 0.070762254
0.06672664 0.06680881 0.03833834 0.03322348 0.036093287 0.051913504 -0.0952669 0.04824719
0.019409874 0.0011781587 0.004282891 0.10322823 0.0494428 0.010592605 0.03771341 0.0306326
0.013445188 0.03836393 0.056273967 -0.09004343 0.07711222 -0.032328673 0.06479054 0.016890785
-0.0013789943
00000000: 8025 083d 866f d9b9 049b 173d d20a c93c
00000010: cf1c 773c 23e3 c1ba 3b51 523c cdeb 903d
00000020: faa7 883d 0fd3 883d aa08 1d3d 5815 083d
00000030: 8ed6 133d 41a3 543d 4b1b c3bd d89e 453d
00000040: 7501 9f3c 726c 9a3a 7e57 8c3b 5269 d33d
00000050: 8984 4a3d 9b8c 2d3c 6079 1a3d 38f1 fa3c
00000060: 3549 5c3c 7f23 1d3d 887f 663d b168 b8bd
00000070: 03ed 9d3d 126b 04bd e7b0 843d 8b5e 8a3c
00000080: 5fbf b4ba

tcn_layers.0.tcnblock.network.1.net.0.weight_g f4 [33, 1, 1]
0.69075394 0.76525396 0.626095 0.6737361 0.850401 0.7163279 0.7849251 0.6726404
0.750406 0.6698454 0.6133982 0.66572225 0.7966259 0.8262272 0.78616303 0.7103852
0.6334441 0.7267741 0.83677423 0.69852054 0.76105756 0.7848113 0.6347181 0.6542157
0.78699154 0.6390578 0.67763156 0.7122838 0.63794833 0.8147108 0.78521985 0.83799887
0.64556307
00000000: 40d5 303f afe7 433f c347 203f f879 2c3f
00000010: e1b3 593f 4461 373f daf0 483f 2932 2c3f
00000020: 9c1a 403f fd7a 2b3f aa07 1d3f c66c 2a3f
00000030: adef 4b3f a083 533f fb41 493f cedb 353f
00000040: 6429 223f de0d 3a3f d636 563f 3ed2 323f
00000050: abd4 423f 65e9 483f e37c 223f ae7a 273f
00000060: 4778 493f 4b99 233f 4379 2d3f 3b58 363f
00000070: 9550 233f e390 503f 2b04 493f 1887 563f
00000080: 9f43 253f
