firstgood.pt (torch, 119892 bytes, 88 tensors)

tcn_layers.0.tcnblock.network.0.conv1.bias f4 [11]
0.0065492713 0.02372248 -0.07731967 0.022389662 -0.0007703426 -0.089710295 0.05957535 0.011985574
0.04537723 0.040086843 -0.05704704
00000000: 459b d63b a555 c23c c659 9ebd 866a b73c
00000010: d1f0 49ba 08ba b7bd 4805 743d 245f 443c
00000020: 79dd 393d 1a32 243d 28aa 69bd

tcn_layers.0.tcnblock.network.0.conv1.weight_g f4 [11, 1, 1]
0.6187417 0.663645 0.47588065 0.7232524 0.46664947 0.7614651 0.61530906 0.63771385
0.674094 0.5400062 0.5535122
00000000: db65 1e3f a4e4 293f a1a6 f33e 1227 393f
00000010: aeec ee3e 60ef 423f e584 1d3f 3741 233f
00000020: 6d91 2c3f d93d 0a3f fab2 0d3f

tcn_layers.0.tcnblock.network.0.conv1.weight_v f4 [11, 11, 2]
-0.03866401 -0.086139716 0.0042567267 0.06872465 0.074023776 -0.2594316 0.044057418 0.05765605
-0.03169976 0.22315444 0.14005317 -0.14774321 0.04037045 0.1294668 -0.0050227586 0.07202246
0.054380845 0.19579826 0.12662388 -0.1987444 -0.16946365 0.050914824 -0.113940045 -0.14151502
-0.20624933 -0.14923486 -0.04703518 0.23955561 0.053492602 -0.10205269 0.11943441 0.09147337
-0.065630026 -0.1851892 0.15716891 -0.050906092 -0.23586248 -0.23196876 -0.1323357 0.09614687
0.13729042 0.23402348 0.13054541 0.19527227 0.07953206 -0.028666845 0.03939281 -0.03793048
0.032411877 0.0031384502 -0.34699222 -0.28937015 -0.10685064 -0.029976927 0.018928107 -0.11821664
-0.07934666 0.046041794 -0.10850439 0.17159945 0.080634825 -0.1013666 -0.22817016 0.08207502
-0.16219121 -0.005989902 -0.04456172 0.12501237 -0.10443712 0.080796726 -0.16465166 0.104277894
-0.20774576 0.14988461 -0.29506767 -0.074189596 0.10263486 0.028182548 0.07998409 -0.17376581
0.23189272 0.16548719 0.070409186 -0.055126585 -0.0290017 -0.053950608 0.004885323 -0.07561509
0.025933703 0.11894904 0.013750612 0.0067849853 -0.25910208 0.026007907 -0.0063946354 0.07690546
-0.06119658 -0.017327577 -0.10894359 -0.12377499 0.016685888 0.15669093 -0.076440044 0.12759236
-0.07750174 0.060576916 -0.015452506 0.10436721 -0.0272822 -0.28298253 0.04397598 -0.3080619
-0.112262934 -0.058715165 -0.03404018 0.14427453 0.17029966 0.17970717 -0.21195444 0.018336773
-0.011987349 0.19887045 0.13258086 -0.026794836 0.01984665 -0.019312842 0.010609056 0.079027034
-0.099083945 -0.14993812 0.16872552 0.19462095 -0.13626571 0.099015854 0.04907538 0.08963311
-0.00824446 -0.13463235 0.09177158 0.12730731 0.15846945 -0.17154612 0.12867938 -0.06369345
-0.09283428 0.23396534 0.102501705 0.021122212 -0.17802112 -0.18578441 0.16080064 -0.064303204
-0.043232244 -0.028757952 -0.11401832 0.15070572 0.06991439 0.016748145 0.0634948 0.123968765
-0.14874528 -0.078910224 -0.110418454 0.040557835 -0.2125018 0.013818035 -0.15457846 -0.24880183
-0.045400437 -0.10479396 0.0404838 0.11760921 0.03309924 0.20448512 0.17764066 0.21874262
-0.15664697 -0.12237516 -0.11190879 -0.12270964 0.16287322 -0.28851256 0.11526978 0.099741854
0.1825737 0.016985826 -0.14684466 -0.21056303 0.021102395 0.2134694 0.1571141 0.089083925
0.14206316 -0.18044616 -0.151161 0.025855927 0.17989278 0.01328119 -0.012854642 0.08349488
-0.09828557 0.06660009 0.16687927 -0.15180883 0.04856808 0.0017989292 -0.113093816 -0.19388263
-0.035516627 -0.13124599 -0.076025024 -0.23636606 0.0029914656 0.0005835773 -0.14063601 0.021990199
-0.08645623 -0.023856672 -0.055358335 0.017877132 -0.17765902 -0.082593136 -0.22098398 -0.155122
0.03953818 -0.058942907 -0.15421118 -0.18779776 0.07297538 0.022221318 0.21458305 0.02206162
0.1317476 0.09225298 0.123414576 -0.06225723 -0.00827575 -0.036650103 0.028542144 -0.14698222
-0.07228303 0.0015152043
00000000: 275e 1ebd 056a b0bd 037c 8b3b 82bf 8c3d
00000010: c799 973d 38d4 84be 8d75 343d c028 6c3d
00000020: 9cd7 01bd 9982 643e 196a 0f3e ff49 17be
00000030: 7c5b 253d f292 043e f495 a4bb 8380 933d
00000040: 73be 5e3d 577f 483e b1a9 013e a783 4bbe
00000050: e187 2dbe 108c 503d 6659 e9bd 50e9 10be
00000060: 0633 53be 06d1 18be f6a7 40bd 114e 753e
00000070: 0f1b 5b3d 0001 d1bd 079a f43d 6456 bb3d
00000080: 0969 86bd 3da2 3dbe e3f0 203e e882 50bd
00000090: ef85 71be 3889 6dbe 0283 07be a6e8 c43d
000000a0: dc95 0c3e daa3 6f3e b2ad 053e 74f5 473e
000000b0: b4e1 a23d bbd6 eabc 5b5a 213d fe5c 1bbd
000000c0: 51c2 043d 75ae 4d3b f7a8 b1be 5328 94be
000000d0: 82d4 dabd 2c92 f5bc 1e0f 9b3c 911b f2bd
000000e0: 8080 a2bd 5296 3c3d 8d37 debd c4b7 2f3e
000000f0: df23 a53d 4b99 cfbd 70a5 69be f316 a83d
00000100: 7415 26be f146 c4bb 5a86 36bd 3e03 003e
00000110: 21e3 d5bd c178 a53d 729a 28be a68f d53d
00000120: 4ebb 54be 5a7b 193e 1c13 97be b7f0 97bd
00000130: 3a32 d23d 16df e63c b3ce a33d aaef 31be
00000140: 4975 6d3e 7975 293e b132 903d 6acc 61bd
00000150: f994 edbc 50fb 5cbd 0f15 a03b 16dc 9abd
00000160: eb72 d43c 8e9b f33d 3f4a 613c 9554 de3b
00000170: 07a9 84be 890e d53c 178a d1bb 9c80 9d3d
00000180: 44a9 7abd 90f2 8dbc d11d dfbd be7d fdbd
00000190: d8b0 883c 9673 203e 998c 9cbd 92a7 023e
000001a0: 3bb9 9ebd 801f 783d 822c 7dbc 7abe d53d
000001b0: ec7e dfbc 16e3 90be 2820 343d 4aba 9dbe
000001c0: 1cea e5bd 507f 70bd b76d 0bbd b4bc 133e
000001d0: 0963 2e3e 2805 383e 960a 59be 0037 963c
000001e0: 9666 44bc b2a4 4b3e 47c3 073e d880 dbbc
000001f0: 7195 a23c f735 9ebc 9bd1 2d3c edd8 a13d
00000200: 86ec cabd 6189 19be 62c6 2c3e b74a 473e
00000210: 3d89 0bbe d3c8 ca3d 4403 493d 9091 b73d
00000220: c613 07bc 10dd 09be bdf2 bb3d d95c 023e
00000230: d145 223e c9a9 2fbe 87c4 033e b671 82bd
00000240: e61f bebd 9c94 6f3e 6aec d13d 7d08 ad3c
00000250: 2b4b 36be 453e 3ebe eca8 243e 66b1 83bd
00000260: 4b14 31bd cc95 ebbc 7082 e9bd 9a52 1a3e
00000270: 472f 8f3d 6833 893c 9009 823d 56e3 fd3d
00000280: af50 18be af9b a1bd 1223 e2bd f91f 263d
00000290: 129a 59be 0a65 623c d149 1ebe e8c5 7ebe
000002a0: cff5 39bd 379e d6bd 57d2 253d 19dd f03d
000002b0: 1293 073d 8c64 513e 6fe7 353e 11fe 5f3e
000002c0: 1068 20be d49f fabd 7030 e5bd 314f fbbd
000002d0: 3dc8 263e ebb7 93be 9012 ec3d 7545 cc3d
000002e0: 9af4 3a3e dc25 8b3c 725e 16be d69d 57be
000002f0: eede ac3c b997 5a3e 85e2 203e a271 b63d
00000300: 0179 113e e1c6 38be f3c9 1abe cfcf d33c
00000310: d035 383e 5999 593c 479c 52bc 5dff aa3d
00000320: f249 c9bd a165 883d 66e2 2a3e c673 1bbe
00000330: 53ef 463d 0cca eb3a bb9d e7bd 2b89 46be
00000340: e279 11bd 5965 06be 02b3 9bbd f209 72be
00000350: 770c 443b 36fb 183a e302 10be ca24 b43c
00000360: f70f b1bd 116f c3bc 6cbf 62bd 1073 923c
00000370: 3fec 35be 9726 a9bd a049 62be 4dd8 1ebe
00000380: c9f2 213d 1e6e 71bd 89e9 1dbe 0e4e 40be
00000390: 1e74 953d 7b09 b63c a9bb 5b3e 92ba b43c
000003a0: d8e8 063e 21ef bc3d c8c0 fc3d 7001 7fbd
000003b0: 0397 07bc 6b1e 16bd 37d1 e93c 8282 16be
000003c0: 2009 94bd d299 c63a

tcn_layers.0.tcnblock.network.0.conv2.bias f4 [11]
0.06709601 0.004370851 0.07711265 0.019191591 0.13804267 0.12432496 0.0669592 0.048980918
-0.08243598 0.082474135 0.11763344
00000000: a269 893d 5b39 8f3b 3ded 9d3d af37 9d3c
00000010: 0f5b 0d3e 169e fe3d e821 893d 37a0 483d
00000020: 32d4 a8bd 33e8 a83d cde9 f03d

tcn_layers.0.tcnblock.network.0.conv2.weight_g f4 [11, 1, 1]
0.59380615 0.5075195 0.61844695 0.66557586 0.5402202 0.64701784 0.62639934 0.5218856
0.60394824 0.5652036 0.5519547
00000000: ae03 183f ccec 013f 8a52 1e3f 2e63 2a3f
00000010: df4b 0a3f f6a2 253f b55b 203f 4b9a 053f
00000020: 5a9c 1a3f 2fb1 103f e74c 0d3f

tcn_layers.0.tcnblock.network.0.conv2.weight_v f4 [11, 11, 2]
0.17652549 0.22970039 0.06004036 0.066829726 -0.12312779 -0.04396224 0.14175156 0.23965666
-0.13479862 0.2545988 -0.056880474 -0.26379308 0.08300303 0.10376434 0.11973405 0.043325085
-0.062243264 0.15553464 0.03322352 0.055846315 0.08767039 0.15383402 -0.08622271 -0.07765269
-0.044763457 -0.17085798 -0.035004526 0.14537725 -0.16977258 0.018794259 -0.04324156 -0.1264345
0.054069337 0.006257116 0.015456308 -0.041550916 -0.19194162 0.1557705 0.041320883 -0.06486056
-0.054429892 0.21657322 0.17766699 -0.014417406 -0.09720866 0.103323184 0.0024753937 -0.089815274
0.07229988 -0.06265787 -0.07347503 -0.091268264 -0.13409163 0.025413798 -0.11826695 -0.0099510895
0.21628402 -0.10903073 -0.048753902 -0.082863845 0.02646214 0.06988046 0.07388759 -0.12913604
-0.08163048 0.05789579 0.23261952 -0.061964326 -0.087584995 -0.16922332 0.111878276 -0.020978568
-0.17060809 -0.1280667 0.09319164 0.12685524 -0.046440393 -0.24323775 -0.03351153 -0.16431497
-0.10113323 0.21018068 -0.041960463 -0.1458239 0.107007526 0.081330135 -0.08383701 -0.19528182
-0.03392934 0.017351683 0.17180173 0.031155571 -0.07313326 -0.20507714 -0.1326711 -0.19249636
0.019434903 -0.075746164 -0.0069109392 0.11268069 -0.01809 0.07058499 0.059290376 0.22199269
-0.06252585 -0.07888487 0.14343604 0.13077062 -0.17867757 -0.064082086 -0.027730508 0.15993702
-0.053486325 0.08445198 0.06540597 0.023588544 -0.037423797 0.031324953 -0.04295136 0.18968795
0.040420793 -0.0138379885 0.16650464 0.24429815 -0.012232752 -0.06168277 0.10324455 0.15148139
0.050343268 0.04849039 0.1597196 0.06395361 -0.11031263 0.0011184014 -0.017591938 0.11180258
0.07089871 -0.028738571 0.17003147 0.24610765 0.16080163 0.049937792 0.087638706 0.185111
0.13753238 -0.08978385 0.10009677 -0.18793449 -0.08348494 0.22254445 0.0927642 0.016394563
-0.1794767 -0.10643356 0.14262405 0.033355825 -0.011743675 -0.16974597 -0.02651724 0.024421358
0.07409209 0.09098195 0.102928855 0.19482838 -0.09681465 -0.1373304 -0.15528981 -0.0556393
-0.07350922 -0.1310568 0.10107812 0.061680354 0.13046625 0.09921445 -0.03326725 0.00400834
0.1346959 0.12817562 -0.14182858 -0.14278604 -0.01885647 -0.053432632 -0.034067713 -0.05169215
-0.10545942 -0.10235902 0.12001604 0.2246433 0.07350025 0.08044886 -0.100068696 -0.18147577
-0.16969858 -0.0858658 0.0003291158 -0.03782511 -0.17921229 0.04755263 -0.0768252 -0.093860716
0.15019526 0.010035177 0.03786075 0.007170592 -0.13055392 -0.07609673 0.055528767 0.108924836
-0.20353368 -0.19273858 -0.0137736155 0.16569723 0.05778893 0.19679292 0.0518086 0.015698694
0.113976866 0.1675859 0.0115040615 -0.08930681 0.07770636 0.0950244 0.10150675 0.108673476
0.1977702 0.18768516 -0.084723264 -0.143345 -0.12455457 0.24200596 -0.1506108 -0.18788059
-0.030926468 0.13097179 0.11301471 -0.052549623 0.06578179 0.123998724 0.044085678 0.102194585
-0.16531974 -0.09677485
00000000: 19c3 343e 9436 6b3e e1ec 753d 06de 883d
00000010: 6c2a fcbd c011 34bd 5227 113e 8e68 753e
00000020: a608 0abe c65a 823e 80fb 68bd e30f 87be
00000030: 7efd a93d 6682 d43d 2037 f53d a575 313d
00000040: cbf2 7ebd 7944 1f3e 6315 083d 1bbf 643d
00000050: 898c b33d aa86 1d3e 8895 b0bd 6008 9fbd
00000060: e359 37bd 65f5 2ebe e860 0fbd c6dd 143e
00000070: ddd8 2dbe 6bf6 993c 101e 31bd 0c78 01be
00000080: cf77 5d3d 7e08 cd3b 743c 7d3c 4b31 2abd
00000090: 588c 44be 4d82 1f3e 1640 293d 9dd5 84bd
000000a0: e1f1 5ebd 5fc5 5d3e 56ee 353e fc36 6cbc
000000b0: 5515 c7bd 1b9b d33d 373a 223b 12f1 b7bd
000000c0: f611 943d c552 80bd 147a 96bd dbea babd
000000d0: 514f 09be 9930 d03c f135 f2bd e509 23bc
000000e0: 8f79 5d3e 814b dfbd 2cb2 47bd 85b4 a9bd
000000f0: 21c7 d83c 7d1d 8f3d 6052 973d 3d3c 04be
00000100: e22d a7bd 2324 6d3d d033 6e3e 4ece 7dbd
00000110: c35f b3bd e148 2dbe 7020 e53d 3fdb abbc
00000120: e3b3 2ebe eb23 03be 42db be3d 57e6 013e
00000130: 4838 3ebd 5113 79be 6343 09bd 2f42 28be
00000140: f01e cfbd 9b39 573e bcde 2bbd dc52 15be
00000150: c326 db3d 6a90 a63d bdb2 abbd f5f7 47be
00000160: 7ef9 0abd 1e25 8e3c cbec 2f3e f839 ff3c
00000170: e4c6 95bd beff 51be efda 07be c41d 45be
00000180: f235 9f3c ce20 9bbd 2975 e2bb 22c5 e63d
00000190: 7b31 94bc dd8e 903d 77da 723d 0d52 633e
000001a0: 8e0d 80bd 648e a1bd e6e0 123e bce8 053e
000001b0: 41f7 36be 783d 83bd 172b e3bc 88c6 233e
000001c0: 7a14 5bbd 29f5 ac3d 91f3 853d c33c c13c
000001d0: b249 19bd 984e 003d c4ed 2fbd 8f3d 423e
000001e0: 4690 253d bbb8 62bc 3180 2a3e 4b29 7a3e
000001f0: e16b 48bc 12a7 7cbd e171 d33d f01d 1b3e
00000200: be34 4e3d dc9d 463d 898d 233e 1cfa 823d
00000210: 97eb e1bd 5397 923a f81c 90bc c0f8 e43d
00000220: 5833 913d 276d ebbc bb1c 2e3e a503 7c3e
00000230: 2fa9 243e 928b 4c3d ec7b b33d bd8d 3d3e
00000240: 4ad5 0c3e 98e0 b7bd 89ff cc3d e671 40be
00000250: 27fa aabd b1e2 633e 28fb bd3d e44d 863c
00000260: bdc8 37be d7f9 d9bd 0a0c 123e 1ea0 083d
00000270: 8b68 40bc e3d1 2dbe af3a d9bc 4d0f c83c
00000280: 98bd 973d bf54 ba3d 5dcc d23d 1781 473e
00000290: c246 c6bd 57a0 0cbe 4b04 1fbe 09e6 63bd
000002a0: 008c 96bd c133 06be 0c02 cf3d 8aa4 7c3d
000002b0: f298 053e f230 cb3d 3d43 08bd 6558 833b
000002c0: b9ed 093e 7840 033e 833b 11be 8136 12be
000002d0: e278 9abc 2ddc 5abd 968a 0bbd 26bb 53bd
000002e0: 1cfb d7bd 9ba1 d1bd f8ca f53d e508 663e
000002f0: 4d87 963d 5fc2 a43d d1f0 ccbd c9d4 39be
00000300: 77c5 2dbe 69da afbd 2d8d ac39 81ee 1abd
00000310: 6d83 37be 8cc6 423d 8856 9dbd 0c3a c0bd
00000320: c9cc 193e 956a 243c e013 1b3d 49f7 ea3b
00000330: edaf 05be 9ad8 9bbd 2272 633d fc13 df3d
00000340: 226b 50be 435d 45be bbaa 61bc 89ac 293e
00000350: 16b4 6c3d 1584 493e 4135 543d 8c9a 803c
00000360: b46c e93d a39b 2b3e 887b 3c3c 7de6 b6bd
00000370: 8324 9f3d 279c c23d c5e2 cf3d 3390 de3d
00000380: 4584 4a3e 8a30 403e 6483 adbd 08c9 12be
00000390: 7716 ffbd 69d0 773e b839 1abe c563 40be
000003a0: 8159 fdbc 781d 063e 4274 e73d 463e 57bd
000003b0: 9ab8 863d 0bf3 fd3d 2f93 343d 654b d13d
000003c0: 9449 29be e431 c6bd

tcn_layers.0.tcnblock.network.0.net.0.bias f4 [11]
0.0065492713 0.02372248 -0.07731967 0.022389662 -0.0007703426 -0.089710295 0.05957535 0.011985574
0.04537723 0.040086843 -0.05704704
00000000: 459b d63b a555 c23c c659 9ebd 866a b73c
00000010: d1f0 49ba 08ba b7bd 4805 743d 245f 443c
00000020: 79dd 393d 1a32 243d 28aa 69bd

tcn_layers.0.tcnblock.network.0.net.0.weight_g f4 [11, 1, 1]
0.6187417 0.663645 0.47588065 0.7232524 0.46664947 0.7614651 0.61530906 0.63771385
0.674094 0.5400062 0.5535122
00000000: db65 1e3f a4e4 293f a1a6 f33e 1227 393f
00000010: aeec ee3e 60ef 423f e584 1d3f 3741 233f
00000020: 6d91 2c3f d93d 0a3f fab2 0d3f

tcn_layers.0.tcnblock.network.0.net.0.weight_v f4 [11, 11, 2]
-0.03866401 -0.086139716 0.0042567267 0.06872465 0.074023776 -0.2594316 0.044057418 0.05765605
-0.03169976 0.22315444 0.14005317 -0.14774321 0.04037045 0.1294668 -0.0050227586 0.07202246
0.054380845 0.19579826 0.12662388 -0.1987444 -0.16946365 0.050914824 -0.113940045 -0.14151502
-0.20624933 -0.14923486 -0.04703518 0.23955561 0.053492602 -0.10205269 0.11943441 0.09147337
-0.065630026 -0.1851892 0.15716891 -0.050906092 -0.23586248 -0.23196876 -0.1323357 0.09614687
0.13729042 0.23402348 0.13054541 0.19527227 0.07953206 -0.028666845 0.03939281 -0.03793048
0.032411877 0.0031384502 -0.34699222 -0.28937015 -0.10685064 -0.029976927 0.018928107 -0.11821664
-0.07934666 0.046041794 -0.10850439 0.17159945 0.080634825 -0.1013666 -0.22817016 0.08207502
-0.16219121 -0.005989902 -0.04456172 0.12501237 -0.10443712 0.080796726 -0.16465166 0.104277894
-0.20774576 0.14988461 -0.29506767 -0.074189596 0.10263486 0.028182548 0.07998409 -0.17376581
0.23189272 0.16548719 0.070409186 -0.055126585 -0.0290017 -0.053950608 0.004885323 -0.07561509
0.025933703 0.11894904 0.013750612 0.0067849853 -0.25910208 0.026007907 -0.0063946354 0.07690546
-0.06119658 -0.017327577 -0.10894359 -0.12377499 0.016685888 0.15669093 -0.076440044 0.12759236
-0.07750174 0.060576916 -0.015452506 0.10436721 -0.0272822 -0.28298253 0.04397598 -0.3080619
-0.112262934 -0.058715165 -0.03404018 0.14427453 0.17029966 0.17970717 -0.21195444 0.018336773
-0.011987349 0.19887045 0.13258086 -0.026794836 0.01984665 -0.019312842 0.010609056 0.079027034
-0.099083945 -0.14993812 0.16872552 0.19462095 -0.13626571 0.099015854 0.04907538 0.08963311
-0.00824446 -0.13463235 0.09177158 0.12730731 0.15846945 -0.17154612 0.12867938 -0.06369345
-0.09283428 0.23396534 0.102501705 0.021122212 -0.17802112 -0.18578441 0.16080064 -0.064303204
-0.043232244 -0.028757952 -0.11401832 0.15070572 0.06991439 0.016748145 0.0634948 0.123968765
-0.14874528 -0.078910224 -0.110418454 0.040557835 -0.2125018 0.013818035 -0.15457846 -0.24880183
-0.045400437 -0.10479396 0.0404838 0.11760921 0.03309924 0.20448512 0.17764066 0.21874262
-0.15664697 -0.12237516 -0.11190879 -0.12270964 0.16287322 -0.28851256 0.11526978 0.099741854
0.1825737 0.016985826 -0.14684466 -0.21056303 0.021102395 0.2134694 0.1571141 0.089083925
0.14206316 -0.18044616 -0.151161 0.025855927 0.17989278 0.01328119 -0.012854642 0.08349488
-0.09828557 0.06660009 0.16687927 -0.15180883 0.04856808 0.0017989292 -0.113093816 -0.19388263
-0.035516627 -0.13124599 -0.076025024 -0.23636606 0.0029914656 0.0005835773 -0.14063601 0.021990199
-0.08645623 -0.023856672 -0.055358335 0.017877132 -0.17765902 -0.082593136 -0.22098398 -0.155122
0.03953818 -0.058942907 -0.15421118 -0.18779776 0.07297538 0.022221318 0.21458305 0.02206162
0.1317476 0.09225298 0.123414576 -0.06225723 -0.00827575 -0.036650103 0.028542144 -0.14698222
-0.07228303 0.0015152043
00000000: 275e 1ebd 056a b0bd 037c 8b3b 82bf 8c3d
00000010: c799 973d 38d4 84be 8d75 343d c028 6c3d
00000020: 9cd7 01bd 9982 643e 196a 0f3e ff49 17be
00000030: 7c5b 253d f292 043e f495 a4bb 8380 933d
00000040: 73be 5e3d 577f 483e b1a9 013e a783 4bbe
00000050: e187 2dbe 108c 503d 6659 e9bd 50e9 10be
00000060: 0633 53be 06d1 18be f6a7 40bd 114e 753e
00000070: 0f1b 5b3d 0001 d1bd 079a f43d 6456 bb3d
00000080: 0969 86bd 3da2 3dbe e3f0 203e e882 50bd
00000090: ef85 71be 3889 6dbe 0283 07be a6e8 c43d
000000a0: dc95 0c3e daa3 6f3e b2ad 053e 74f5 473e
000000b0: b4e1 a23d bbd6 eabc 5b5a 213d fe5c 1bbd
000000c0: 51c2 043d 75ae 4d3b f7a8 b1be 5328 94be
000000d0: 82d4 dabd 2c92 f5bc 1e0f 9b3c 911b f2bd
000000e0: 8080 a2bd 5296 3c3d 8d37 debd c4b7 2f3e
000000f0: df23 a53d 4b99 cfbd 70a5 69be f316 a83d
00000100: 7415 26be f146 c4bb 5a86 36bd 3e03 003e
00000110: 21e3 d5bd c178 a53d 729a 28be a68f d53d
00000120: 4ebb 54be 5a7b 193e 1c13 97be b7f0 97bd
00000130: 3a32 d23d 16df e63c b3ce a33d aaef 31be
00000140: 4975 6d3e 7975 293e b132 903d 6acc 61bd
00000150: f994 edbc 50fb 5cbd 0f15 a03b 16dc 9abd
00000160: eb72 d43c 8e9b f33d 3f4a 613c 9554 de3b
00000170: 07a9 84be 890e d53c 178a d1bb 9c80 9d3d
00000180: 44a9 7abd 90f2 8dbc d11d dfbd be7d fdbd
00000190: d8b0 883c 9673 203e 998c 9cbd 92a7 023e
000001a0: 3bb9 9ebd 801f 783d 822c 7dbc 7abe d53d
000001b0: ec7e dfbc 16e3 90be 2820 343d 4aba 9dbe
000001c0: 1cea e5bd 507f 70bd b76d 0bbd b4bc 133e
000001d0: 0963 2e3e 2805 383e 960a 59be 0037 963c
000001e0: 9666 44bc b2a4 4b3e 47c3 073e d880 dbbc
000001f0: 7195 a23c f735 9ebc 9bd1 2d3c edd8 a13d
00000200: 86ec cabd 6189 19be 62c6 2c3e b74a 473e
00000210: 3d89 0bbe d3c8 ca3d 4403 493d 9091 b73d
00000220: c613 07bc 10dd 09be bdf2 bb3d d95c 023e
00000230: d145 223e c9a9 2fbe 87c4 033e b671 82bd
00000240: e61f bebd 9c94 6f3e 6aec d13d 7d08 ad3c
00000250: 2b4b 36be 453e 3ebe eca8 243e 66b1 83bd
00000260: 4b14 31bd cc95 ebbc 7082 e9bd 9a52 1a3e
00000270: 472f 8f3d 6833 893c 9009 823d 56e3 fd3d
00000280: af50 18be af9b a1bd 1223 e2bd f91f 263d
00000290: 129a 59be 0a65 623c d149 1ebe e8c5 7ebe
000002a0: cff5 39bd 379e d6bd 57d2 253d 19dd f03d
000002b0: 1293 073d 8c64 513e 6fe7 353e 11fe 5f3e
000002c0: 1068 20be d49f fabd 7030 e5bd 314f fbbd
000002d0: 3dc8 263e ebb7 93be 9012 ec3d 7545 cc3d
000002e0: 9af4 3a3e dc25 8b3c 725e 16be d69d 57be
000002f0: eede ac3c b997 5a3e 85e2 203e a271 b63d
00000300: 0179 113e e1c6 38be f3c9 1abe cfcf d33c
00000310: d035 383e 5999 593c 479c 52bc 5dff aa3d
00000320: f249 c9bd a165 883d 66e2 2a3e c673 1bbe
00000330: 53ef 463d 0cca eb3a bb9d e7bd 2b89 46be
00000340: e279 11bd 5965 06be 02b3 9bbd f209 72be
00000350: 770c 443b 36fb 183a e302 10be ca24 b43c
00000360: f70f b1bd 116f c3bc 6cbf 62bd 1073 923c
00000370: 3fec 35be 9726 a9bd a049 62be 4dd8 1ebe
00000380: c9f2 213d 1e6e 71bd 89e9 1dbe 0e4e 40be
00000390: 1e74 953d 7b09 b63c a9bb 5b3e 92ba b43c
000003a0: d8e8 063e 21ef bc3d c8c0 fc3d 7001 7fbd
000003b0: 0397 07bc 6b1e 16bd 37d1 e93c 8282 16be
000003c0: 2009 94bd d299 c63a

tcn_layers.0.tcnblock.network.0.net.4.bias f4 [11]
0.06709601 0.004370851 0.07711265 0.019191591 0.13804267 0.12432496 0.0669592 0.048980918
-0.08243598 0.082474135 0.11763344
00000000: a269 893d 5b39 8f3b 3ded 9d3d af37 9d3c
00000010: 0f5b 0d3e 169e fe3d e821 893d 37a0 483d
00000020: 32d4 a8bd 33e8 a83d cde9 f03d

tcn_layers.0.tcnblock.network.0.net.4.weight_g f4 [11, 1, 1]
0.59380615 0.5075195 0.61844695 0.66557586 0.5402202 0.64701784 0.62639934 0.5218856
0.60394824 0.5652036 0.5519547
00000000: ae03 183f ccec 013f 8a52 1e3f 2e63 2a3f
00000010: df4b 0a3f f6a2 253f b55b 203f 4b9a 053f
00000020: 5a9c 1a3f 2fb1 103f e74c 0d3f

tcn_layers.0.tcnblock.network.0.net.4.weight_v f4 [11, 11, 2]
0.17652549 0.22970039 0.06004036 0.066829726 -0.12312779 -0.04396224 0.14175156 0.23965666
-0.13479862 0.2545988 -0.056880474 -0.26379308 0.08300303 0.10376434 0.11973405 0.043325085
-0.062243264 0.15553464 0.03322352 0.055846315 0.08767039 0.15383402 -0.08622271 -0.07765269
-0.044763457 -0.17085798 -0.035004526 0.14537725 -0.16977258 0.018794259 -0.04324156 -0.1264345
0.054069337 0.006257116 0.015456308 -0.041550916 -0.19194162 0.1557705 0.041320883 -0.06486056
-0.054429892 0.21657322 0.17766699 -0.014417406 -0.09720866 0.103323184 0.0024753937 -0.089815274
0.07229988 -0.06265787 -0.07347503 -0.091268264 -0.13409163 0.025413798 -0.11826695 -0.0099510895
0.21628402 -0.10903073 -0.048753902 -0.082863845 0.02646214 0.06988046 0.07388759 -0.12913604
-0.08163048 0.05789579 0.23261952 -0.061964326 -0.087584995 -0.16922332 0.111878276 -0.020978568
-0.17060809 -0.1280667 0.09319164 0.12685524 -0.046440393 -0.24323775 -0.03351153 -0.16431497
-0.10113323 0.21018068 -0.041960463 -0.1458239 0.107007526 0.081330135 -0.08383701 -0.19528182
-0.03392934 0.017351683 0.17180173 0.031155571 -0.07313326 -0.20507714 -0.1326711 -0.19249636
0.019434903 -0.075746164 -0.0069109392 0.11268069 -0.01809 0.07058499 0.059290376 0.22199269
-0.06252585 -0.07888487 0.14343604 0.13077062 -0.17867757 -0.064082086 -0.027730508 0.15993702
-0.053486325 0.08445198 0.06540597 0.023588544 -0.037423797 0.031324953 -0.04295136 0.18968795
0.040420793 -0.0138379885 0.16650464 0.24429815 -0.012232752 -0.06168277 0.10324455 0.15148139
0.050343268 0.04849039 0.1597196 0.06395361 -0.11031263 0.0011184014 -0.017591938 0.11180258
0.07089871 -0.028738571 0.17003147 0.24610765 0.16080163 0.049937792 0.087638706 0.185111
0.13753238 -0.08978385 0.10009677 -0.18793449 -0.08348494 0.22254445 0.0927642 0.016394563
-0.1794767 -0.10643356 0.14262405 0.033355825 -0.011743675 -0.16974597 -0.02651724 0.024421358
0.07409209 0.09098195 0.102928855 0.19482838 -0.09681465 -0.1373304 -0.15528981 -0.0556393
-0.07350922 -0.1310568 0.10107812 0.061680354 0.13046625 0.09921445 -0.03326725 0.00400834
0.1346959 0.12817562 -0.14182858 -0.14278604 -0.01885647 -0.053432632 -0.034067713 -0.05169215
-0.10545942 -0.10235902 0.12001604 0.2246433 0.07350025 0.08044886 -0.100068696 -0.18147577
-0.16969858 -0.0858658 0.0003291158 -0.03782511 -0.17921229 0.04755263 -0.0768252 -0.093860716
0.15019526 0.010035177 0.03786075 0.007170592 -0.13055392 -0.07609673 0.055528767 0.108924836
-0.20353368 -0.19273858 -0.0137736155 0.16569723 0.05778893 0.19679292 0.0518086 0.015698694
0.113976866 0.1675859 0.0115040615 -0.08930681 0.07770636 0.0950244 0.10150675 0.108673476
0.1977702 0.18768516 -0.084723264 -0.143345 -0.12455457 0.24200596 -0.1506108 -0.18788059
-0.030926468 0.13097179 0.11301471 -0.052549623 0.06578179 0.123998724 0.044085678 0.102194585
-0.16531974 -0.09677485
00000000: 19c3 343e 9436 6b3e e1ec 753d 06de 883d
00000010: 6c2a fcbd c011 34bd 5227 113e 8e68 753e
00000020: a608 0abe c65a 823e 80fb 68bd e30f 87be
00000030: 7efd a93d 6682 d43d 2037 f53d a575 313d
00000040: cbf2 7ebd 7944 1f3e 6315 083d 1bbf 643d
00000050: 898c b33d aa86 1d3e 8895 b0bd 6008 9fbd
00000060: e359 37bd 65f5 2ebe e860 0fbd c6dd 143e
00000070: ddd8 2dbe 6bf6 993c 101e 31bd 0c78 01be
00000080: cf77 5d3d 7e08 cd3b 743c 7d3c 4b31 2abd
00000090: 588c 44be 4d82 1f3e 1640 293d 9dd5 84bd
000000a0: e1f1 5ebd 5fc5 5d3e 56ee 353e fc36 6cbc
000000b0: 5515 c7bd 1b9b d33d 373a 223b 12f1 b7bd
000000c0: f611 943d c552 80bd 147a 96bd dbea babd
000000d0: 514f 09be 9930 d03c f135 f2bd e509 23bc
000000e0: 8f79 5d3e 814b dfbd 2cb2 47bd 85b4 a9bd
000000f0: 21c7 d83c 7d1d 8f3d 6052 973d 3d3c 04be
00000100: e22d a7bd 2324 6d3d d033 6e3e 4ece 7dbd
00000110: c35f b3bd e148 2dbe 7020 e53d 3fdb abbc
00000120: e3b3 2ebe eb23 03be 42db be3d 57e6 013e
00000130: 4838 3ebd 5113 79be 6343 09bd 2f42 28be
00000140: f01e cfbd 9b39 573e bcde 2bbd dc52 15be
00000150: c326 db3d 6a90 a63d bdb2 abbd f5f7 47be
00000160: 7ef9 0abd 1e25 8e3c cbec 2f3e f839 ff3c
00000170: e4c6 95bd beff 51be efda 07be c41d 45be
00000180: f235 9f3c ce20 9bbd 2975 e2bb 22c5 e63d
00000190: 7b31 94bc dd8e 903d 77da 723d 0d52 633e
000001a0: 8e0d 80bd 648e a1bd e6e0 123e bce8 053e
000001b0: 41f7 36be 783d 83bd 172b e3bc 88c6 233e
000001c0: 7a14 5bbd 29f5 ac3d 91f3 853d c33c c13c
000001d0: b249 19bd 984e 003d c4ed 2fbd 8f3d 423e
000001e0: 4690 253d bbb8 62bc 3180 2a3e 4b29 7a3e
000001f0: e16b 48bc 12a7 7cbd e171 d33d f01d 1b3e
00000200: be34 4e3d dc9d 463d 898d 233e 1cfa 823d
00000210: 97eb e1bd 5397 923a f81c 90bc c0f8 e43d
00000220: 5833 913d 276d ebbc bb1c 2e3e a503 7c3e
00000230: 2fa9 243e 928b 4c3d ec7b b33d bd8d 3d3e
00000240: 4ad5 0c3e 98e0 b7bd 89ff cc3d e671 40be
00000250: 27fa aabd b1e2 633e 28fb bd3d e44d 863c
00000260: bdc8 37be d7f9 d9bd 0a0c 123e 1ea0 083d
00000270: 8b68 40bc e3d1 2dbe af3a d9bc 4d0f c83c
00000280: 98bd 973d bf54 ba3d 5dcc d23d 1781 473e
00000290: c246 c6bd 57a0 0cbe 4b04 1fbe 09e6 63bd
000002a0: 008c 96bd c133 06be 0c02 cf3d 8aa4 7c3d
000002b0: f298 053e f230 cb3d 3d43 08bd 6558 833b
000002c0: b9ed 093e 7840 033e 833b 11be 8136 12be
000002d0: e278 9abc 2ddc 5abd 968a 0bbd 26bb 53bd
000002e0: 1cfb d7bd 9ba1 d1bd f8ca f53d e508 663e
000002f0: 4d87 963d 5fc2 a43d d1f0 ccbd c9d4 39be
00000300: 77c5 2dbe 69da afbd 2d8d ac39 81ee 1abd
00000310: 6d83 37be 8cc6 423d 8856 9dbd 0c3a c0bd
00000320: c9cc 193e 956a 243c e013 1b3d 49f7 ea3b
00000330: edaf 05be 9ad8 9bbd 2272 633d fc13 df3d
00000340: 226b 50be 435d 45be bbaa 61bc 89ac 293e
00000350: 16b4 6c3d 1584 493e 4135 543d 8c9a 803c
00000360: b46c e93d a39b 2b3e 887b 3c3c 7de6 b6bd
00000370: 8324 9f3d 279c c23d c5e2 cf3d 3390 de3d
00000380: 4584 4a3e 8a30 403e 6483 adbd 08c9 12be
00000390: 7716 ffbd 69d0 773e b839 1abe c563 40be
000003a0: 8159 fdbc 781d 063e 4274 e73d 463e 57bd
000003b0: 9ab8 863d 0bf3 fd3d 2f93 343d 654b d13d
000003c0: 9449 29be e431 c6bd

tcn_layers.0.tcnblock.network.1.conv1.bias f4 [33]
0.04467252 0.068523966 0.02158846 0.051687144 0.017916346 0.03455485 0.023965614 0.063642636
-0.07549926 0.04643144 0.03934475 0.029002776 -0.042380467 0.025390713 -0.06454009 0.03280062
0.032482438 -0.08098786 0.026218116 -0.02507556 0.04918374 0.032962408 0.012110243 0.031767722
-0.00033531323 -0.16602385 0.060130548 0.022332825 0.03799647 0.008380801 0.0017539012 0.05442831
0.037368003
00000000: 88fa 363d 4b56 8c3d 48da b03c e6b5 533d
00000010: 4dc5 923c 6389 0d3d 8953 c43c 1257 823d
00000020: 5b9f 9abd e52e 3e3d f627 213d 3b97 ed3c
00000030: 2497 2dbd 2f00 d03c 982d 84bd f159 063d
00000040: 4e0c 053d f7dc a5bd 60c7 d63c 436b cdbc
00000050: e474 493d 9703 073d 0a6a 463c df1e 023d
00000060: fbcc afb9 2802 2abe 734b 763d 54f3 b63c
00000070: 30a2 1b3d a14f 093c 29e3 e53a 38f0 5e3d
00000080: 310f 193d

tcn_layers.0.tcnblock.network.1.conv1.weight_g f4 [33, 1, 1]
0.67177755 0.6981976 0.5579561 0.6277623 0.6185306 0.6750405 0.6575756 0.74431646
0.55533457 0.58299017 0.6051941 0.596368 0.22494516 0.6366835 0.5659028 0.60324085
0.60689133 0.5728635 0.63449144 0.61763555 0.6648785 0.63529724 0.6090176 0.6091756
0.62632567 0.6503995 0.69263446 0.58546317 0.6342392 0.6629285 0.6109202 0.613139
0.53211296
00000000: 9df9 2b3f 14bd 323f 36d6 0e3f 08b5 203f
00000010: 0558 1e3f 74cf 2c3f e056 283f 868b 3e3f
00000020: 682a 0e3f d83e 153f 00ee 1a3f 93ab 183f
00000030: 0658 663e b1fd 223f 02df 103f fe6d 1a3f
00000040: 3b5d 1b3f 2fa7 123f 086e 223f 5d1d 1e3f
00000050: 7a35 2a3f d7a2 223f 94e8 1b3f eff2 1b3f
00000060: e156 203f 9580 263f 7e50 313f eae0 153f
00000070: 805d 223f afb5 293f 4465 1c3f adf6 1c3f
00000080: 8e38 083f

tcn_layers.0.tcnblock.network.1.conv1.weight_v f4 [33, 11, 2]
-0.1017837 -0.08465032 -0.035299245 -0.016921401 -0.027471462 -0.037746083 -0.023657423 0.0056436183
-0.13694878 -0.21192929 -0.089102715 -0.08479108 0.07184585 -0.10122437 0.06452408 0.067757405
-0.061372276 0.19972476 0.15436704 0.2440626 -0.024681427 -0.07597335 -0.04165364 0.058926385
-0.101540565 0.109129496 0.04293703 -4.5031316e-05 -0.06043172 0.13780306 -0.14780411 -0.20448335
-0.1887668 -0.05184898 -0.02566543 -0.0064345202 0.13125414 -0.057139214 -0.12539238 0.03232199
0.25486615 -0.07176 0.15780741 0.14619115 -0.14932406 0.054265838 0.025167212 0.012615529
-0.13683952 0.019443417 -0.037105806 0.060004395 -0.15362333 -0.24420755 -0.19007614 -0.15276636
0.160606 -0.048501585 0.032077026 -0.12230689 0.053070933 0.10009818 0.022557229 0.06560792
0.11307505 -0.05089122 -0.19811685 0.063639246 -0.015721895 -0.052408785 0.10501332 0.014580007
0.05605263 -0.037569392 -0.18848501 -0.22176917 0.13787487 0.026664821 0.0031805711 -0.0042283996
0.21088201 -0.08942865 0.110055715 -0.016979754 0.081056386 0.1570861 0.09383253 -0.044519607
0.20469686 0.15640381 0.08083686 0.10392028 0.061338082 -0.14226124 -0.18528244 -0.22426997
0.005701324 -0.05114382 -0.061215635 -0.078268535 -0.19959736 -0.17111789 -0.15444997 -0.08029345
0.05199088 0.006677532 -0.1368447 -0.12995772 -0.08952827 -0.062040143 -0.05651951 0.14753893
0.11365447 -0.00043398142 -0.03331568 -0.11849618 -0.03792571 -0.06508339 -0.19562367 -0.18231986
0.25448906 -0.05272445 -0.20060977 -0.16014944 -0.19401813 -0.28156924 0.083588 0.13985696
0.011997598 0.03602322 -0.073103935 0.08938923 -0.18768218 0.1381385 -0.042153027 0.031753656
-0.050961986 -0.093461566 0.032197937 -0.17128271 0.009318104 -0.059710026 -0.12559919 0.03179098
-0.10473568 0.12204179 -0.047414184 0.04570397 0.025446478 -0.17514083 0.06562728 0.19760692
0.20264123 0.064398095 -0.18427017 -0.23348987 -0.021128243 0.14806351 -0.008296669 0.003811504
0.18239114 -0.107234746 -0.18545452 -0.14737923 0.10940086 0.14554381 0.20804816 -0.13996838
0.12959358 -0.048731845 0.10825748 -0.11606894 -0.06454708 0.052542187 0.19478005 -0.06942086
0.106989644 -0.03464755 0.2284981 0.037573896 0.015146808 0.013110171 0.06023577 -0.0034293132
0.023379115 -0.06667218 0.120747454 -0.020960156 0.008880828 0.06708002 -0.021415643 0.06655027
-0.005145675 0.06896189 -0.1441942 -0.11979588 0.047500957 -0.07813467 0.06113335 0.013357164
-0.08161941 0.054494217 0.13638522 -0.12525211 0.015837915 0.044669475 0.03799132 -0.02118169
-0.20152728 0.059446186 -0.13092521 -0.17573884 -0.08138243 -0.031004775 -0.050429784 -0.19068323
-0.066682145 0.15252191 0.08360304 0.15286039 -0.08091189 0.03999704 0.010008515 -0.11347287
-0.021620108 0.01275581 -0.108421326 0.14268972 0.117846616 -0.14466581 0.019815639 0.032361135
0.10468349 0.0018908503 0.10617623 0.31152084 -0.099952154 0.009865841 0.028187688 -0.07184714
0.016276201 -0.05628262 0.07397111 -0.019484123 0.01462895 0.011585127 -0.010330176 0.1408831
-0.05054765 0.08199747 -0.1459836 -0.018217675 -0.16154999 -0.20616946 -0.11125386 -0.034880385
00000000: f973 d0bd 265d adbd f195 10bd c09e 8abc
00000010: d50b e1bc a39b 1abd 36cd c1bc 1aee b83b
00000020: 4d3c 0cbe fe03 59be 7c7b b6bd f2a6 adbd
00000030: eb23 933d b94e cfbd 3325 843d 65c4 8a3d
00000040: 7f61 7bbd a684 4c3e 6512 1e3e 8ceb 793e
00000050: b430 cabc ea97 9bbd 029d 2abd cb5c 713d
00000060: 80f4 cfbd 497f df3d bdde 2f3d 02e0 3cb8
00000070: 4087 77bd 3f1c 0d3e f659 17be 1564 51be
00000080: 164c 41be 995f 54bd 4f40 d2bc abd8 d2bb
00000090: 7c67 063e cf0a 6abd dc66 00be 1064 043d
000000a0: d17d 823e e8f6 92bd 4498 213e 22b3 153e
000000b0: 68e8 18be db45 5e3d 782b ce3c 5db1 4e3c
000000c0: a91f 0cbe cd47 9f3c 42fc 17bd 2bc7 753d
000000d0: 6f4f 1dbe 8b11 7abe 52a3 42be c96e 1cbe
000000e0: e675 243e 99a9 46bd 3363 033d 097c fabd
000000f0: e860 593d 4600 cd3d f0c9 b83c 725d 863d
00000100: e493 e73d 5073 50bd 25df 4abe 4b55 823d
00000110: 34cb 80bc 98aa 56bd 3911 d73d fbe0 6e3c
00000120: 7197 653d 5de2 19bd 3702 41be 7517 63be
00000130: 122f 0d3e 2f70 da3c 2171 503b 638e 8abb
00000140: 74f1 573e 5e26 b7bd e464 e13d 2019 8bbc
00000150: e400 a63d 2edb 203e 452b c03d 315a 36bd
00000160: 0e9c 513e 5228 203e cc8d a53d 28d4 d43d
00000170: a43d 7b3d eeac 11be aeba 3dbe 07a7 65be
00000180: 2cd2 ba3b 2f7c 51bd 3fbd 7abd 414b a0bd
00000190: 4063 4cbe 8739 2fbe 2228 1ebe e470 a4bd
000001a0: 64f4 543d 33cf da3b 0421 0cbe a313 05be
000001b0: 995a b7bd ce1d 7ebd 0081 67bd 7214 173e
000001c0: adc3 e83d 0088 e3b9 0676 08bd 20ae f2bd
000001d0: fd57 1bbd 714a 85bd 9251 48be 0fb2 3abe
000001e0: 644c 823e 98f5 57bd a66c 4dbe 37fe 23be
000001f0: b0ac 46be d829 90be 2f30 ab3d aa36 0f3e
00000200: 9391 443c 158d 133d 84b7 95bd b311 b73d
00000210: c22f 40be 2e74 0d3e a7a8 2cbd 1f10 023d
00000220: 84bd 50bd c768 bfbd fce1 033d bc64 2fbe
00000230: f6aa 183c 8092 74bd 139d 00be 4237 023d
00000240: a97f d6bd 0cf1 f93d 6035 42bd 1634 3b3d
00000250: 2275 d03c 1e58 33be 9867 863d 7859 4a3e
00000260: 2f81 4f3e 26e3 833d 52b1 3cbe f817 6fbe
00000270: 2315 adbc f69d 173e c1ee 07bc 6dca 793b
00000280: bec4 3a3e e49d dbbd cae7 3dbe 95ea 16be
00000290: 8f0d e03d 7009 153e 940a 553e df53 0fbe
000002a0: 2eb4 043e 0b9b 47bd 19b6 dd3d 8db5 edbd
000002b0: 4231 84bd 7a36 573d 6c74 473e 862c 8ebd
000002c0: 631d db3d 97ea 0dbd 68fb 693e 16e7 193d
000002d0: 512a 783c 0bcc 563c c8b9 763d 54be 60bb
000002e0: 8f85 bf3c 6d8b 88bd 714a f73d a2b4 abbc
000002f0: e480 113c 4061 893d dc6f afbc 824b 883d
00000300: 0d9d a8bb e43b 8d3d a5a7 13be 8b57 f5bd
00000310: 5d90 423d 1205 a0bd f766 7a3d 02d8 5a3c
00000320: 1428 a7bd 5435 5f3d 91a8 0b3e 1742 00be
00000330: 84be 813c 57f7 363d c99c 1b3d 3985 adbc
00000340: 2b5d 4ebe d87d 733d 4211 06be e2f4 33be
00000350: d5ab a6bd bafd fdbc 768f 4ebd 7742 43be
00000360: a690 88bd b42e 1c3e 1238 ab3d 6f87 1c3e
00000370: 22b5 a5bd f0d3 233d c1fa 233c 7764 e8bd
00000380: a71c b1bc bffd 503c 000c debd 411d 123e
00000390: 9159 f13d 4623 14be 6854 a23c 1c8d 043d
000003a0: 4c64 d63d 68d6 f73a ec72 d93d a97f 9f3e
000003b0: b7b3 ccbd 56a4 213c dee9 e63c 9824 93bd
000003c0: ab55 853c 9b88 66bd 2a7e 973d 2b9d 9fbc
000003d0: 43ae 6f3c 8bcf 3d3c e63f 29bc a943 103e
000003e0: 0d0b 4fbd 4aee a73d ba7c 15be 3c3d 95bc
000003f0: 5c6d 25be 161e 53be 10d9 e3bd bcde 0ebd

tcn_layers.0.tcnblock.network.1.conv2.bias f4 [33]
0.02867246 0.045316257 0.024763511 0.02816188 0.028857097 0.03834081 0.08618441 -0.033199023
0.045953836 0.027607445 0.014065525 0.03126908 0.037414867 0.0375487 -0.11054632 0.05492318
0.0045069074 0.015125434 0.055185564 0.017827315 -0.035463143 0.01601404 0.009454389 0.073750466
0.034628674 -0.0298832 -0.06133638 0.052614514 0.07797579 0.012671027 0.020010103 -0.06484862
-0.0048627467
00000000: 82e2 ea3c 8a9d 393d d9dc ca3c beb3 e63c
00000010: b865 ec3c 410b 1d3d 7481 b03d b3fb 07bd
00000020: 173a 3c3d 0229 e23c 1673 663c 0214 003d
00000030: 5540 193d aacc 193d 1c66 e2bd 21f7 603d
00000040: aeae 933b abd0 773c 420a 623d 970a 923c
00000050: cd41 11bd e02f 833c 95e6 1a3c 7c0a 973d
00000060: ccd6 0d3d 9dcd f4bc db3b 7bbd 5182 573d
00000070: c5b1 9f3d 249a 4f3c 3aec a33c 5acf 84bd
00000080: ad57 9fbb

tcn_layers.0.tcnblock.network.1.conv2.weight_g f4 [33, 1, 1]
0.6314969 0.6184227 0.5619159 0.61224186 0.6349143 0.5735392 0.79140466 0.4368542
0.6561254 0.56800324 0.5991122 0.63858265 0.59814996 0.60651255 0.6435164 0.6302332
0.64918965 0.6332337 0.62808704 0.63037896 0.5872409 0.69275177 0.6287798 0.5970501
0.63782424 0.6126391 0.53071123 0.5631404 0.65911806 0.70260644 0.58150023 0.6532513
0.20207155
00000000: c8a9 213f f350 1e3f b8d9 0f3f e2bb 1c3f
00000010: be89 223f 77d3 123f 7f99 4a3f 5bab df3e
00000020: d6f7 273f a968 113f 6b5f 193f 277a 233f
00000030: 5b20 193f 6844 1b3f 7ebd 243f f756 213f
00000040: 4b31 263f 9b1b 223f 50ca 203f 8460 213f
00000050: 6b55 163f 2e58 313f b7f7 203f 46d8 183f
00000060: 7348 233f ebd5 1c3f b1dc 073f f829 103f
00000070: f6bb 283f 04de 333f 33dd 143f 7a3b 273f
00000080: d8eb 4e3e

tcn_layers.0.tcnblock.network.1.conv2.weight_v f4 [33, 33, 2]
0.048666622 -0.008313321 0.08573709 -0.0681166 -0.1212237 -0.015508247 0.0067818025 -0.06321998
-0.042050976 0.1450747 0.0041458956 -0.009373722 -0.04672835 0.07738087 0.13467546 0.04681471
0.04189349 -0.032464273 0.066042766 0.033240277 -0.059665132 -0.026577359 -0.07989646 -0.05758347
-0.055284485 -0.019746339 -0.13975017 -0.07323013 -0.09199311 0.08492562 -0.009146187 0.015914021
-0.10227655 -0.05180144 -0.063669376 -0.10337249 -0.041960664 -0.12542808 -0.077630885 0.028917547
0.017821731 0.017027698 -0.102016695 -0.107393414 0.03065475 -0.05165723 -0.022785611 -0.027336657
-0.004588883 -0.0008328906 -0.07229958 0.0090838475 0.07493931 -0.00949278 -0.117974125 0.0435843
-0.09171859 0.10188398 -0.036695663 0.10238332 -0.0023465164 0.06149094 -0.022223536 0.025420804
0.08901908 0.07198272 0.03236013 0.034093164 -0.067785025 0.085002296 0.004541501 0.021749912
-0.013793478 0.03362341 -0.049315922 -0.0146016 0.06984626 0.1297165 0.05352039 0.022789026
-0.046400826 -0.030619096 0.10283283 0.010675666 0.052769452 0.048917197 -0.057364818 -0.06754565
-0.060444236 -0.03594238 0.02715587 0.037071027 -0.08261559 -0.027026301 -0.065343246 -0.092002325
0.011666587 -0.03850386 -0.0910652 -0.037945285 -0.07207146 -0.09348487 0.026186327 0.04750977
-0.1491697 -0.054846134 0.071071714 0.116828255 -0.08285855 -0.08679144 0.011660986 -0.032414224
0.06343919 0.10162897 -0.032586068 -0.051150005 0.06191083 0.15984425 -0.043070115 0.13281496
0.06180019 0.03461328 0.028012132 0.06682675 0.025887651 0.11688313 0.024523737 0.010272792
-0.017189074 -0.11412545 0.021480463 -0.018283265 -0.06372525 -0.027286854 0.052443597 0.058946554
0.12620835 0.06753735 0.13658038 0.0122005725 -0.052635796 0.0776062 0.02267525 0.06447497
-0.037566803 -0.026475498 -0.025510548 -0.014388804 -0.028910434 -0.04052673 -0.12466545 0.05777031
0.07722219 0.045386247 0.08902862 -0.054042783 -0.047185663 -0.043693528 -0.07378955 -0.083627515
-0.033957567 -0.0012708231 0.041018162 -0.00886648 0.050763205 0.11736044 0.022200828 -0.042819478
0.012391689 -0.0581904 -0.02746094 -0.13114868 0.083617344 0.1385849 -0.016096234 0.00077539525
-0.04888169 0.06936342 0.11333494 -0.007873826 -0.074126184 -0.099247076 0.003777345 -0.06529779
0.026272701 0.020420108 -0.092633516 -0.053278185 -0.021268487 0.11281796 0.12324049 0.08803133
-0.01026484 0.062431794 -0.017043361 0.06569258 -0.055146005 -0.0473498 0.1193348 0.031650636
0.10627402 0.055821132 0.02313656 -0.027747935 0.12663752 -0.00092389167 -0.01796337 0.0027115492
0.02653056 0.033341225 0.15766641 0.19680639 0.07760155 0.031813994 -0.023880426 -0.13704056
-0.12942924 -0.047323342 -0.038278494 -0.15114751 -0.012909418 0.024777226 -0.093829095 0.07773161
-0.0714993 -0.090194345 0.05666169 0.09810937 0.0750404 -0.015636064 -0.08886729 0.048694834
-0.06607657 -0.014299981 0.027569994 -0.1282979 -0.089679934 -0.06804645 0.012923077 0.18957117
0.055447847 -0.083547 -0.06316939 -0.0033163605 0.058359444 0.056334715 0.018857468 -0.021888817
-0.06541596 -0.03462006 -0.08763168 -0.025567038 0.035680052 0.05719186 0.12424099 0.12344396
00000000: a756 473d 9834 08bc ed96 af3d b780 8bbd
00000010: 2244 f8bd 4d16 7ebc e239 de3b 7a79 81bd
00000020: a53d 2cbd 768e 143e 4bda 873b 3d94 19bc
00000030: 3a66 3fbd dd79 9e3d 5de8 093e c8c0 3f3d
00000040: 8298 2b3d 42f9 04bd 6e41 873d f526 083d
00000050: 6d63 74bd c3b8 d9bc c1a0 a3bd a5dc 6bbd
00000060: fc71 62bd 13c3 a1bc ab1a 0fbe aef9 95bd
00000070: e266 bcbd 7ced ad3d e4d9 15bc 1f5e 823c
00000080: 5e76 d1bd bf2d 54bd 1765 82bd f5b4 d3bd
00000090: f2de 2bbd 3870 00be f1fc 9ebd 7ee4 ec3c
000000a0: e1fe 913c ac7d 8b3c 21ee d0bd 14f1 dbbd
000000b0: ac1f fb3c 8896 53bd e4a8 babc 20f1 dfbc
000000c0: 575e 96bb 5856 5aba cd11 94bd 6bd4 143c
000000d0: c879 993d 9b87 1bbc 6b9c f1bd 7385 323d
000000e0: f5d6 bbbd 8ca8 d03d 314e 16bd 59ae d13d
000000f0: 03c8 19bb eddd 7b3d 220e b6bc 4a3f d03c
00000100: a34f b63d ad6b 933d 0e8c 043d 46a5 0b3d
00000110: e0d2 8abd af15 ae3d dfd0 943b df2c b23c
00000120: 0afe 61bc b3b8 093d 7eff 49bd 8d3b 6fbc
00000130: 8e0b 8f3d 67d4 043e 3238 5b3d 0db0 ba3c
00000140: cb0e 3ebd e6d4 fabc 059a d23d fde8 2e3c
00000150: c824 583d 665d 483d 5ff7 6abd 6055 8abd
00000160: 6094 77bd 5138 13bd fd75 de3c cad7 173d
00000170: 5d32 a9bd 4366 ddbc aed2 85bd b76b bcbd
00000180: 3625 3f3c 39b6 1dbd 6480 babd 846c 1bbd
00000190: 349a 93bd ff74 bfbd b584 d63c 9b99 423d
000001a0: f1bf 18be 57a6 60bd 0c8e 913d a743 ef3d
000001b0: beb1 a9bd b6bf b1bd b80d 3f3c c7c4 04bd
000001c0: 68ec 813d d922 d03d f878 05bd ab82 51bd
000001d0: 3696 7d3d 36ae 233e 4a6a 30bd a500 083e
000001e0: 3222 7d3d a8c6 0d3d b379 e53c 77dc 883d
000001f0: 5712 d43c 6c60 ef3d 01e6 c83c 364f 283c
00000200: 1ad0 8cbc 9bba e9bd ccf7 af3c c9c6 95bc
00000210: 6282 82bd ae88 dfbc 19cf 563d f171 713d
00000220: c33c 013e 0651 8a3d badb 0b3e e9e4 473c
00000230: a298 57bd 00f0 9e3d 72c1 b93c 740b 843d
00000240: a6df 19bd 25e3 d8bc 7ffb d0bc 05bf 6bbc
00000250: 93d5 ecbc 5bff 25bd 9950 ffbd 90a0 6c3d
00000260: ab26 9e3d eee6 393d a354 b63d f75b 5dbd
00000270: c145 41bd fcf7 32bd fa1e 97bd e744 abbd
00000280: 1717 0bbd bf91 a6ba a902 283d b644 11bc
00000290: 14ed 4f3d ac5a f03d 83de b53c 7a63 2fbd
000002a0: 8306 4b3c 0f59 6ebd c4f5 e0bc d74b 06be
000002b0: 923f ab3d 33e9 0d3e 40dc 83bc e543 4b3a
000002c0: 2b38 48bd 690e 8e3d 261c e83d 3801 01bc
000002d0: 78cf 97bd 0d42 cbbd 558d 773b d9ba 85bd
000002e0: d939 d73c 1248 a73c a4b6 bdbd 3a3a 5abd
000002f0: 403b aebc 1a0d e73d 8365 fc3d c549 b43d
00000300: dc2d 28bc 7bb8 7f3d 859e 8bbc d589 863d
00000310: c7e0 61bd ddf1 41bd ce65 f43d 19a4 013d
00000320: 32a6 d93d b3a4 643d e288 bd3c a34f e3bc
00000330: 44ad 013e 5231 72ba eb27 93bc 3fb4 313b
00000340: 9e56 d93c cf90 083d 4e73 213e 9d87 493e
00000350: 90ed 9e3d 644f 023d e2a0 c3bc 5c54 0cbe
00000360: 1989 04be 1fd6 41bd e9c9 1cbd 6ac6 1abe
00000370: 0682 53bc 9cf9 ca3c 7829 c0bd c031 9f3d
00000380: 3a6e 92bd d0b7 b8bd 1716 683d 91ed c83d
00000390: c8ae 993d 3417 80bc 0e00 b6bd 3c74 473d
000003a0: 2753 87bd 784a 6abc 78da e13c 8660 03be
000003b0: 1daa b7bd f05b 8bbd 50bb 533c f21e 423e
000003c0: 481d 633d b11a abbd f45e 81bd 4c57 59bb
000003d0: 500a 6f3d 3bbf 663d fa7a 9a3c 2d50 b3bc
000003e0: cef8 85bd c4cd 0dbd 3d78 b3bd f771 d1bc
000003f0: 3f25 123d 0342 6a3d 0f72 fe3d 30d0 fc3d

tcn_layers.0.tcnblock.network.1.net.0.bias f4 [33]
0.04467252 0.068523966 0.02158846 0.051687144 0.017916346 0.03455485 0.023965614 0.063642636
-0.07549926 0.04643144 0.03934475 0.029002776 -0.042380467 0.025390713 -0.06454009 0.03280062
0.032482438 -0.08098786 0.026218116 -0.02507556 0.04918374 0.032962408 0.012110243 0.031767722
-0.00033531323 -0.16602385 0.060130548 0.022332825 0.03799647 0.008380801 0.0017539012 0.05442831
0.037368003
00000000: 88fa 363d 4b56 8c3d 48da b03c e6b5 533d
00000010: 4dc5 923c 6389 0d3d 8953 c43c 1257 823d
00000020: 5b9f 9abd e52e 3e3d f627 213d 3b97 ed3c
00000030: 2497 2dbd 2f00 d03c 982d 84bd f159 063d
00000040: 4e0c 053d f7dc a5bd 60c7 d63c 436b cdbc
00000050: e474 493d 9703 073d 0a6a 463c df1e 023d
00000060: fbcc afb9 2802 2abe 734b 763d 54f3 b63c
00000070: 30a2 1b3d a14f 093c 29e3 e53a 38f0 5e3d
00000080: 310f 193d

tcn_layers.0.tcnblock.network.1.net.0.weight_g f4 [33, 1, 1]
0.67177755 0.6981976 0.5579561 0.6277623 0.6185306 0.6750405 0.6575756 0.74431646
0.55533457 0.58299017 0.6051941 0.596368 0.22494516 0.6366835 0.5659028 0.60324085
0.60689133 0.5728635 0.63449144 0.61763555 0.6648785 0.63529724 0.6090176 0.6091756
0.62632567 0.6503995 0.69263446 0.58546317 0.6342392 0.6629285 0.6109202 0.613139
0.53211296
00000000: 9df9 2b3f 14bd 323f 36d6 0e3f 08b5 203f
00000010: 0558 1e3f 74cf 2c3f e056 283f 868b 3e3f
00000020: 682a 0e3f d83e 153f 00ee 1a3f 93ab 183f
00000030: 0658 663e b1fd 223f 02df 103f fe6d 1a3f
00000040: 3b5d 1b3f 2fa7 123f 086e 223f 5d1d 1e3f
00000050: 7a35 2a3f d7a2 223f 94e8 1b3f eff2 1b3f
00000060: e156 203f 9580 263f 7e50 313f eae0 153f
00000070: 805d 223f afb5 293f 4465 1c3f adf6 1c3f
00000080: 8e38 083f

tcn_layers.0.tcnblock.network.1.net.0.weight_v f4 [33, 11, 2]
-0.1017837 -0.08465032 -0.035299245 -0.016921401 -0.027471462 -0.037746083 -0.023657423 0.0056436183
-0.13694878 -0.21192929 -0.089102715 -0.08479108 0.07184585 -0.10122437 0.06452408 0.067757405
-0.061372276 0.19972476 0.15436704 0.2440626 -0.024681427 -0.07597335 -0.04165364 0.058926385
-0.101540565 0.109129496 0.04293703 -4.5031316e-05 -0.06043172 0.13780306 -0.14780411 -0.20448335
-0.1887668 -0.05184898 -0.02566543 -0.0064345202 0.13125414 -0.057139214 -0.12539238 0.03232199
0.25486615 -0.07176 0.15780741 0.14619115 -0.14932406 0.054265838 0.025167212 0.012615529
-0.13683952 0.019443417 -0.037105806 0.060004395 -0.15362333 -0.24420755 -0.19007614 -0.15276636
0.160606 -0.048501585 0.032077026 -0.12230689 0.053070933 0.10009818 0.022557229 0.06560792
0.11307505 -0.05089122 -0.19811685 0.063639246 -0.015721895 -0.052408785 0.10501332 0.014580007
0.05605263 -0.037569392 -0.18848501 -0.22176917 0.13787487 0.026664821 0.0031805711 -0.0042283996
0.21088201 -0.08942865 0.110055715 -0.016979754 0.081056386 0.1570861 0.09383253 -0.044519607
0.20469686 0.15640381 0.08083686 0.10392028 0.061338082 -0.14226124 -0.18528244 -0.22426997
0.005701324 -0.05114382 -0.061215635 -0.078268535 -0.19959736 -0.17111789 -0.15444997 -0.08029345
0.05199088 0.006677532 -0.1368447 -0.12995772 -0.08952827 -0.062040143 -0.05651951 0.14753893
0.11365447 -0.00043398142 -0.03331568 -0.11849618 -0.03792571 -0.06508339 -0.19562367 -0.18231986
0.25448906 -0.05272445 -0.20060977 -0.16014944 -0.19401813 -0.28156924 0.083588 0.13985696
0.011997598 0.03602322 -0.073103935 0.08938923 -0.18768218 0.1381385 -0.042153027 0.031753656
-0.050961986 -0.093461566 0.032197937 -0.17128271 0.009318104 -0.059710026 -0.12559919 0.03179098
-0.10473568 0.12204179 -0.047414184 0.04570397 0.025446478 -0.17514083 0.06562728 0.19760692
0.20264123 0.064398095 -0.18427017 -0.23348987 -0.021128243 0.14806351 -0.008296669 0.003811504
0.18239114 -0.107234746 -0.18545452 -0.14737923 0.10940086 0.14554381 0.20804816 -0.13996838
0.12959358 -0.048731845 0.10825748 -0.11606894 -0.06454708 0.052542187 0.19478005 -0.06942086
0.106989644 -0.03464755 0.2284981 0.037573896 0.015146808 0.013110171 0.06023577 -0.0034293132
0.023379115 -0.06667218 0.120747454 -0.020960156 0.008880828 0.06708002 -0.021415643 0.06655027
-0.005145675 0.06896189 -0.1441942 -0.11979588 0.047500957 -0.07813467 0.06113335 0.013357164
-0.08161941 0.054494217 0.13638522 -0.12525211 0.015837915 0.044669475 0.03799132 -0.02118169
-0.20152728 0.059446186 -0.13092521 -0.17573884 -0.08138243 -0.031004775 -0.050429784 -0.19068323
-0.066682145 0.15252191 0.08360304 0.15286039 -0.08091189 0.03999704 0.010008515 -0.11347287
-0.021620108 0.01275581 -0.108421326 0.14268972 0.117846616 -0.14466581 0.019815639 0.032361135
0.10468349 0.0018908503 0.10617623 0.31152084 -0.099952154 0.009865841 0.028187688 -0.07184714
0.016276201 -0.05628262 0.07397111 -0.019484123 0.01462895 0.011585127 -0.010330176 0.1408831
-0.05054765 0.08199747 -0.1459836 -0.018217675 -0.16154999 -0.20616946 -0.11125386 -0.034880385
00000000: f973 d0bd 265d adbd f195 10bd c09e 8abc
00000010: d50b e1bc a39b 1abd 36cd c1bc 1aee b83b
00000020: 4d3c 0cbe fe03 59be 7c7b b6bd f2a6 adbd
00000030: eb23 933d b94e cfbd 3325 843d 65c4 8a3d
00000040: 7f61 7bbd a684 4c3e 6512 1e3e 8ceb 793e
00000050: b430 cabc ea97 9bbd 029d 2abd cb5c 713d
00000060: 80f4 cfbd 497f df3d bdde 2f3d 02e0 3cb8
00000070: 4087 77bd 3f1c 0d3e f659 17be 1564 51be
00000080: 164c 41be 995f 54bd 4f40 d2bc abd8 d2bb
00000090: 7c67 063e cf0a 6abd dc66 00be 1064 043d
000000a0: d17d 823e e8f6 92bd 4498 213e 22b3 153e
000000b0: 68e8 18be db45 5e3d 782b ce3c 5db1 4e3c
000000c0: a91f 0cbe cd47 9f3c 42fc 17bd 2bc7 753d
000000d0: 6f4f 1dbe 8b11 7abe 52a3 42be c96e 1cbe
000000e0: e675 243e 99a9 46bd 3363 033d 097c fabd
000000f0: e860 593d 4600 cd3d f0c9 b83c 725d 863d
00000100: e493 e73d 5073 50bd 25df 4abe 4b55 823d
00000110: 34cb 80bc 98aa 56bd 3911 d73d fbe0 6e3c
00000120: 7197 653d 5de2 19bd 3702 41be 7517 63be
00000130: 122f 0d3e 2f70 da3c 2171 503b 638e 8abb
00000140: 74f1 573e 5e26 b7bd e464 e13d 2019 8bbc
00000150: e400 a63d 2edb 203e 452b c03d 315a 36bd
00000160: 0e9c 513e 5228 203e cc8d a53d 28d4 d43d
00000170: a43d 7b3d eeac 11be aeba 3dbe 07a7 65be
00000180: 2cd2 ba3b 2f7c 51bd 3fbd 7abd 414b a0bd
00000190: 4063 4cbe 8739 2fbe 2228 1ebe e470 a4bd
000001a0: 64f4 543d 33cf da3b 0421 0cbe a313 05be
000001b0: 995a b7bd ce1d 7ebd 0081 67bd 7214 173e
000001c0: adc3 e83d 0088 e3b9 0676 08bd 20ae f2bd
000001d0: fd57 1bbd 714a 85bd 9251 48be 0fb2 3abe
000001e0: 644c 823e 98f5 57bd a66c 4dbe 37fe 23be
000001f0: b0ac 46be d829 90be 2f30 ab3d aa36 0f3e
00000200: 9391 443c 158d 133d 84b7 95bd b311 b73d
00000210: c22f 40be 2e74 0d3e a7a8 2cbd 1f10 023d
00000220: 84bd 50bd c768 bfbd fce1 033d bc64 2fbe
00000230: f6aa 183c 8092 74bd 139d 00be 4237 023d
00000240: a97f d6bd 0cf1 f93d 6035 42bd 1634 3b3d
00000250: 2275 d03c 1e58 33be 9867 863d 7859 4a3e
00000260: 2f81 4f3e 26e3 833d 52b1 3cbe f817 6fbe
00000270: 2315 adbc f69d 173e c1ee 07bc 6dca 793b
00000280: bec4 3a3e e49d dbbd cae7 3dbe 95ea 16be
00000290: 8f0d e03d 7009 153e 940a 553e df53 0fbe
000002a0: 2eb4 043e 0b9b 47bd 19b6 dd3d 8db5 edbd
000002b0: 4231 84bd 7a36 573d 6c74 473e 862c 8ebd
000002c0: 631d db3d 97ea 0dbd 68fb 693e 16e7 193d
000002d0: 512a 783c 0bcc 563c c8b9 763d 54be 60bb
000002e0: 8f85 bf3c 6d8b 88bd 714a f73d a2b4 abbc
000002f0: e480 113c 4061 893d dc6f afbc 824b 883d
00000300: 0d9d a8bb e43b 8d3d a5a7 13be 8b57 f5bd
00000310: 5d90 423d 1205 a0bd f766 7a3d 02d8 5a3c
00000320: 1428 a7bd 5435 5f3d 91a8 0b3e 1742 00be
00000330: 84be 813c 57f7 363d c99c 1b3d 3985 adbc
00000340: 2b5d 4ebe d87d 733d 4211 06be e2f4 33be
00000350: d5ab a6bd bafd fdbc 768f 4ebd 7742 43be
00000360: a690 88bd b42e 1c3e 1238 ab3d 6f87 1c3e
00000370: 22b5 a5bd f0d3 233d c1fa 233c 7764 e8bd
00000380: a71c b1bc bffd 503c 000c debd 411d 123e
00000390: 9159 f13d 4623 14be 6854 a23c 1c8d 043d
000003a0: 4c64 d63d 68d6 f73a ec72 d93d a97f 9f3e
000003b0: b7b3 ccbd 56a4 213c dee9 e63c 9824 93bd
000003c0: ab55 853c 9b88 66bd 2a7e 973d 2b9d 9fbc
000003d0: 43ae 6f3c 8bcf 3d3c e63f 29bc a943 103e
000003e0: 0d0b 4fbd 4aee a73d ba7c 15be 3c3d 95bc
000003f0: 5c6d 25be 161e 53be 10d9 e3bd bcde 0ebd

tcn_layers.0.tcnblock.network.1.net.4.bias f4 [33]
0.02867246 0.045316257 0.024763511 0.02816188 0.028857097 0.03834081 0.08618441 -0.033199023
0.045953836 0.027607445 0.014065525 0.03126908 0.037414867 0.0375487 -0.11054632 0.05492318
0.0045069074 0.015125434 0.055185564 0.017827315 -0.035463143 0.01601404 0.009454389 0.073750466
0.034628674 -0.0298832 -0.06133638 0.052614514 0.07797579 0.012671027 0.020010103 -0.06484862
-0.0048627467
00000000: 82e2 ea3c 8a9d 393d d9dc ca3c beb3 e63c
00000010: b865 ec3c 410b 1d3d 7481 b03d b3fb 07bd
00000020: 173a 3c3d 0229 e23c 1673 663c 0214 003d
00000030: 5540 193d aacc 193d 1c66 e2bd 21f7 603d
00000040: aeae 933b abd0 773c 420a 623d 970a 923c
00000050: cd41 11bd e02f 833c 95e6 1a3c 7c0a 973d
00000060: ccd6 0d3d 9dcd f4bc db3b 7bbd 5182 573d
00000070: c5b1 9f3d 249a 4f3c 3aec a33c 5acf 84bd
00000080: ad57 9fbb
