gcntcn_multi1.pt (torch, 645450 bytes, 286 tensors)

tcn_layers.0.tcnblock.network.0.conv1.bias f4 [11]
-0.19820213 -0.05875952 0.18796122 -0.13062993 0.07308281 -0.14281094 0.09196225 0.24171391
-0.0655411 0.036306933 0.10817627
00000000: 80f5 4abe d3ad 70bd e878 403e dac3 05be
00000010: 71ac 953d 083d 12be b456 bc3d da83 773e
00000020: 6a3a 86bd 94b6 143d 858b dd3d

tcn_layers.0.tcnblock.network.0.conv1.weight_g f4 [11, 1, 1]
0.638652 0.5747739 0.5308501 0.5992821 0.5371697 0.64148057 0.53542984 0.6436901
0.6834008 0.82276994 0.57251406
00000000: b37e 233f 6224 133f cbe5 073f 8d6a 193f
00000010: f483 093f 1238 243f ee11 093f e0c8 243f
00000020: 5bf3 2e3f 0da1 523f 4890 123f

tcn_layers.0.tcnblock.network.0.conv1.weight_v f4 [11, 11, 2]
-0.07671642 -0.0981119 0.1549435 0.2057792 -0.044104237 0.14939515 0.18670289 0.11380329
-0.07114919 0.050735258 0.00935035 0.1575676 0.01304487 -0.1827476 0.1870386 -0.02985342
0.083564825 -0.12711883 0.19962342 -0.10234254 0.011599275 0.16912347 -0.0754641 0.033522096
0.06120877 -0.117795005 0.03607301 0.1758643 0.20785557 0.08523451 0.20489027 0.16671474
0.21814261 -0.054490793 -0.19140188 0.17187397 0.062230993 0.11951156 -0.09235469 0.07250341
0.113992594 0.15398198 -0.15097773 0.0471256 -0.125594 -0.018366914 0.13396962 -0.042613827
-0.29954118 0.10001907 0.05441454 0.1623034 -0.28973782 0.06986695 0.091844514 0.025584506
-0.05371818 0.11872977 -0.0009413013 0.20285869 0.12238634 -0.033447627 -0.0031502068 0.07559068
-0.07069418 -0.3151489 -0.06690011 -0.08063927 0.23184879 0.21754648 0.15407883 0.06940212
0.24381603 -0.086642206 0.0076076016 0.1077206 0.11477107 0.050576083 0.14956151 0.07686344
-0.07088742 -0.10000975 -0.16129152 0.18121366 -0.098184854 -0.1087965 -0.038379505 0.05722579
-0.18028678 0.013971056 0.20378342 0.09280202 0.040131234 -0.21923785 0.0055080354 -0.057063077
0.18442461 0.14147985 0.04324054 -0.12230167 -0.024143605 0.0025730534 -0.14754517 0.21118715
0.012796545 -0.15790367 -0.062127903 0.04423899 0.06714049 0.057468724 0.020522319 0.07991784
0.0055921436 -0.108127646 -0.03930218 0.013130458 -0.08244031 -0.06654248 -0.039996706 -0.07884233
-0.26312214 -0.08843331 -0.2169543 -0.21471195 0.037279658 0.12603869 -0.13379794 0.039807606
0.0035430214 0.17492673 0.19862354 -0.016125273 0.054415457 -0.1107165 -0.16690765 -0.07656866
0.14349079 0.059124283 0.034140307 -0.011873928 0.10724005 0.12114923 -0.02012907 -0.09580342
-0.16711263 0.034372617 -0.12931886 0.018868035 -0.13221332 -0.14279902 0.0064124675 -0.067829646
0.044507936 -0.0022885564 0.06284402 0.1034249 0.11666405 0.13778812 0.060482506 0.1163124
0.024300091 0.06017736 -0.035251483 -0.03420462 0.16817074 0.031883314 0.2796244 0.120074265
-0.27167785 -0.037206523 -0.12869126 -0.028269205 -0.09588959 -0.048476964 0.020098759 -0.057471108
-0.3774076 -0.14515659 -0.03849287 0.046776623 0.12098125 0.054313064 0.0007134623 -0.08573706
-0.11246439 0.05447585 0.030209944 0.027020514 0.107246496 0.048734866 -0.0977043 -0.02969921
-0.18367049 0.031284176 0.053047664 0.03838916 0.037650164 0.059551045 -0.2785852 -0.010128116
0.26355848 -0.049160026 -0.17800674 -0.099178046 0.022532113 -0.16661443 -0.011165571 0.090951286
-0.07308057 0.115880445 0.13287209 0.051467836 -0.18710107 -0.07694355 -0.13554819 0.14027408
-0.14307787 -0.27679193 -0.037082925 -0.09235623 0.0026060266 0.03260077 -0.01650883 0.011272975
-0.029198047 0.20826231 -0.12060954 -0.23452723 -0.027051788 -0.12957682 -0.027546303 -0.030817408
-0.069158725 0.22151265 0.12505615 0.21624513 0.16962174 0.14857946 -0.34138444 -0.19950077
0.11595181 0.013793937
00000000: 801d 9dbd e4ee c8bd 82a9 1e3e c8b7 523e
00000010: a5a6 34bd 0bfb 183e 0b2f 3f3e b311 e93d
00000020: abb6 91bd c6cf 4f3d 3632 193c 6759 213e
00000030: 27ba 553c 3022 3bbe 0c87 3f3e 298f f4bc
00000040: 0924 ab3d 702b 02be 156a 4c3e f798 d1bd
00000050: e30a 3e3c b42e 2d3e ec8c 9abd 774e 093d
00000060: 0cb6 7a3d 823e f1bd 4bc1 133d c515 343e
00000070: 17d8 543e 6e8f ae3d c1ce 513e 45b7 2a3e
00000080: c760 5f3e bd31 5fbd dbfe 43be bbff 2f3e
00000090: ede5 7e3d 7ac2 f43d 7524 bdbd ab7c 943d
000000a0: f374 e93d 74ad 1d3e e899 1abe c606 413d
000000b0: b79b 00be 3676 96bc 552f 093e d68b 2ebd
000000c0: 765d 99be ccd6 cc3d c8e1 5e3d dd32 263e
000000d0: 8458 94be 6716 8f3d fa18 bc3d 9996 d13c
000000e0: 9807 5cbd 9828 f33d a9c1 76ba 30ba 4f3e
000000f0: b0a5 fa3d 6100 09bd b373 4ebb 49cf 9a3d
00000100: 1cc8 90bd 325b a1be ed02 89bd 3426 a5bd
00000110: c569 6d3e 81c4 5e3e d7c6 1d3e b322 8e3d
00000120: e9aa 793e 7871 b1bd 3049 f93b 9e9c dc3d
00000130: 180d eb3d de28 4f3d a726 193e 946a 9d3d
00000140: 6c2d 91bd e9d1 ccbd 9b29 25be 1390 393e
00000150: 2415 c9bd b3d0 debd d433 1dbd 9765 6a3d
00000160: 199d 38be dbe6 643c 9aac 503e fc0e be3d
00000170: a660 243d e37f 60be c07c b43b f9ba 69bd
00000180: ced9 3c3e 18e0 103e fe1c 313d 4c79 fabd
00000190: cfc8 c5bc aca0 283b 1516 17be 7241 583e
000001a0: 9aa8 513c 80b1 21be d479 7ebd f133 353d
000001b0: f480 893d 5364 6b3d 6c1e a83c f7ab a33d
000001c0: 4d3e b73b 0772 ddbd 53fb 20bd 2221 573c
000001d0: 77d6 a8bd 6c47 88bd 96d3 23bd 1678 a1bd
000001e0: f2b7 86be 861c b5bd 4529 5ebe 73dd 5bbe
000001f0: 8eb2 183d 4910 013e 5402 09be 4d0d 233d
00000200: 0932 683b fe1f 333e f863 4b3e 2619 84bc
00000210: bee2 5e3d 55bf e2bd d7e9 2abe 08d0 9cbd
00000220: 40ef 123e 4e2c 723d b5d6 0b3d dd8a 42bc
00000230: aca0 db3d 161d f83d b8e5 a4bc 9534 c4bd
00000240: 931f 2bbe 4dca 0c3d 2a6c 04be 2391 9a3c
00000250: ee62 07be e839 12be ad1f d23b 45ea 8abd
00000260: f44d 363d 9bfb 15bb 5eb4 803d 6fd0 d33d
00000270: 90ed ee3d 5418 0d3e 81bc 773d 3235 ee3d
00000280: fc10 c73c 897c 763d dc63 10bd 251a 0cbd
00000290: f334 2c3e 1498 023d ee2a 8f3e 7fe9 f53d
000002a0: 5c19 8bbe de65 18bd a4c7 03be d294 e7bc
000002b0: c361 c4bd c88f 46bd 27a6 a43c d366 6bbd
000002c0: 923b c1be eea3 14be b3aa 1dbd d898 3f3d
000002d0: 05c5 f73d 6077 5e3d a507 3b3a e996 afbd
000002e0: bb53 e6bd 1222 5f3d d87a f73c 205a dd3c
000002f0: 0da4 db3d 369e 473d 3119 c8bd c24b f3bc
00000300: 1e14 3cbe d623 003d 8248 593d f43d 1d3d
00000310: 0f37 1a3d cceb 733d b8a2 8ebe 66f0 25bc
00000320: 23f1 863e 065c 49bd 6647 36be dc1d cbbd
00000330: 4495 b83c f99c 2abe cdef 36bc ab44 ba3d
00000340: 44ab 95bd ba52 ed3d 9f0f 083e f0cf 523d
00000350: 6c97 3fbe 9494 9dbd 25cd 0abe 02a4 0f3e
00000360: 0183 12be acb7 8dbe 44e4 17bd 4325 bdbd
00000370: dfc9 2a3b 6388 053d 873d 87bc 49b2 383c
00000380: be30 efbc b742 553e 2202 f7bd e827 70be
00000390: b69b ddbc c9af 04be c9a8 e1bc ca74 fcbc
000003a0: 17a3 8dbd 36d4 623e b80e 003e 5d6f 5d3e
000003b0: 52b1 2d3e 3725 183e f1c9 aebe ee49 4cbe
000003c0: 2478 ed3d f7ff 613c

tcn_layers.0.tcnblock.network.0.conv2.bias f4 [11]
-0.0850663 0.0477845 -0.11741992 0.22350329 0.005513876 -0.009611233 0.084430955 0.07730271
0.1346839 0.08061142 0.21019433
00000000: 3e37 aebd aeb9 433d db79 f0bd 0cde 643e
00000010: bfad b43b 6f78 1dbc 23ea ac3d e250 9e3d
00000020: 94ea 093e 9a17 a53d 2f3d 573e

tcn_layers.0.tcnblock.network.0.conv2.weight_g f4 [11, 1, 1]
0.5237534 0.53259784 0.70882547 0.43803057 0.602091 0.66626483 0.6124326 0.5596639
0.53446233 0.59792477 0.5236879
00000000: b414 063f 5558 083f 9675 353f 8b45 e03e
00000010: a322 1a3f 5590 2a3f 62c8 1c3f 2246 0f3f
00000020: 86d2 083f 9911 193f 6910 063f

tcn_layers.0.tcnblock.network.0.conv2.weight_v f4 [11, 11, 2]
0.017853625 -0.0074045816 -0.028541643 0.07494254 0.04136211 -0.1298546 0.036531944 -0.0144593185
0.048931234 -0.04942185 -0.061589453 -0.084155105 -0.015756445 -0.19974181 -0.1180198 -0.097497396
0.12758006 -0.016231958 -0.06331003 0.062841736 0.1745235 0.24260475 0.15838966 0.01447623
-0.07263902 0.16575108 0.044040445 0.08118678 0.07755019 -0.14161074 -0.0076200515 -0.022780163
0.08670107 0.111478 0.17004946 0.072603285 -0.1568831 -0.058135115 0.1129253 -0.25445268
-0.1642523 -0.23859684 -0.1323203 -0.10662298 0.034522876 0.15474479 -0.08708104 -0.008702728
0.061157797 0.13278462 0.013627243 -0.090471834 0.03205231 0.0972269 -0.06008692 -0.032392252
-0.064128995 -0.117776126 -0.12815243 -0.082445465 0.2899687 0.32163012 0.0783043 0.08349384
0.0104271965 0.08220276 -0.16568433 -0.21203114 -0.16063008 -0.1502976 -0.08265135 0.15790457
0.1518076 0.22862215 -0.1834453 0.18732506 0.020310128 0.0040104454 0.10236202 0.1876393
-0.022999201 0.04221211 0.4143135 0.041700613 0.044683654 -0.10077264 -0.07662719 -0.01197751
0.14153697 -0.09125883 -0.085132584 -0.0065980023 0.09016294 0.23506562 0.097064264 0.15530339
-0.077734016 0.101246245 0.13010414 0.17339127 0.1338396 0.014353908 0.053801034 0.17017975
0.01312885 -0.2019163 -0.029352633 0.15901944 -0.02939312 0.03711139 -0.009653956 -0.009451965
-0.06808204 0.0821924 -0.109281465 -0.074737646 -0.0059785913 -0.0601178 0.14531553 0.07909433
0.14170708 0.15275043 0.24098669 -0.07430735 0.16003715 0.11542458 0.19102775 0.14799683
0.10250892 0.14287892 0.11602877 0.13547818 0.1399718 -0.09844565 -0.034626044 0.1495659
0.14692241 -0.024122667 0.0027239877 0.20581365 -0.11028691 -0.14362422 -0.09573473 0.11515508
-0.037825268 -0.070570916 -0.06428887 0.053653497 -0.148685 -0.033957373 0.24467607 0.28423727
0.01780558 -0.021679016 0.028948009 0.046593107 0.03019849 0.18839458 0.050794203 0.2010082
0.022816597 -0.071118325 0.00095089397 0.10563516 -0.0026930014 0.12710115 0.0132278735 -0.14151587
-0.022441722 0.031190261 -0.21795544 -0.13710587 -0.010292812 0.22219907 -0.11250054 0.17572787
0.050834157 0.031115178 -0.10241548 -0.026453555 -0.00081398565 -0.0068918644 0.060715437 0.04176463
-0.26655388 -0.149468 0.042748954 -0.06759461 0.13533106 0.048257478 0.25110066 0.27760807
0.017727597 -0.052250788 -0.08155864 0.022207899 0.034034573 0.04118671 0.0041788453 0.1114665
-0.13919054 -0.09723479 0.060719643 0.03275551 -0.014734414 -0.19254 -0.131583 0.04784265
0.14411677 0.2207478 0.1294746 0.14917819 0.29769066 0.18874381 -0.092003904 -0.11700294
0.053958394 0.010645404 -0.049179867 -0.05714307 -0.17992224 -0.23549636 -0.08890121 -0.07417156
-0.009169437 0.15952796 -0.119701795 -0.09999909 -0.13479412 0.081227705 -0.07876352 0.120958805
-0.024513932 -0.10246604 -0.23836169 -0.034706954 -0.04339963 0.17706925 -0.10129066 -0.011605218
-0.022560926 0.076904036
00000000: c441 923c 22a2 f2bb 2ad0 e9bc 797b 993d
00000010: 516b 293d 9bf8 04be 85a2 153d c7e6 6cbc
00000020: 1e6c 483d 916e 4abd 3945 7cbd 8359 acbd
00000030: a913 81bc 1e89 4cbe 5db4 f1bd b7ac c7bd
00000040: 59a4 023e e2f8 84bc b0a8 81bd 2bb3 803d
00000050: 4ab6 323e 616d 783e e630 223e b62d 6d3c
00000060: c4c3 94bd a7ba 293e c163 343d 4145 a63d
00000070: a2d2 9e3d 6802 11be a0b1 f9bb 779d babc
00000080: 5590 b13d 944e e43d 7221 2e3e 08b1 943d
00000090: f7a5 20be 161f 6ebd 6145 e73d 9f47 82be
000000a0: c131 28be bb52 74be f97e 07be 265d dabd
000000b0: dc67 0d3d 6b75 1e3e 8b57 b2bd e395 0ebc
000000c0: 9980 7a3d b1f8 073e cd44 5f3c 4c49 b9bd
000000d0: 4849 033d e61e c73d b41d 76bd bdad 04bd
000000e0: 1056 83bd 9c34 f1bd 643a 03be 2bd9 a8bd
000000f0: c776 943e b4ac a43e 015e a03d d2fe aa3d
00000100: d5d6 2a3c ec59 a83d 27a9 29be b11e 59be
00000110: 367c 24be 9de7 19be 1c45 a9bd bcb1 213e
00000120: 7473 1b3e ed1b 6a3e 16d9 3bbe 24d2 3f3e
00000130: 6d61 a63c 0e6a 833b 2ea3 d13d 8424 403e
00000140: d268 bcbc 9be6 2c3d e620 d43e 43ce 2a3d
00000150: 3506 373d e361 cebd b7ee 9cbd 513d 44bc
00000160: 11ef 103e e9e5 babd fe59 aebd 0e34 d8bb
00000170: 59a7 b83d 0bb5 703e a1c9 c63d da07 1f3e
00000180: 0333 9fbd 315a cf3d 053a 053e 7b8d 313e
00000190: 400d 093e a72c 6b3c 795e 5c3d 9a43 2e3e
000001a0: 631a 573c 26c3 4ebe ef74 f0bc fed5 223e
000001b0: d7c9 f0bc 1d02 183d a02b 1ebc 6adc 1abc
000001c0: 996e 8bbd 7d54 a83d f6ce dfbd 0d10 99bd
000001d0: 0fe8 c3bb 153e 76bd 98cd 143e 35fc a13d
000001e0: a91b 113e 9c6a 1c3e 37c5 763e 742e 98bd
000001f0: c7e0 233e b963 ec3d c79c 433e 7b8c 173e
00000200: 32f0 d13d da4e 123e 7ea0 ed3d cbba 0a3e
00000210: c454 0f3e df9d c9bd 0ad4 0dbd ce27 193e
00000220: d472 163e e69c c5bc ee84 323b d0c0 523e
00000230: 1ade e1bd 3a12 13be 9210 c4bd 6dd6 eb3d
00000240: abee 1abd 7c87 90bd e2a9 83bd c5c3 5b3d
00000250: e140 18be e316 0bbd 5d8c 7a3e 8c87 913e
00000260: 02dd 913c 3198 b1bc 6024 ed3c 6ad8 3e3d
00000270: d362 f73c 82ea 403e 950d 503d 18d5 4d3e
00000280: dfe9 ba3c 7ca6 91bd 6a45 793a 3f57 d83d
00000290: 117d 30bb ce26 023e b9b9 583c 89e9 10be
000002a0: b4d7 b7bc b882 ff3c b62f 5fbe 7b65 0cbe
000002b0: 2fa3 28bc 2788 633e af66 e6bd 02f2 333e
000002c0: 7a37 503d 42e5 fe3c 35bf d1bd 20b5 d8bc
000002d0: a761 55ba 26d5 e1bb c0b0 783d 6311 2b3d
000002e0: c079 88be 240e 19be 8719 2f3d 0b6f 8abd
000002f0: 3a94 0a3e a2a9 453d 4490 803e a522 8e3e
00000300: 7739 913c ec04 56bd 3708 a7bd 57ed b53c
00000310: d667 0b3d 65b3 283d b2ee 883b 8c48 e43d
00000320: f787 0ebe 0923 c7bd 29b5 783d a42a 063d
00000330: 9d68 71bc 3529 45be b2bd 06be a8f6 433d
00000340: 5993 133e b60b 623e fd94 043e 2bc2 183e
00000350: e96a 983e 0f46 413e 8b6c bcbd 3d9f efbd
00000360: 7a03 5d3d 106a 2e3c d470 49bd da0e 6abd
00000370: 893d 38be f525 71be d611 b6bd 42e7 97bd
00000380: 683b 16bc 4c5b 233e 3726 f5bd 53cc ccbd
00000390: 7807 0abe b65a a63d c54e a1bd 40b9 f73d
000003a0: 71d1 c8bc b7d9 d1bd 1615 74be e128 0ebd
000003b0: cfc3 31bd a451 353e 7a71 cfbd d023 3ebc
000003c0: b1d1 b8bc dd7f 9d3d

tcn_layers.0.tcnblock.network.0.net.0.bias f4 [11]
-0.19820213 -0.05875952 0.18796122 -0.13062993 0.07308281 -0.14281094 0.09196225 0.24171391
-0.0655411 0.036306933 0.10817627
00000000: 80f5 4abe d3ad 70bd e878 403e dac3 05be
00000010: 71ac 953d 083d 12be b456 bc3d da83 773e
00000020: 6a3a 86bd 94b6 143d 858b dd3d

tcn_layers.0.tcnblock.network.0.net.0.weight_g f4 [11, 1, 1]
0.638652 0.5747739 0.5308501 0.5992821 0.5371697 0.64148057 0.53542984 0.6436901
0.6834008 0.82276994 0.57251406
00000000: b37e 233f 6224 133f cbe5 073f 8d6a 193f
00000010: f483 093f 1238 243f ee11 093f e0c8 243f
00000020: 5bf3 2e3f 0da1 523f 4890 123f

tcn_layers.0.tcnblock.network.0.net.0.weight_v f4 [11, 11, 2]
-0.07671642 -0.0981119 0.1549435 0.2057792 -0.044104237 0.14939515 0.18670289 0.11380329
-0.07114919 0.050735258 0.00935035 0.1575676 0.01304487 -0.1827476 0.1870386 -0.02985342
0.083564825 -0.12711883 0.19962342 -0.10234254 0.011599275 0.16912347 -0.0754641 0.033522096
0.06120877 -0.117795005 0.03607301 0.1758643 0.20785557 0.08523451 0.20489027 0.16671474
0.21814261 -0.054490793 -0.19140188 0.17187397 0.062230993 0.11951156 -0.09235469 0.07250341
0.113992594 0.15398198 -0.15097773 0.0471256 -0.125594 -0.018366914 0.13396962 -0.042613827
-0.29954118 0.10001907 0.05441454 0.1623034 -0.28973782 0.06986695 0.091844514 0.025584506
-0.05371818 0.11872977 -0.0009413013 0.20285869 0.12238634 -0.033447627 -0.0031502068 0.07559068
-0.07069418 -0.3151489 -0.06690011 -0.08063927 0.23184879 0.21754648 0.15407883 0.06940212
0.24381603 -0.086642206 0.0076076016 0.1077206 0.11477107 0.050576083 0.14956151 0.07686344
-0.07088742 -0.10000975 -0.16129152 0.18121366 -0.098184854 -0.1087965 -0.038379505 0.05722579
-0.18028678 0.013971056 0.20378342 0.09280202 0.040131234 -0.21923785 0.0055080354 -0.057063077
0.18442461 0.14147985 0.04324054 -0.12230167 -0.024143605 0.0025730534 -0.14754517 0.21118715
0.012796545 -0.15790367 -0.062127903 0.04423899 0.06714049 0.057468724 0.020522319 0.07991784
0.0055921436 -0.108127646 -0.03930218 0.013130458 -0.08244031 -0.06654248 -0.039996706 -0.07884233
-0.26312214 -0.08843331 -0.2169543 -0.21471195 0.037279658 0.12603869 -0.13379794 0.039807606
0.0035430214 0.17492673 0.19862354 -0.016125273 0.054415457 -0.1107165 -0.16690765 -0.07656866
0.14349079 0.059124283 0.034140307 -0.011873928 0.10724005 0.12114923 -0.02012907 -0.09580342
-0.16711263 0.034372617 -0.12931886 0.018868035 -0.13221332 -0.14279902 0.0064124675 -0.067829646
0.044507936 -0.0022885564 0.06284402 0.1034249 0.11666405 0.13778812 0.060482506 0.1163124
0.024300091 0.06017736 -0.035251483 -0.03420462 0.16817074 0.031883314 0.2796244 0.120074265
-0.27167785 -0.037206523 -0.12869126 -0.028269205 -0.09588959 -0.048476964 0.020098759 -0.057471108
-0.3774076 -0.14515659 -0.03849287 0.046776623 0.12098125 0.054313064 0.0007134623 -0.08573706
-0.11246439 0.05447585 0.030209944 0.027020514 0.107246496 0.048734866 -0.0977043 -0.02969921
-0.18367049 0.031284176 0.053047664 0.03838916 0.037650164 0.059551045 -0.2785852 -0.010128116
0.26355848 -0.049160026 -0.17800674 -0.099178046 0.022532113 -0.16661443 -0.011165571 0.090951286
-0.07308057 0.115880445 0.13287209 0.051467836 -0.18710107 -0.07694355 -0.13554819 0.14027408
-0.14307787 -0.27679193 -0.037082925 -0.09235623 0.0026060266 0.03260077 -0.01650883 0.011272975
-0.029198047 0.20826231 -0.12060954 -0.23452723 -0.027051788 -0.12957682 -0.027546303 -0.030817408
-0.069158725 0.22151265 0.12505615 0.21624513 0.16962174 0.14857946 -0.34138444 -0.19950077
0.11595181 0.013793937
00000000: 801d 9dbd e4ee c8bd 82a9 1e3e c8b7 523e
00000010: a5a6 34bd 0bfb 183e 0b2f 3f3e b311 e93d
00000020: abb6 91bd c6cf 4f3d 3632 193c 6759 213e
00000030: 27ba 553c 3022 3bbe 0c87 3f3e 298f f4bc
00000040: 0924 ab3d 702b 02be 156a 4c3e f798 d1bd
00000050: e30a 3e3c b42e 2d3e ec8c 9abd 774e 093d
00000060: 0cb6 7a3d 823e f1bd 4bc1 133d c515 343e
00000070: 17d8 543e 6e8f ae3d c1ce 513e 45b7 2a3e
00000080: c760 5f3e bd31 5fbd dbfe 43be bbff 2f3e
00000090: ede5 7e3d 7ac2 f43d 7524 bdbd ab7c 943d
000000a0: f374 e93d 74ad 1d3e e899 1abe c606 413d
000000b0: b79b 00be 3676 96bc 552f 093e d68b 2ebd
000000c0: 765d 99be ccd6 cc3d c8e1 5e3d dd32 263e
000000d0: 8458 94be 6716 8f3d fa18 bc3d 9996 d13c
000000e0: 9807 5cbd 9828 f33d a9c1 76ba 30ba 4f3e
000000f0: b0a5 fa3d 6100 09bd b373 4ebb 49cf 9a3d
00000100: 1cc8 90bd 325b a1be ed02 89bd 3426 a5bd
00000110: c569 6d3e 81c4 5e3e d7c6 1d3e b322 8e3d
00000120: e9aa 793e 7871 b1bd 3049 f93b 9e9c dc3d
00000130: 180d eb3d de28 4f3d a726 193e 946a 9d3d
00000140: 6c2d 91bd e9d1 ccbd 9b29 25be 1390 393e
00000150: 2415 c9bd b3d0 debd d433 1dbd 9765 6a3d
00000160: 199d 38be dbe6 643c 9aac 503e fc0e be3d
00000170: a660 243d e37f 60be c07c b43b f9ba 69bd
00000180: ced9 3c3e 18e0 103e fe1c 313d 4c79 fabd
00000190: cfc8 c5bc aca0 283b 1516 17be 7241 583e
000001a0: 9aa8 513c 80b1 21be d479 7ebd f133 353d
000001b0: f480 893d 5364 6b3d 6c1e a83c f7ab a33d
000001c0: 4d3e b73b 0772 ddbd 53fb 20bd 2221 573c
000001d0: 77d6 a8bd 6c47 88bd 96d3 23bd 1678 a1bd
000001e0: f2b7 86be 861c b5bd 4529 5ebe 73dd 5bbe
000001f0: 8eb2 183d 4910 013e 5402 09be 4d0d 233d
00000200: 0932 683b fe1f 333e f863 4b3e 2619 84bc
00000210: bee2 5e3d 55bf e2bd d7e9 2abe 08d0 9cbd
00000220: 40ef 123e 4e2c 723d b5d6 0b3d dd8a 42bc
00000230: aca0 db3d 161d f83d b8e5 a4bc 9534 c4bd
00000240: 931f 2bbe 4dca 0c3d 2a6c 04be 2391 9a3c
00000250: ee62 07be e839 12be ad1f d23b 45ea 8abd
00000260: f44d 363d 9bfb 15bb 5eb4 803d 6fd0 d33d
00000270: 90ed ee3d 5418 0d3e 81bc 773d 3235 ee3d
00000280: fc10 c73c 897c 763d dc63 10bd 251a 0cbd
00000290: f334 2c3e 1498 023d ee2a 8f3e 7fe9 f53d
000002a0: 5c19 8bbe de65 18bd a4c7 03be d294 e7bc
000002b0: c361 c4bd c88f 46bd 27a6 a43c d366 6bbd
000002c0: 923b c1be eea3 14be b3aa 1dbd d898 3f3d
000002d0: 05c5 f73d 6077 5e3d a507 3b3a e996 afbd
000002e0: bb53 e6bd 1222 5f3d d87a f73c 205a dd3c
000002f0: 0da4 db3d 369e 473d 3119 c8bd c24b f3bc
00000300: 1e14 3cbe d623 003d 8248 593d f43d 1d3d
00000310: 0f37 1a3d cceb 733d b8a2 8ebe 66f0 25bc
00000320: 23f1 863e 065c 49bd 6647 36be dc1d cbbd
00000330: 4495 b83c f99c 2abe cdef 36bc ab44 ba3d
00000340: 44ab 95bd ba52 ed3d 9f0f 083e f0cf 523d
00000350: 6c97 3fbe 9494 9dbd 25cd 0abe 02a4 0f3e
00000360: 0183 12be acb7 8dbe 44e4 17bd 4325 bdbd
00000370: dfc9 2a3b 6388 053d 873d 87bc 49b2 383c
00000380: be30 efbc b742 553e 2202 f7bd e827 70be
00000390: b69b ddbc c9af 04be c9a8 e1bc ca74 fcbc
000003a0: 17a3 8dbd 36d4 623e b80e 003e 5d6f 5d3e
000003b0: 52b1 2d3e 3725 183e f1c9 aebe ee49 4cbe
000003c0: 2478 ed3d f7ff 613c

tcn_layers.0.tcnblock.network.0.net.4.bias f4 [11]
-0.0850663 0.0477845 -0.11741992 0.22350329 0.005513876 -0.009611233 0.084430955 0.07730271
0.1346839 0.08061142 0.21019433
00000000: 3e37 aebd aeb9 433d db79 f0bd 0cde 643e
00000010: bfad b43b 6f78 1dbc 23ea ac3d e250 9e3d
00000020: 94ea 093e 9a17 a53d 2f3d 573e

tcn_layers.0.tcnblock.network.0.net.4.weight_g f4 [11, 1, 1]
0.5237534 0.53259784 0.70882547 0.43803057 0.602091 0.66626483 0.6124326 0.5596639
0.53446233 0.59792477 0.5236879
00000000: b414 063f 5558 083f 9675 353f 8b45 e03e
00000010: a322 1a3f 5590 2a3f 62c8 1c3f 2246 0f3f
00000020: 86d2 083f 9911 193f 6910 063f

tcn_layers.0.tcnblock.network.0.net.4.weight_v f4 [11, 11, 2]
0.017853625 -0.0074045816 -0.028541643 0.07494254 0.04136211 -0.1298546 0.036531944 -0.0144593185
0.048931234 -0.04942185 -0.061589453 -0.084155105 -0.015756445 -0.19974181 -0.1180198 -0.097497396
0.12758006 -0.016231958 -0.06331003 0.062841736 0.1745235 0.24260475 0.15838966 0.01447623
-0.07263902 0.16575108 0.044040445 0.08118678 0.07755019 -0.14161074 -0.0076200515 -0.022780163
0.08670107 0.111478 0.17004946 0.072603285 -0.1568831 -0.058135115 0.1129253 -0.25445268
-0.1642523 -0.23859684 -0.1323203 -0.10662298 0.034522876 0.15474479 -0.08708104 -0.008702728
0.061157797 0.13278462 0.013627243 -0.090471834 0.03205231 0.0972269 -0.06008692 -0.032392252
-0.064128995 -0.117776126 -0.12815243 -0.082445465 0.2899687 0.32163012 0.0783043 0.08349384
0.0104271965 0.08220276 -0.16568433 -0.21203114 -0.16063008 -0.1502976 -0.08265135 0.15790457
0.1518076 0.22862215 -0.1834453 0.18732506 0.020310128 0.0040104454 0.10236202 0.1876393
-0.022999201 0.04221211 0.4143135 0.041700613 0.044683654 -0.10077264 -0.07662719 -0.01197751
0.14153697 -0.09125883 -0.085132584 -0.0065980023 0.09016294 0.23506562 0.097064264 0.15530339
-0.077734016 0.101246245 0.13010414 0.17339127 0.1338396 0.014353908 0.053801034 0.17017975
0.01312885 -0.2019163 -0.029352633 0.15901944 -0.02939312 0.03711139 -0.009653956 -0.009451965
-0.06808204 0.0821924 -0.109281465 -0.074737646 -0.0059785913 -0.0601178 0.14531553 0.07909433
0.14170708 0.15275043 0.24098669 -0.07430735 0.16003715 0.11542458 0.19102775 0.14799683
0.10250892 0.14287892 0.11602877 0.13547818 0.1399718 -0.09844565 -0.034626044 0.1495659
0.14692241 -0.024122667 0.0027239877 0.20581365 -0.11028691 -0.14362422 -0.09573473 0.11515508
-0.037825268 -0.070570916 -0.06428887 0.053653497 -0.148685 -0.033957373 0.24467607 0.28423727
0.01780558 -0.021679016 0.028948009 0.046593107 0.03019849 0.18839458 0.050794203 0.2010082
0.022816597 -0.071118325 0.00095089397 0.10563516 -0.0026930014 0.12710115 0.0132278735 -0.14151587
-0.022441722 0.031190261 -0.21795544 -0.13710587 -0.010292812 0.22219907 -0.11250054 0.17572787
0.050834157 0.031115178 -0.10241548 -0.026453555 -0.00081398565 -0.0068918644 0.060715437 0.04176463
-0.26655388 -0.149468 0.042748954 -0.06759461 0.13533106 0.048257478 0.25110066 0.27760807
0.017727597 -0.052250788 -0.08155864 0.022207899 0.034034573 0.04118671 0.0041788453 0.1114665
-0.13919054 -0.09723479 0.060719643 0.03275551 -0.014734414 -0.19254 -0.131583 0.04784265
0.14411677 0.2207478 0.1294746 0.14917819 0.29769066 0.18874381 -0.092003904 -0.11700294
0.053958394 0.010645404 -0.049179867 -0.05714307 -0.17992224 -0.23549636 -0.08890121 -0.07417156
-0.009169437 0.15952796 -0.119701795 -0.09999909 -0.13479412 0.081227705 -0.07876352 0.120958805
-0.024513932 -0.10246604 -0.23836169 -0.034706954 -0.04339963 0.17706925 -0.10129066 -0.011605218
-0.022560926 0.076904036
00000000: c441 923c 22a2 f2bb 2ad0 e9bc 797b 993d
00000010: 516b 293d 9bf8 04be 85a2 153d c7e6 6cbc
00000020: 1e6c 483d 916e 4abd 3945 7cbd 8359 acbd
00000030: a913 81bc 1e89 4cbe 5db4 f1bd b7ac c7bd
00000040: 59a4 023e e2f8 84bc b0a8 81bd 2bb3 803d
00000050: 4ab6 323e 616d 783e e630 223e b62d 6d3c
00000060: c4c3 94bd a7ba 293e c163 343d 4145 a63d
00000070: a2d2 9e3d 6802 11be a0b1 f9bb 779d babc
00000080: 5590 b13d 944e e43d 7221 2e3e 08b1 943d
00000090: f7a5 20be 161f 6ebd 6145 e73d 9f47 82be
000000a0: c131 28be bb52 74be f97e 07be 265d dabd
000000b0: dc67 0d3d 6b75 1e3e 8b57 b2bd e395 0ebc
000000c0: 9980 7a3d b1f8 073e cd44 5f3c 4c49 b9bd
000000d0: 4849 033d e61e c73d b41d 76bd bdad 04bd
000000e0: 1056 83bd 9c34 f1bd 643a 03be 2bd9 a8bd
000000f0: c776 943e b4ac a43e 015e a03d d2fe aa3d
00000100: d5d6 2a3c ec59 a83d 27a9 29be b11e 59be
00000110: 367c 24be 9de7 19be 1c45 a9bd bcb1 213e
00000120: 7473 1b3e ed1b 6a3e 16d9 3bbe 24d2 3f3e
00000130: 6d61 a63c 0e6a 833b 2ea3 d13d 8424 403e
00000140: d268 bcbc 9be6 2c3d e620 d43e 43ce 2a3d
00000150: 3506 373d e361 cebd b7ee 9cbd 513d 44bc
00000160: 11ef 103e e9e5 babd fe59 aebd 0e34 d8bb
00000170: 59a7 b83d 0bb5 703e a1c9 c63d da07 1f3e
00000180: 0333 9fbd 315a cf3d 053a 053e 7b8d 313e
00000190: 400d 093e a72c 6b3c 795e 5c3d 9a43 2e3e
000001a0: 631a 573c 26c3 4ebe ef74 f0bc fed5 223e
000001b0: d7c9 f0bc 1d02 183d a02b 1ebc 6adc 1abc
000001c0: 996e 8bbd 7d54 a83d f6ce dfbd 0d10 99bd
000001d0: 0fe8 c3bb 153e 76bd 98cd 143e 35fc a13d
000001e0: a91b 113e 9c6a 1c3e 37c5 763e 742e 98bd
000001f0: c7e0 233e b963 ec3d c79c 433e 7b8c 173e
00000200: 32f0 d13d da4e 123e 7ea0 ed3d cbba 0a3e
00000210: c454 0f3e df9d c9bd 0ad4 0dbd ce27 193e
00000220: d472 163e e69c c5bc ee84 323b d0c0 523e
00000230: 1ade e1bd 3a12 13be 9210 c4bd 6dd6 eb3d
00000240: abee 1abd 7c87 90bd e2a9 83bd c5c3 5b3d
00000250: e140 18be e316 0bbd 5d8c 7a3e 8c87 913e
00000260: 02dd 913c 3198 b1bc 6024 ed3c 6ad8 3e3d
00000270: d362 f73c 82ea 403e 950d 503d 18d5 4d3e
00000280: dfe9 ba3c 7ca6 91bd 6a45 793a 3f57 d83d
00000290: 117d 30bb ce26 023e b9b9 583c 89e9 10be
000002a0: b4d7 b7bc b882 ff3c b62f 5fbe 7b65 0cbe
000002b0: 2fa3 28bc 2788 633e af66 e6bd 02f2 333e
000002c0: 7a37 503d 42e5 fe3c 35bf d1bd 20b5 d8bc
000002d0: a761 55ba 26d5 e1bb c0b0 783d 6311 2b3d
000002e0: c079 88be 240e 19be 8719 2f3d 0b6f 8abd
000002f0: 3a94 0a3e a2a9 453d 4490 803e a522 8e3e
00000300: 7739 913c ec04 56bd 3708 a7bd 57ed b53c
00000310: d667 0b3d 65b3 283d b2ee 883b 8c48 e43d
00000320: f787 0ebe 0923 c7bd 29b5 783d a42a 063d
00000330: 9d68 71bc 3529 45be b2bd 06be a8f6 433d
00000340: 5993 133e b60b 623e fd94 043e 2bc2 183e
00000350: e96a 983e 0f46 413e 8b6c bcbd 3d9f efbd
00000360: 7a03 5d3d 106a 2e3c d470 49bd da0e 6abd
00000370: 893d 38be f525 71be d611 b6bd 42e7 97bd
00000380: 683b 16bc 4c5b 233e 3726 f5bd 53cc ccbd
00000390: 7807 0abe b65a a63d c54e a1bd 40b9 f73d
000003a0: 71d1 c8bc b7d9 d1bd 1615 74be e128 0ebd
000003b0: cfc3 31bd a451 353e 7a71 cfbd d023 3ebc
000003c0: b1d1 b8bc dd7f 9d3d

tcn_layers.0.tcnblock.network.1.conv1.bias f4 [32]
0.07794335 -0.07588309 0.059851967 0.12042782 0.14178593 0.09552888 -0.08616587 0.061935607
0.09594416 -0.1918798 -0.075302295 0.18883348 -0.011452379 0.050684113 0.025914092 -0.084395505
-0.11531793 0.0109652765 -0.1841629 0.028339762 -0.18558405 0.17478342 -0.21721946 -0.21525887
0.06497274 0.027210606 -0.18360162 -0.045409225 0.05231006 -0.06037569 0.10189732 -0.16121592
00000000: c3a0 9f3d 9868 9bbd 5627 753d dca2 f63d
00000010: 5530 113e a5a4 c33d bb77 b0bd 31b0 7d3d
00000020: 5f7e c43d 237c 44be 1738 9abd 905d 413e
00000030: c2a2 3bbc 259a 4f3d ca49 d43c 8dd7 acbd
00000040: cf2b ecbd b4a7 333c 3395 3cbe ca28 e83c
00000050: bf09 3ebe 6dfa 323e c76e 5ebe d26c 5cbe
00000060: 6e10 853d c7e8 de3c 1002 3cbe 06ff 39bd
00000070: 1343 563d 804c 77bd 8baf d03d c915 25be

tcn_layers.0.tcnblock.network.1.conv1.weight_g f4 [32, 1, 1]
0.7626099 0.7010751 0.67660767 0.5815799 0.91369134 0.5937381 0.5586284 0.59762406
0.55493116 0.58499193 0.62050307 0.5814383 0.52014446 0.6840268 0.52563393 0.57490605
0.54513115 0.7545796 0.48522344 0.5801182 0.6648386 0.7703799 0.5739589 0.62889284
0.66672534 0.779778 0.5389906 0.6851161 0.56908786 0.60374343 0.55727243 0.745009
00000000: 673a 433f a879 333f 2936 2d3f 6ce2 143f
00000010: ade7 693f 38ff 173f 4502 0f3f e4fd 183f
00000020: f80f 0e3f 08c2 153f 4ad9 1e3f 24d9 143f
00000030: 3028 053f 611c 2f3f f28f 063f 0b2d 133f
00000040: b78d 0b3f 212c 413f 356f f83e a082 143f
00000050: dd32 2a3f 9e37 453f f8ee 123f 1fff 203f
00000060: 83ae 2a3f 889f 473f 4afb 093f c563 2f3f
00000070: beaf 113f ee8e 1a3f 68a9 0e3f e9b8 3e3f

tcn_layers.0.tcnblock.network.1.conv1.weight_v f4 [32, 11, 2]
0.054075643 0.100947686 -0.11603325 -0.038447846 0.07096983 -0.05487478 0.045492936 -0.04652566
-0.048365563 -0.072156176 -0.06938806 -0.08979264 0.02612397 0.082630776 0.24946874 0.1858307
-0.14054085 0.009288722 -0.14884815 -0.061661776 -0.0016758856 -0.043612435 -0.06098398 0.051563274
0.0045245467 -0.07074816 -0.17460388 -0.07083532 0.072286986 0.2689458 -0.039539486 -0.22971159
0.10329701 0.14778398 -0.19862835 -0.14206837 -0.057040274 -0.032748744 -0.12759942 0.08549181
-0.070273496 -0.08380707 -0.01337321 -0.1411632 0.0364144 0.21234007 0.017636431 0.21988015
0.2600798 -0.09367987 0.01630816 -0.04241175 0.12230102 -0.027998842 0.15149392 -0.09187118
-0.14449714 -0.21249466 -0.015579077 0.065309264 0.16846833 -0.08876486 -0.21793506 -0.20827042
-0.063124634 0.18968086 0.07243653 0.24632412 -0.093687914 -0.023168992 0.12012602 0.021255922
-0.12985028 -0.20067 0.055639524 -0.05342721 0.19653086 -0.15066755 0.010361433 0.038209848
-0.14178228 -0.14965196 -0.14925733 0.17276144 -0.01756293 0.086805366 -0.075876884 -0.088049516
0.086416036 0.039384518 0.08452914 0.18319647 0.08554058 0.06217202 -0.111230314 -0.15540007
-0.13372917 0.108708285 -0.17665924 -0.053621456 -0.05473311 0.06512509 0.019292219 0.06849366
-0.06912361 -0.07419559 -0.2172374 -0.24543345 -0.06747106 -0.048344202 0.09879046 0.19971165
0.061831452 0.19409399 -0.17623761 -0.08395209 -0.05386851 0.04338656 0.13909464 -0.07647725
0.11630608 -0.09766797 -0.14704703 0.20935568 0.1513192 0.07102532 -0.15953393 0.05840282
-0.14667171 0.11966675 0.145949 -0.056345776 -0.046190422 -0.11661843 -0.115534164 -0.043241136
-0.13557631 0.010553995 -0.08866976 -0.017464656 0.07336576 -0.055776525 -0.084984735 -0.070233926
0.19105415 -0.06811553 -0.17677857 -0.18157934 0.026433647 0.117005765 -0.2409879 -0.0008049899
-0.13442625 -0.11749408 -0.06421084 0.09007503 0.03010279 -0.1593052 0.056799974 0.09007893
0.0015617802 -0.06385035 -0.23690724 -0.09843156 -0.08162329 -0.07150306 0.084458254 -0.09316565
0.22479393 0.09455559 0.023701672 0.03402297 -0.09291037 -0.1633512 0.031830203 0.17174852
-0.1535589 0.029090984 0.062261 0.0008500848 0.2647791 -0.05142791 0.009003881 0.07510825
0.024371965 0.12141156 0.021709546 -0.23356998 0.12730038 0.1968621 -0.036540683 0.22230315
-0.06221582 -0.07463215 0.15861161 0.005491613 0.22507459 -0.18960685 -0.019087655 -0.012737522
-0.03134498 -0.15147564 -0.1800026 0.014961676 -0.20310766 0.14907415 0.17988001 0.18473338
0.114552595 -0.06676699 0.048049875 -0.07313217 -0.09728421 0.023603871 0.06235459 0.051086508
0.21133198 0.23244284 -0.049499456 -0.07783055 0.16217521 0.026631983 -0.07073523 -0.06571469
-0.10313419 -0.14453475 0.18157823 -0.09586053 -0.18674253 0.049324222 -0.19955726 -0.16500449
0.18126924 0.012879905 0.2647796 0.10292195 -0.15159899 0.16308199 0.18273425 0.022665907
0.07474698 0.013389201 -0.110433325 0.24748944 -0.031126145 -0.13144757 0.17475267 -0.19428802
0.00804119 0.21527062 0.030596565 0.057050977 0.11905833 0.0766992 0.037031814 0.114981934
00000000: 6c7e 5d3d a9bd ce3d d7a2 edbd 7d7b 1dbd
00000010: a158 913d 61c4 60bd cd56 3a3d b191 3ebd
00000020: f81a 46bd 9ec6 93bd 541b 8ebd 34e5 b7bd
00000030: f001 d63c 533a a93d bc74 7f3e 674a 3e3e
00000040: f1e9 0fbe b92f 183c a66b 18be 0f91 7cbd
00000050: 64a9 dbba f4a2 32bd 56ca 79bd 0334 533d
00000060: a642 943b 69e4 90bd 5ccb 32be 1c12 91bd
00000070: 330b 943d 44b3 893e 28f4 21bd 8439 6bbe
00000080: 628d d33d af54 173e 3b65 4bbe 5f7a 11be
00000090: 10a3 69bd 8c23 06bd 6ca9 02be 5516 af3d
000000a0: 8deb 8fbd 0ba3 abbd 4f1b 5bbc 168d 10be
000000b0: 4427 153d ad6f 593e 477a 903c 4328 613e
000000c0: 2e29 853e 3bdb bfbd b198 853c f1b7 2dbd
000000d0: f578 fa3d d45d e5bc 3921 1b3e f526 bcbd
000000e0: 0ff7 13be 3398 59be 633f 7fbc ddc0 853d
000000f0: f682 2c3e 5aca b5bd 5e2a 5fbe d744 55be
00000100: 7d47 81bd b33b 423e 9a59 943d 643c 7c3e
00000110: 73df bfbd e6cc bdbc a104 f63d e620 ae3c
00000120: 79f7 04be 707c 4dbe 45e6 633d 7dd6 5abd
00000130: 633f 493e 9848 1abe 00c3 293c ee81 1c3d
00000140: 602f 11be 5d3e 19be ead6 18be 60e8 303e
00000150: 22e0 8fbc 03c7 b13d 5765 9bbd 4e53 b4bd
00000160: e4fa b03d a951 213d 9d1d ad3d db97 3b3e
00000170: e62f af3d 17a8 7e3d b8cc e3bd 3221 1fbe
00000180: 4df0 08be 73a2 de3d 29e6 34be 2ca2 5bbd
00000190: d32f 60bd 4e60 853d b70a 9e3c 6746 8c3d
000001a0: ae90 8dbd dcf3 97bd 7b73 5ebe e852 7bbe
000001b0: 442e 8abd 9204 46bd a752 ca3d 3681 4c3e
000001c0: fa42 7d3d 93c0 463e a277 34be 13ef abbd
000001d0: 3aa5 5cbd 1bb6 313d d36e 0e3e 1ba0 9cbd
000001e0: e231 ee3d 2506 c8bd 7f93 16be 5661 563e
000001f0: 6cf3 1a3e b975 913d dd5c 23be cc37 6f3d
00000200: 1c31 16be d713 f53d a873 153e d4ca 66bd
00000210: 2b32 3dbd a5d5 eebd 2d9d ecbd 9e1d 31bd
00000220: 84d4 0abe aaea 2c3c 7e98 b5bd 0a12 8fbc
00000230: ca40 963d ed75 64bd 7a0c aebd ced6 8fbd
00000240: b3a3 433e 2880 8bbd 7105 35be efef 39be
00000250: 608b d83c b8a0 ef3d 88c5 76be f505 53ba
00000260: 09a7 09be bca0 f0bd f980 83bd 4279 b83d
00000270: 209a f63c e720 23be 17a7 683d 4d7b b83d
00000280: a6b4 cc3a f9c3 82bd d097 72be 7c96 c9bd
00000290: 1d2a a7bd 3270 92bd 73f8 ac3d a2cd bebd
000002a0: 6130 663e 5ca6 c13d 022a c23c ab5b 0b3d
000002b0: cb47 bebd 8945 27be 6360 023d d8de 2f3e
000002c0: 8b3e 1dbe 3750 ee3c 6405 7f3d 3ad8 5e3a
000002d0: 2091 873e 12a6 52bd 0485 133c 5bd2 993d
000002e0: b7a7 c73c a0a6 f83d 38d8 b13c f82c 6fbe
000002f0: 085b 023e 3896 493e afab 15bd 70a3 633e
00000300: 04d6 7ebd bed8 98bd 156b 223e fdf2 b33b
00000310: f479 663e 4c28 42be b75d 9cbc 0ab1 50bc
00000320: 9863 00bd 6e1c 1bbe 9a52 38be d121 753c
00000330: 74fb 4fbe e5a6 183e 7732 383e bf2a 3d3e
00000340: 8d9a ea3d 22bd 88bd f2cf 443d 52c6 95bd
00000350: f23c c7bd e85c c13c 8767 7f3d 1640 513d
00000360: 6967 583e 7f05 6e3e f1bf 4abd a065 9fbd
00000370: 4211 263e 512b da3c a2dd 90bd 6c95 86bd
00000380: 0538 d3bd eb00 14be a5ef 393e 8752 c4bd
00000390: 6f39 3fbe 3208 4a3d bd58 4cbe f0f6 28be
000003a0: a59e 393e 3d06 533c 3191 873e bec8 d23d
000003b0: c43c 1bbe f7fe 263e b01e 3b3e daad b93c
000003c0: f214 993d 615e 5b3c de2a e2bd df6d 7d3e
000003d0: 42fc febc 319a 06be 5df2 323e 70f3 46be
000003e0: 32bf 033c e76f 5c3e a6a5 fa3c 49ae 693d
000003f0: dbd4 f33d 7814 9d3d acae 173d a67b eb3d

tcn_layers.0.tcnblock.network.1.conv2.bias f4 [32]
0.08379599 -0.051316436 -0.04520103 0.05088981 0.008365511 0.1363228 0.101082 -0.066021554
0.106013425 0.06595737 0.04764251 -0.0027921172 0.09824632 0.0063474053 -0.028725438 -0.049398106
0.0476219 0.0036235543 0.09266005 0.11215349 0.105660096 0.028539794 0.05592407 0.074429326
0.11279469 0.050472762 -0.023077017 0.017071778 0.021507978 0.093951985 0.051411163 -0.0933077
00000000: 3b9d ab3d 2f31 52bd b724 39bd d571 503d
00000010: 7f0f 093c 3498 0b3e 1404 cf3d 4f36 87bd
00000020: 911d d93d a814 873d cb24 433d f4fb 36bb
00000030: 5e35 c93d e5fd cf3b 9c51 ebbc ab55 4abd
00000040: 2e0f 433d 2779 6d3b 8dc4 bd3d bbb0 e53d
00000050: 5264 d83d 49cc e93c a310 653d 676e 983d
00000060: e700 e73d 87bc 4e3d 030c bdbc 1dda 8b3c
00000070: 8031 b03c e669 c03d 8394 523d 1b18 bfbd

tcn_layers.0.tcnblock.network.1.conv2.weight_g f4 [32, 1, 1]
0.593343 0.6008781 0.53554434 0.598698 0.61125886 0.77899665 0.6711411 0.5736505
0.67017716 0.61999166 0.6454897 0.62764096 0.66834015 0.620393 0.668209 0.5894273
0.64345 0.55994713 0.5732874 0.64120525 0.70570385 0.643013 0.60015476 0.57808757
0.7037625 0.6757845 0.6115262 0.6209853 0.5999438 0.6177257 0.8361113 0.60099787
00000000: 54e5 173f 26d3 193f 6f19 093f 4644 193f
00000010: 767b 1c3f 536c 473f e7cf 2b3f c2da 123f
00000020: bb90 2b3f c6b7 1e3f d03e 253f 14ad 203f
00000030: 5718 2b3f 13d2 1e3f bf0f 2b3f b5e4 163f
00000040: 24b9 243f b258 0f3f f7c2 123f 0726 243f
00000050: 02a9 343f 809c 243f bea3 193f 8cfd 133f
00000060: c729 343f 3700 2d3f fb8c 1c3f e5f8 1e3f
00000070: eb95 193f 4523 1e3f 640b 563f ffda 193f

tcn_layers.0.tcnblock.network.1.conv2.weight_v f4 [32, 32, 2]
-0.09926113 -0.1137159 0.072009444 -0.044256512 0.13420431 -0.007039237 0.0039886846 0.07968529
-0.1433383 -0.16472292 -0.033030536 -0.13003698 -0.08183753 -0.07227067 0.02384797 -0.020287799
-0.025882822 0.10919517 -0.002296743 -0.0223013 -0.096125394 0.07372091 -0.030259008 -0.00089379563
0.0033456723 0.021243121 0.09182428 0.14493054 -0.042388033 -0.06310521 -0.024929568 -0.031750254
0.0493873 0.022125747 0.029095769 -0.021754809 -0.10933993 -0.0075301863 -0.0031682285 0.068145685
0.023986133 -0.063438654 0.10447562 0.10725706 -0.08717934 -0.03740834 2.5130441e-05 -0.035043765
0.1440123 0.08419712 -0.077519864 -0.04656535 0.06507831 0.03979128 -0.011647838 -0.024304682
0.111822575 -0.04686985 -0.11948373 0.06330255 -0.109100625 -0.11986752 -0.11824378 -0.052167818
-0.14199269 -0.115805306 -0.009966803 0.03432438 -0.048689246 -0.016228117 0.08252888 0.07274714
0.13800621 0.14306855 -0.018465998 0.030785287 -0.026646713 -0.01489243 -0.05161496 -0.108213
0.06821942 0.11957383 0.10890753 0.13478127 -0.005358395 0.12805147 -0.052364122 -0.10356622
-0.047085658 -0.05368476 0.03723005 -0.002044397 0.1377012 0.1525369 0.08082304 0.0015773019
0.04544907 0.08755378 0.037823036 -0.032750476 -0.024114031 -0.055213246 -0.041652493 0.052400097
-0.073236525 -0.09169931 0.020377342 0.018343508 -0.015276878 -0.09177875 -0.07267329 -0.081952795
0.11745622 0.06769061 0.088566124 -0.08578228 0.028584747 0.051794644 0.043351088 0.01316449
-0.0016522409 0.05040854 0.06722309 0.21980044 -0.07184014 0.0051138815 -0.016187204 -0.07752237
-0.13430686 -0.0950608 -0.045157168 -0.053812075 -0.028171847 0.06516078 -0.084601596 -0.12424768
-0.051869314 -0.03781543 0.026034573 0.14382853 0.022192832 -0.044737525 -0.11496706 -0.08881097
0.083189696 0.11160432 0.050120395 0.08716549 0.04447197 -0.008883997 -0.038997937 -0.048666336
-0.05247134 -0.03990614 -0.034379672 0.04341543 -0.06841438 -0.060155682 -0.11952409 -0.106948346
-0.037454154 -0.07621932 -0.05319398 -0.0605489 0.051963653 -0.00657692 0.03862178 -0.06395201
0.0701369 0.10566753 -0.037530176 0.053480078 -0.030148257 -0.026322098 0.11670927 0.04716798
0.07436463 -0.109191634 -0.08203869 -0.080929674 0.0018145333 -0.07769375 -0.067742884 -0.0043452433
0.09076325 0.07301909 -0.047390353 -0.04518989 0.13688397 0.00024519168 -0.07468161 0.043291822
-0.06013012 -0.031486847 0.0057033314 0.05821422 0.10545593 0.15927672 0.07482647 0.11544803
-0.16145034 -0.15817371 -0.09557895 -0.05445911 -0.1178832 -0.011936652 -0.015017172 0.11530142
0.07330521 -0.06016157 0.020252733 0.043954153 0.030149093 -0.024096493 0.0016687143 -0.06003349
0.07673262 0.05013985 0.08387828 -0.031126872 -0.048968714 0.022986727 -0.03486496 -0.063477084
0.10188782 0.10902633 -0.012021383 0.058186043 -0.045079455 -0.13878082 0.025035096 -0.05850551
-0.10047368 0.091082424 0.13838084 0.13105124 0.05280724 0.004085217 -0.032659043 -0.06477326
0.05966325 -0.03365032 0.10796809 0.08617354 -0.09298212 0.06470993 0.052108597 -0.08058709
0.070436575 0.02297297 -0.09725347 -0.072150946 0.025371984 -0.11486257 -0.023955042 -0.06002047
00000000: 6b49 cbbd e2e3 e8bd b079 933d 5146 35bd
00000010: db6c 093e 66a9 e6bb 83b3 823b 0b32 a33d
00000020: 46c7 12be 20ad 28be 074b 07bd 6a28 05be
00000030: 6f9a a7bd a502 94bd d15c c33c 9932 a6bc
00000040: 3608 d4bc b8a1 df3d f484 16bb 37b1 b6bc
00000050: 64dd c4bd fdfa 963d bde1 f7bc 9c4d 6aba
00000060: 1143 5b3b 0e06 ae3c 5e0e bc3d ac68 143e
00000070: 139f 2dbd 4e3d 81bd 1839 ccbc 8e0c 02bd
00000080: 564a 4a3d 0e41 b53c 405a ee3c 2437 b2bc
00000090: 9ded dfbd c8bf f6bb 0ea2 4fbb f78f 8b3d
000000a0: 917e c43c 20ec 81bd 50f7 d53d 97a9 db3d
000000b0: 158b b2bd 7d39 19bd 36cf d237 0d8a 0fbd
000000c0: f677 133e 8a6f ac3d bcc2 9ebd 4fbb 3ebd
000000d0: c747 853d 2efc 223d 93d6 3ebc 9d1a c7bc
000000e0: 3c03 e53d 9afa 3fbd e3b3 f4bd c4a4 813d
000000f0: 2670 dfbd 1a7d f5bd cc29 f2bd ecad 55bd
00000100: 8866 11be 552b edbd cd4b 23bc b997 0c3d
00000110: 606e 47bd d4f0 84bc e704 a93d 74fc 943d
00000120: 8051 0d3e 9080 123e 0146 97bc 6d31 fc3c
00000130: 354a dabc 61ff 73bc 356a 53bd c79e ddbd
00000140: a0b6 8b3d 20e3 f43d e90a df3d 1a04 0a3e
00000150: 7a95 afbb ed1f 033e c37b 56bd 871a d4bd
00000160: e4dc 40bd 8de4 5bbd 897e 183d 4afb 05bb
00000170: 8b01 0d3e a232 1c3e 8d86 a53d 78bd ce3a
00000180: ce28 3a3d 654f b33d 54ec 1a3d 5d25 06bd
00000190: ca8a c5bc 4927 62bd ce9b 2abd 7ca1 563d
000001a0: 08fd 95bd d9cc bbbd 62ee a63c 2045 963c
000001b0: df4b 7abc 7ff6 bbbd bcd5 94bd ded6 a7bd
000001c0: e38c f03d 60a1 8a3d 2862 b53d 9fae afbd
000001d0: 8f2a ea3c 9f26 543d e990 313d e0af 573c
000001e0: 0190 d8ba 2f79 4e3d 42ac 893d 5e13 613e
000001f0: ec20 93bd 5992 a73b 079b 84bc 0cc4 9ebd
00000200: bd87 09be 3daf c2bd b9f6 38bd 0d6a 5cbd
00000210: a5c8 e6bc 0473 853d 9a43 adbd 9175 febd
00000220: eb74 54bd 5ae4 1abd 7546 d53c c947 133e
00000230: becd b53c b23e 37bd da73 ebbd 87e2 b5bd
00000240: 5c5f aa3d ce90 e43d 0b4b 4d3d d283 b23d
00000250: 3e28 363d 2f8e 11bc 4dbc 1fbd 5a56 47bd
00000260: 30ec 56bd 9f74 23bd b3d1 0cbd 61d4 313d
00000270: d71c 8cbd ce65 76bd 0cc9 f4bd bc07 dbbd
00000280: 8769 19bd e018 9cbd eee1 59bd 2002 78bd
00000290: d7d7 543d 3483 d7bb df31 1e3d 45f9 82bd
000002a0: efa3 8f3d 3868 d83d 3eb9 19bd ed0d 5b3d
000002b0: 7af9 f6bc 71a1 d7bc 4505 ef3d 3633 413d
000002c0: 7c4c 983d dd9f dfbd e703 a8bd 75be a5bd
000002d0: a2d5 ed3a e71d 9fbd c8bc 8abd 8b62 8ebb
000002e0: 15e2 b93d 088b 953d 631c 42bd 0919 39bd
000002f0: 502b 0c3e 128d 8039 acf2 98bd c452 313d
00000300: 004b 76bd 5af8 00bd 03e3 ba3b 0972 6e3d
00000310: 47f9 d73d 7019 233e 9f3e 993d 0470 ec3d
00000320: 3d53 25be 4af8 21be e6be c3bd 8410 5fbd
00000330: bf6c f1bd f291 43bc 960a 76bc 2723 ec3d
00000340: 0b21 963d fa6b 76bd 0fe9 a53c 4509 343d
00000350: 3bfb f63c 0266 c5bc c3b8 da3a ade5 75bd
00000360: fe25 9d3d 715f 4d3d 60c8 ab3d c8fd febc
00000370: 6b93 48bd a94e bc3c 8fce 0ebd 4600 82bd
00000380: 90aa d03d 3249 df3d 56f5 44bc 7d54 6e3d
00000390: 3ca5 38bd 8f1c 0ebe 6716 cd3c 79a3 6fbd
000003a0: 25c5 cdbd 6c89 ba3d b5b3 0d3e 4c32 063e
000003b0: 684c 583d 49dd 853b 7dc5 05bd d8a7 84bd
000003c0: 7461 743d ebd4 09bd 601e dd3d c17b b03d
000003d0: 696d bebd a486 843d d36f 553d d80a a5bd
000003e0: 0d41 903d cf31 bc3c d42c c7bd e0c3 93bd
000003f0: e8d8 cf3c 113d ebbd 5d3d c4bc 06d8 75bd

tcn_layers.0.tcnblock.network.1.net.0.bias f4 [32]
0.07794335 -0.07588309 0.059851967 0.12042782 0.14178593 0.09552888 -0.08616587 0.061935607
0.09594416 -0.1918798 -0.075302295 0.18883348 -0.011452379 0.050684113 0.025914092 -0.084395505
-0.11531793 0.0109652765 -0.1841629 0.028339762 -0.18558405 0.17478342 -0.21721946 -0.21525887
0.06497274 0.027210606 -0.18360162 -0.045409225 0.05231006 -0.06037569 0.10189732 -0.16121592
00000000: c3a0 9f3d 9868 9bbd 5627 753d dca2 f63d
00000010: 5530 113e a5a4 c33d bb77 b0bd 31b0 7d3d
00000020: 5f7e c43d 237c 44be 1738 9abd 905d 413e
00000030: c2a2 3bbc 259a 4f3d ca49 d43c 8dd7 acbd
00000040: cf2b ecbd b4a7 333c 3395 3cbe ca28 e83c
00000050: bf09 3ebe 6dfa 323e c76e 5ebe d26c 5cbe
00000060: 6e10 853d c7e8 de3c 1002 3cbe 06ff 39bd
00000070: 1343 563d 804c 77bd 8baf d03d c915 25be

tcn_layers.0.tcnblock.network.1.net.0.weight_g f4 [32, 1, 1]
0.7626099 0.7010751 0.67660767 0.5815799 0.91369134 0.5937381 0.5586284 0.59762406
0.55493116 0.58499193 0.62050307 0.5814383 0.52014446 0.6840268 0.52563393 0.57490605
0.54513115 0.7545796 0.48522344 0.5801182 0.6648386 0.7703799 0.5739589 0.62889284
0.66672534 0.779778 0.5389906 0.6851161 0.56908786 0.60374343 0.55727243 0.745009
00000000: 673a 433f a879 333f 2936 2d3f 6ce2 143f
00000010: ade7 693f 38ff 173f 4502 0f3f e4fd 183f
00000020: f80f 0e3f 08c2 153f 4ad9 1e3f 24d9 143f
00000030: 3028 053f 611c 2f3f f28f 063f 0b2d 133f
00000040: b78d 0b3f 212c 413f 356f f83e a082 143f
00000050: dd32 2a3f 9e37 453f f8ee 123f 1fff 203f
00000060: 83ae 2a3f 889f 473f 4afb 093f c563 2f3f
00000070: beaf 113f ee8e 1a3f 68a9 0e3f e9b8 3e3f

tcn_layers.0.tcnblock.network.1.net.0.weight_v f4 [32, 11, 2]
0.054075643 0.100947686 -0.11603325 -0.038447846 0.07096983 -0.05487478 0.045492936 -0.04652566
-0.048365563 -0.072156176 -0.06938806 -0.08979264 0.02612397 0.082630776 0.24946874 0.1858307
-0.14054085 0.009288722 -0.14884815 -0.061661776 -0.0016758856 -0.043612435 -0.06098398 0.051563274
0.0045245467 -0.07074816 -0.17460388 -0.07083532 0.072286986 0.2689458 -0.039539486 -0.22971159
0.10329701 0.14778398 -0.19862835 -0.14206837 -0.057040274 -0.032748744 -0.12759942 0.08549181
-0.070273496 -0.08380707 -0.01337321 -0.1411632 0.0364144 0.21234007 0.017636431 0.21988015
0.2600798 -0.09367987 0.01630816 -0.04241175 0.12230102 -0.027998842 0.15149392 -0.09187118
-0.14449714 -0.21249466 -0.015579077 0.065309264 0.16846833 -0.08876486 -0.21793506 -0.20827042
-0.063124634 0.18968086 0.07243653 0.24632412 -0.093687914 -0.023168992 0.12012602 0.021255922
-0.12985028 -0.20067 0.055639524 -0.05342721 0.19653086 -0.15066755 0.010361433 0.038209848
-0.14178228 -0.14965196 -0.14925733 0.17276144 -0.01756293 0.086805366 -0.075876884 -0.088049516
0.086416036 0.039384518 0.08452914 0.18319647 0.08554058 0.06217202 -0.111230314 -0.15540007
-0.13372917 0.108708285 -0.17665924 -0.053621456 -0.05473311 0.06512509 0.019292219 0.06849366
-0.06912361 -0.07419559 -0.2172374 -0.24543345 -0.06747106 -0.048344202 0.09879046 0.19971165
0.061831452 0.19409399 -0.17623761 -0.08395209 -0.05386851 0.04338656 0.13909464 -0.07647725
0.11630608 -0.09766797 -0.14704703 0.20935568 0.1513192 0.07102532 -0.15953393 0.05840282
-0.14667171 0.11966675 0.145949 -0.056345776 -0.046190422 -0.11661843 -0.115534164 -0.043241136
-0.13557631 0.010553995 -0.08866976 -0.017464656 0.07336576 -0.055776525 -0.084984735 -0.070233926
0.19105415 -0.06811553 -0.17677857 -0.18157934 0.026433647 0.117005765 -0.2409879 -0.0008049899
-0.13442625 -0.11749408 -0.06421084 0.09007503 0.03010279 -0.1593052 0.056799974 0.09007893
0.0015617802 -0.06385035 -0.23690724 -0.09843156 -0.08162329 -0.07150306 0.084458254 -0.09316565
0.22479393 0.09455559 0.023701672 0.03402297 -0.09291037 -0.1633512 0.031830203 0.17174852
-0.1535589 0.029090984 0.062261 0.0008500848 0.2647791 -0.05142791 0.009003881 0.07510825
0.024371965 0.12141156 0.021709546 -0.23356998 0.12730038 0.1968621 -0.036540683 0.22230315
-0.06221582 -0.07463215 0.15861161 0.005491613 0.22507459 -0.18960685 -0.019087655 -0.012737522
-0.03134498 -0.15147564 -0.1800026 0.014961676 -0.20310766 0.14907415 0.17988001 0.18473338
0.114552595 -0.06676699 0.048049875 -0.07313217 -0.09728421 0.023603871 0.06235459 0.051086508
0.21133198 0.23244284 -0.049499456 -0.07783055 0.16217521 0.026631983 -0.07073523 -0.06571469
-0.10313419 -0.14453475 0.18157823 -0.09586053 -0.18674253 0.049324222 -0.19955726 -0.16500449
0.18126924 0.012879905 0.2647796 0.10292195 -0.15159899 0.16308199 0.18273425 0.022665907
0.07474698 0.013389201 -0.110433325 0.24748944 -0.031126145 -0.13144757 0.17475267 -0.19428802
0.00804119 0.21527062 0.030596565 0.057050977 0.11905833 0.0766992 0.037031814 0.114981934
00000000: 6c7e 5d3d a9bd ce3d d7a2 edbd 7d7b 1dbd
00000010: a158 913d 61c4 60bd cd56 3a3d b191 3ebd
00000020: f81a 46bd 9ec6 93bd 541b 8ebd 34e5 b7bd
00000030: f001 d63c 533a a93d bc74 7f3e 674a 3e3e
00000040: f1e9 0fbe b92f 183c a66b 18be 0f91 7cbd
00000050: 64a9 dbba f4a2 32bd 56ca 79bd 0334 533d
00000060: a642 943b 69e4 90bd 5ccb 32be 1c12 91bd
00000070: 330b 943d 44b3 893e 28f4 21bd 8439 6bbe
00000080: 628d d33d af54 173e 3b65 4bbe 5f7a 11be
00000090: 10a3 69bd 8c23 06bd 6ca9 02be 5516 af3d
000000a0: 8deb 8fbd 0ba3 abbd 4f1b 5bbc 168d 10be
000000b0: 4427 153d ad6f 593e 477a 903c 4328 613e
000000c0: 2e29 853e 3bdb bfbd b198 853c f1b7 2dbd
000000d0: f578 fa3d d45d e5bc 3921 1b3e f526 bcbd
000000e0: 0ff7 13be 3398 59be 633f 7fbc ddc0 853d
000000f0: f682 2c3e 5aca b5bd 5e2a 5fbe d744 55be
00000100: 7d47 81bd b33b 423e 9a59 943d 643c 7c3e
00000110: 73df bfbd e6cc bdbc a104 f63d e620 ae3c
00000120: 79f7 04be 707c 4dbe 45e6 633d 7dd6 5abd
00000130: 633f 493e 9848 1abe 00c3 293c ee81 1c3d
00000140: 602f 11be 5d3e 19be ead6 18be 60e8 303e
00000150: 22e0 8fbc 03c7 b13d 5765 9bbd 4e53 b4bd
00000160: e4fa b03d a951 213d 9d1d ad3d db97 3b3e
00000170: e62f af3d 17a8 7e3d b8cc e3bd 3221 1fbe
00000180: 4df0 08be 73a2 de3d 29e6 34be 2ca2 5bbd
00000190: d32f 60bd 4e60 853d b70a 9e3c 6746 8c3d
000001a0: ae90 8dbd dcf3 97bd 7b73 5ebe e852 7bbe
000001b0: 442e 8abd 9204 46bd a752 ca3d 3681 4c3e
000001c0: fa42 7d3d 93c0 463e a277 34be 13ef abbd
000001d0: 3aa5 5cbd 1bb6 313d d36e 0e3e 1ba0 9cbd
000001e0: e231 ee3d 2506 c8bd 7f93 16be 5661 563e
000001f0: 6cf3 1a3e b975 913d dd5c 23be cc37 6f3d
00000200: 1c31 16be d713 f53d a873 153e d4ca 66bd
00000210: 2b32 3dbd a5d5 eebd 2d9d ecbd 9e1d 31bd
00000220: 84d4 0abe aaea 2c3c 7e98 b5bd 0a12 8fbc
00000230: ca40 963d ed75 64bd 7a0c aebd ced6 8fbd
00000240: b3a3 433e 2880 8bbd 7105 35be efef 39be
00000250: 608b d83c b8a0 ef3d 88c5 76be f505 53ba
00000260: 09a7 09be bca0 f0bd f980 83bd 4279 b83d
00000270: 209a f63c e720 23be 17a7 683d 4d7b b83d
00000280: a6b4 cc3a f9c3 82bd d097 72be 7c96 c9bd
00000290: 1d2a a7bd 3270 92bd 73f8 ac3d a2cd bebd
000002a0: 6130 663e 5ca6 c13d 022a c23c ab5b 0b3d
000002b0: cb47 bebd 8945 27be 6360 023d d8de 2f3e
000002c0: 8b3e 1dbe 3750 ee3c 6405 7f3d 3ad8 5e3a
000002d0: 2091 873e 12a6 52bd 0485 133c 5bd2 993d
000002e0: b7a7 c73c a0a6 f83d 38d8 b13c f82c 6fbe
000002f0: 085b 023e 3896 493e afab 15bd 70a3 633e
00000300: 04d6 7ebd bed8 98bd 156b 223e fdf2 b33b
00000310: f479 663e 4c28 42be b75d 9cbc 0ab1 50bc
00000320: 9863 00bd 6e1c 1bbe 9a52 38be d121 753c
00000330: 74fb 4fbe e5a6 183e 7732 383e bf2a 3d3e
00000340: 8d9a ea3d 22bd 88bd f2cf 443d 52c6 95bd
00000350: f23c c7bd e85c c13c 8767 7f3d 1640 513d
00000360: 6967 583e 7f05 6e3e f1bf 4abd a065 9fbd
00000370: 4211 263e 512b da3c a2dd 90bd 6c95 86bd
00000380: 0538 d3bd eb00 14be a5ef 393e 8752 c4bd
00000390: 6f39 3fbe 3208 4a3d bd58 4cbe f0f6 28be
000003a0: a59e 393e 3d06 533c 3191 873e bec8 d23d
000003b0: c43c 1bbe f7fe 263e b01e 3b3e daad b93c
000003c0: f214 993d 615e 5b3c de2a e2bd df6d 7d3e
000003d0: 42fc febc 319a 06be 5df2 323e 70f3 46be
000003e0: 32bf 033c e76f 5c3e a6a5 fa3c 49ae 693d
000003f0: dbd4 f33d 7814 9d3d acae 173d a67b eb3d

tcn_layers.0.tcnblock.network.1.net.4.bias f4 [32]
0.08379599 -0.051316436 -0.04520103 0.05088981 0.008365511 0.1363228 0.101082 -0.066021554
0.106013425 0.06595737 0.04764251 -0.0027921172 0.09824632 0.0063474053 -0.028725438 -0.049398106
0.0476219 0.0036235543 0.09266005 0.11215349 0.105660096 0.028539794 0.05592407 0.074429326
0.11279469 0.050472762 -0.023077017 0.017071778 0.021507978 0.093951985 0.051411163 -0.0933077
00000000: 3b9d ab3d 2f31 52bd b724 39bd d571 503d
00000010: 7f0f 093c 3498 0b3e 1404 cf3d 4f36 87bd
00000020: 911d d93d a814 873d cb24 433d f4fb 36bb
00000030: 5e35 c93d e5fd cf3b 9c51 ebbc ab55 4abd
00000040: 2e0f 433d 2779 6d3b 8dc4 bd3d bbb0 e53d
00000050: 5264 d83d 49cc e93c a310 653d 676e 983d
00000060: e700 e73d 87bc 4e3d 030c bdbc 1dda 8b3c
00000070: 8031 b03c e669 c03d 8394 523d 1b18 bfbd
