gcntcn1.pt (torch, 337674 bytes, 202 tensors)

tcn_layers.0.tcnblock.network.0.conv1.bias f4 [11]
000000 72 b7 f9 3d f3 3b 0a 3e ed 79 f7 bc b0 f6 38 be
       0.121931925 0.13499431 -0.030209506 -0.18062854
000010 20 11 0c bd cc d7 20 3e b9 61 2b 3e b1 87 96 3d
       -0.03419602 0.1570732 0.16736497 0.073501
000020 6f ec 50 3e fc 2b ec 3d 71 aa 2a 3d
       0.20402692 0.11531827 0.04166645

tcn_layers.0.tcnblock.network.0.conv1.weight_g f4 [11, 1, 1]
000000 95 bf 3a 3f b8 50 f0 3e e6 e4 3d 3f 2c ce 3b 3f
       0.7294858 0.46936584 0.74177396 0.7336147
000010 95 66 e9 3e 72 28 14 3f 9b c2 20 3f 2f 5a 1e 3f
       0.45586076 0.57874215 0.62796944 0.6185636
000020 cf e0 3e 3f f8 2b 28 3f b1 58 2e 3f
       0.7456178 0.6569209 0.6810408

tcn_layers.0.tcnblock.network.0.conv1.weight_v f4 [11, 11, 2]
000000 76 e3 ee 3d 99 dd af 3d ee 57 d7 3d 70 44 31 3d
       0.116644785 0.08587188 0.10514818 0.043278158
000010 f4 1c 67 3d ae b6 c8 bc 17 91 ba 3d 33 f7 d0 bc
       0.056424096 -0.024501171 0.09109705 -0.025508499
000020 8e ee 57 3b c9 0d fa 3d 78 eb 36 3e 78 f9 71 3e
       0.0032948586 0.122096606 0.17863262 0.23630321
000030 63 57 88 3d 7d 2b 3a be f7 50 6c 3d 6e 20 cc 3d
       0.06657293 -0.18180652 0.0576944 0.09967123
000040 e4 ac 47 3d ad 38 eb bc a8 7e 11 bd d5 29 9d bd
       0.048748866 -0.028713549 -0.03552118 -0.076739945
000050 72 cf 85 bd 24 50 b0 bd 88 e7 9e 3a 24 cb 78 3c
       -0.06533708 -0.086090356 0.0012123445 0.015185151
000060 75 48 69 bb c1 c0 22 bd 58 29 67 3b 0b 3c 0e 3e
       -0.0035596166 -0.039734606 0.0035272446 0.13890092
000070 8b 65 bf 3c 4b f1 c9 3d d4 0b 0b 3e 37 86 18 3d
       0.02336385 0.09860476 0.13578731 0.037237372
000080 7c e1 58 be dc 3f d9 bd 93 49 bf bc 10 94 2f 3e
       -0.21179765 -0.10607883 -0.023350513 0.17146325
000090 3b c8 9b 3d 2a 40 a2 bd 0e 6f a7 3d 30 d4 54 3d
       0.0760655 -0.079223946 0.08175479 0.05196017
0000a0 26 07 8c 3c 00 74 87 3e e8 31 6d 3d f6 32 0d be
       0.017093252 0.26455688 0.057908922 -0.13788971
0000b0 0a b0 86 bd 95 46 3d be 45 49 4a bc f9 09 86 3d
       -0.065765455 -0.18483956 -0.01234657 0.06544871
0000c0 38 18 db bd a5 1b 0a be 24 d5 b3 3d f5 5e 11 bd
       -0.10697979 -0.13487108 0.08780888 -0.03549095
0000d0 2e b0 af 3d 19 97 92 bd 2b 04 0d bd fa 7a a5 bc
       0.085785255 -0.07157726 -0.034427803 -0.020200241
0000e0 46 56 1e 3e 17 9d 77 3e a7 ee be 3d dc 7c 60 3e
       0.15462598 0.24181019 0.09322863 0.2192263
0000f0 56 72 0a 3e c4 f3 0b be 04 f2 0e bd c3 59 f9 bc
       0.13520178 -0.13667208 -0.034898773 -0.03043831
000100 bb 81 3c be 4d 6f 5d be a2 d5 1a be 83 aa dd 3b
       -0.18408863 -0.21624489 -0.15120557 0.0067647113
000110 2d 91 00 3e 15 91 2c 3e 0b 6c dc 3d e3 2f d3 3d
       0.1255538 0.1685222 0.10762795 0.10311868
000120 d9 c5 47 3e aa 1e 23 3d ae 5c 9c bd ea 37 32 be
       0.19509067 0.039824165 -0.07634865 -0.17404142
000130 a9 65 8c 3d 00 f2 48 3e 3f 8e 94 3d d7 e3 d0 3d
       0.06855328 0.19623566 0.07253694 0.10199707
000140 ba 4d cb 3d 0e 52 5c 3d 1d 1f 8c bd f4 7a 1e 3d
       0.099269345 0.05378919 -0.06841872 0.038691476
000150 6d 71 ce 3b 4b ac d4 3d bb 95 5f bd a0 3e 72 bd
       0.0063001425 0.10384425 -0.054586153 -0.059141755
000160 72 44 1b 3d 56 4d 6c 3a 92 e9 01 be 97 31 e9 bd
       0.03790707 0.00090142095 -0.12686756 -0.11386412
000170 57 48 6a bc 79 9a 2f bb d8 73 29 be fb 42 25 be
       -0.014299474 -0.0026794954 -0.16548097 -0.16138832
000180 5f f5 b2 bc fd c6 3c bc dc f1 a6 3c af f6 10 bd
       -0.021845518 -0.011522052 0.020379 -0.035391506
000190 6a 09 23 bc 75 af 68 3c ac 7b fe bc ba 09 74 bd
       -0.009950975 0.0142019885 -0.03106483 -0.05957959
0001a0 65 c9 21 3d 46 9f 54 bd 38 d7 05 3e 67 c6 0b 3e
       0.039498705 -0.051909707 0.1307038 0.13649903
0001b0 92 69 50 bc dc 2b 3b bc ab d3 51 3e 0b f4 a8 3d
       -0.012720482 -0.011424031 0.20490901 0.082496725
0001c0 40 1b d3 3d 2a a9 3d 3c e9 a8 63 be 19 69 27 3e
       0.10307932 0.011575976 -0.22232403 0.16348685
0001d0 25 72 3b 3e 14 f0 87 3c 71 27 15 bd 2b 5a 0e be
       0.18305261 0.01659397 -0.036414567 -0.13901584
0001e0 8c 81 d3 3d 38 53 ef bd 81 3f 37 be fc bc f6 bb
       0.103274435 -0.116857946 -0.17895319 -0.007529853
0001f0 b3 22 3e 3d b3 60 0e 3e fb 21 ce 3d e8 f8 b8 3d
       0.04641981 0.13904075 0.10065075 0.0903185
000200 88 94 a5 bd f6 a1 4d be cf c9 80 3c b1 ed e1 3d
       -0.08084971 -0.20081314 0.01572123 0.11031664
000210 80 79 50 3e 41 88 f0 bd ee 3a 6c 3e d0 30 95 3e
       0.20358849 -0.11744738 0.23069355 0.29138803
000220 e0 e8 4c bd ba 75 23 3d a7 57 89 3d fe 76 60 3d
       -0.050026774 0.039907195 0.067061715 0.05480098
000230 30 41 c0 3c b9 dd 11 3e ba 44 86 bd b7 7f 18 bd
       0.023468584 0.14244737 -0.06556077 -0.037231173
000240 10 2f fd bd 6f da 63 bc 37 cd 03 bd 69 44 67 bd
       -0.12362492 -0.013907059 -0.03217813 -0.056461725
000250 61 89 61 bd 40 ae 21 be 13 3d e7 bd d9 e2 87 3d
       -0.055062655 -0.15789127 -0.11290946 0.06635065
000260 e5 07 4b bd 55 2b 6d 3d 78 ff 12 3d 9d 86 04 3e
       -0.049568076 0.057902653 0.035888165 0.12941976
000270 25 49 2e be d9 52 cd 3d 71 90 a6 be af 73 13 bd
       -0.1702009 0.100255676 -0.32532075 -0.035998996
000280 cc 3a 47 bd 6b f5 ea 3d 53 72 34 3e 56 ac d4 3d
       -0.048640057 0.11472591 0.17621736 0.10384433
000290 3c 96 04 3e 87 90 f4 bd 91 c8 81 3e 44 0a 81 3e
       0.12947935 -0.11941629 0.25348333 0.25203145
0002a0 a0 71 a9 3d 74 6e 20 3e db 56 db 3d 2f ef 7f 3d
       0.082736254 0.15667135 0.10709926 0.062483963
0002b0 05 14 b6 3d 42 0e f2 3d f5 c9 14 be de c0 16 be
       0.08890537 0.11819126 -0.14530165 -0.1472201
0002c0 63 7b 91 3a 22 a0 8d 3d 2b 2c 4a be ab 07 83 be
       0.0011099394 0.069153085 -0.19743411 -0.25591788
0002d0 55 a2 5e bc 30 34 19 3e 6a 44 06 be 37 e1 02 3e
       -0.013588508 0.14961314 -0.13112035 0.12781225
0002e0 ef f6 71 bc 59 f2 09 be 56 a0 46 be fa a6 13 be
       -0.014768346 -0.13471355 -0.19397101 -0.14419165
0002f0 fc 70 12 bd 8a 5c dd bc 62 8b 3c 3d 7e d0 f3 3d
       -0.03575228 -0.027021665 0.046031363 0.11905001
000300 e1 3a db 3d 10 1f 52 be 78 6f 07 3d 8e 6d 25 3e
       0.1070459 -0.20519662 0.03306529 0.16155073
000310 23 5a 02 3e 6d 73 dd bc 00 a2 95 3d a1 d8 8e 3b
       0.12729697 -0.027032578 0.0730629 0.0043593203
000320 2d ef 23 3e 6b 33 c6 bc b3 09 fb 3c 2a 6e a7 3d
       0.16009207 -0.02419444 0.030644273 0.08175309
000330 3a a9 48 be ea a7 4c be 5b 4a 44 3d e2 ca 0b 3e
       -0.19595805 -0.19985929 0.047922473 0.13651612
000340 70 ac 2f be 3c a3 48 3e 50 f5 63 be 4b 6c 0f be
       -0.17155623 0.19593519 -0.22261548 -0.14006154
000350 dc 66 7c be f1 12 ab bd ed 5f 06 3e d5 76 17 3e
       -0.24648613 -0.08353222 0.1312253 0.14791425
000360 7b ec 14 be c5 f3 3e 3e 6d 3d 68 3e 40 65 4a 3e
       -0.14543335 0.18647678 0.22679682 0.19765186
000370 6b db 19 3e 79 ed cc 3d a1 36 95 ba 91 df b8 3d
       0.15025108 0.10006232 -0.0011384079 0.09027017
000380 1e 7c 8c be 2c d9 89 be 3d 55 ed bd 1c 9f 84 be
       -0.27438444 -0.26923501 -0.115885235 -0.2590264
000390 79 0d f9 3c 34 da d5 bd 3b f0 1f 3e a4 14 5a bd
       0.030401932 -0.104420096 0.15618984 -0.05324234
0003a0 04 a2 84 3d ae ea ef 3d 44 d6 85 3d 12 d8 14 be
       0.064762145 0.117146835 0.065350085 -0.1453555
0003b0 ab 8a 1d 3e 98 e3 5a 3d be 96 bc bb 09 6b f5 3d
       0.15384929 0.053439707 -0.0057552746 0.11983306
0003c0 98 d2 28 be b7 bd 92 be
       -0.16486585 -0.28660366

tcn_layers.0.tcnblock.network.0.conv2.bias f4 [11]
000000 bf 1d 7c 3d 41 9d 39 bd 12 86 37 be 35 a6 3c 3e
       0.061551806 -0.045315985 -0.17922238 0.18422778
000010 96 1e 0c bd a8 95 3b bd c2 99 e5 bd 23 29 e4 bd
       -0.034208857 -0.04579702 -0.112109676 -0.11140659
000020 db 99 b3 bd 62 e1 87 bd 57 df ec bd
       -0.0876958 -0.06634785 -0.11566036

tcn_layers.0.tcnblock.network.0.conv2.weight_g f4 [11, 1, 1]
000000 45 65 11 3f 78 12 1d 3f 75 c4 26 3f 32 ab 64 3f
       0.5679515 0.61356306 0.6514352 0.89323723
000010 32 87 0a 3f 85 fa 41 3f 7d 19 10 3f a7 ef 1c 3f
       0.5411254 0.7577289 0.5628889 0.6130318
000020 23 6c 46 3f 82 6d 2b 3f aa fc 26 3f
       0.77508754 0.6696397 0.65229285

tcn_layers.0.tcnblock.network.0.conv2.weight_v f4 [11, 11, 2]
000000 db 91 66 be a0 4a e9 bd 2e 0a 1e 3e 06 64 1d 3e
       -0.22516577 -0.11391187 0.1543357 0.15370187
000010 f9 98 9f 3d 8f 18 0d 3e 5e 68 47 be 46 c4 3f bd
       0.07792849 0.137789 -0.19473407 -0.04681804
000020 f0 0e d3 3d 46 3b 33 3e 78 ab 61 bd ab b7 47 bc
       0.103055835 0.1750308 -0.055095166 -0.012189786
000030 b7 58 2b 3e 36 3f a2 3c c4 f0 c6 3d af f0 d3 bd
       0.16733061 0.019805532 0.09713891 -0.10348641
000040 55 b7 9d bc 01 31 47 3d d0 8e 8e bd c2 e5 17 ba
       -0.019252459 0.04863072 -0.06960833 -0.00057944295
000050 17 af 25 3e 37 9d a6 3c e4 75 09 be d1 53 4b be
       0.16180073 0.020338638 -0.13423878 -0.19856192
000060 d1 68 e4 3b 09 6b 88 3d 9c bd e3 bd 7a 52 ab bd
       0.006970503 0.0666104 -0.111201495 -0.083653405
000070 3c 93 02 be 34 8a 9d 3d 6e b0 30 3e 41 23 10 3e
       -0.12751478 0.07692376 0.17254803 0.14075948
000080 70 36 b7 3d e4 3e 4f 3d 26 fd 80 3e 20 7d 83 3e
       0.0894593 0.050597087 0.25193137 0.256814
000090 e9 bb 4c 3e ec 43 b8 bc 06 95 5a bd 8a a5 ad bd
       0.19993557 -0.022493325 -0.053364776 -0.0847884
0000a0 16 1e a2 3d 44 42 e9 3d 23 1f 7b bc 50 b9 97 3e
       0.07915895 0.11389592 -0.015327248 0.2963357
0000b0 2f 2f 87 3e 82 6b d5 bd 22 0d cc bd 24 5f 9d bd
       0.26403186 -0.10420896 -0.099634424 -0.07684162
0000c0 2d b5 2e be 0a 69 e8 3d 9f e3 9f bd 62 f1 7f 3e
       -0.170613 0.113481596 -0.07807087 0.24994424
0000d0 91 23 62 be cf 45 2c bd 70 62 15 3e 45 83 50 3e
       -0.2208388 -0.042058762 0.14588332 0.20362575
0000e0 38 67 12 3e de 73 b7 bd 92 61 2e 3e f9 3c f1 3c
       0.14297187 -0.08957647 0.17029408 0.02944802
0000f0 27 90 c5 3d 92 c9 62 3d 10 eb c7 bd 2f 3d 2d 3e
       0.096466355 0.055368014 -0.097616315 0.16917871
000100 74 48 07 be 79 b8 e7 3d af 6c f4 bd 31 1e b9 bd
       -0.13211232 0.11314482 -0.11934792 -0.09038962
000110 17 ec fe 3d 1f 95 26 3e 3a 13 a2 be 1e c1 a3 be
       0.12447374 0.16267823 -0.31655294 -0.31983274
000120 37 b2 0f be ab 76 17 be 0f 19 2f 3c af 4c c7 3d
       -0.14032827 -0.14791362 0.010687127 0.09731423
000130 99 72 43 3d b4 e8 1d be 16 b9 c0 3d 27 85 0f 3e
       0.04771671 -0.154208 0.09410302 0.14015637
000140 6b ed 5d be 44 54 19 be 1b 9f 06 3e 20 f1 35 bd
       -0.21672599 -0.14973551 0.13146631 -0.044419408
000150 60 f8 2d 3e 22 94 93 bd 6b e5 00 bd be d6 17 be
       0.16989279 -0.072059885 -0.03146879 -0.14828011
000160 31 0e 39 3d c0 8c cf 3d c8 f8 0e 3e 4e 03 61 bd
       0.04517955 0.10134268 0.1396209 -0.054934792
000170 e6 b2 1f bb 85 24 a8 3c f0 f3 2a 3e 36 f5 2d 3e
       -0.0024368106 0.020525226 0.16694617 0.16988072
000180 69 73 47 3d bc 66 8f bc 71 ff 0d bd 9d f9 b7 3d
       0.048694048 -0.017505042 -0.034667436 0.08983157
000190 29 e2 08 bd bc e2 18 3d c2 ac 34 3e 42 7a 93 bd
       -0.033418808 0.037325606 0.17644027 -0.07201053
0001a0 4c 36 8f bd 94 ab 9c 3e 49 ef 5d 3e c1 0d 2d be
       -0.06992778 0.30599654 0.21673311 -0.16899778
0001b0 e1 10 51 bd a2 15 ef bc 62 b7 96 bc 05 91 91 bc
       -0.051041488 -0.02918512 -0.01839799 -0.017769346
0001c0 b8 4d ef 3c f9 3b 5b bc ef 9e 18 3c 53 0a 1d bd
       0.029211864 -0.013380998 0.0093152365 -0.038339924
0001d0 a1 3e 92 bc cc ab 66 bc bc b6 af 3d 5d 90 9f 3d
       -0.01785213 -0.0140790455 0.08579776 0.07791207
0001e0 b7 5d 56 bd 58 68 54 bd 12 1d 22 3c d2 95 be 3d
       -0.052335467 -0.051857322 0.009894626 0.0930592
0001f0 b2 1d 94 bc 8a 37 af bc 83 09 ab 3e c9 83 a6 3d
       -0.018080566 -0.021388788 0.33405694 0.08130605
000200 cd 7a 6e 3c 0a fd ca 3c cd dd b8 bd cc 71 96 bd
       0.014555645 0.024778862 -0.0902668 -0.07345924
000210 06 bd ea 3d 1a 8c 08 be 07 c6 38 3d 71 0f 77 3e
       0.114618346 -0.13334695 0.04511073 0.24126984
000220 52 3c b0 3d b0 23 cd 3d 58 f0 17 be 94 b5 af bd
       0.08605255 0.100165725 -0.14837778 -0.08579555
000230 58 0b 82 3d 6d e5 6f bd 82 33 d3 3d ad 56 e0 bd
       0.0634982 -0.058568407 0.10312559 -0.10954032
000240 02 18 96 bd 7c 5a fc bd 20 04 7d 3d 03 22 26 bd
       -0.07328798 -0.12321946 0.061771512 -0.04055978
000250 78 d4 03 3e b1 ea 55 bc c7 a9 ce bd 14 ad 77 3e
       0.12874019 -0.013056443 -0.10090976 0.24187118
000260 33 fb c6 3d ec 1d 78 3d f4 2b 14 3e bd db 0d be
       0.09715881 0.06057541 0.14469892 -0.13853355
000270 3b 07 29 3d 83 35 9e 3c c4 65 b8 3e bb a2 d0 3d
       0.04126666 0.019312626 0.3601514 0.101872884
000280 f4 58 9f 3c 7d 1a 20 3e b2 65 85 3d 83 c8 37 be
       0.019451596 0.15635104 0.065135375 -0.17947583
000290 96 c7 a2 3c 19 ec da 3d 21 f7 2f 3d e2 9b 1e 3e
       0.01987056 0.10689563 0.04296029 0.15489152
0002a0 a7 50 df 3d b9 e2 e0 3c e7 b1 94 3e 7a 5f e0 bb
       0.10904055 0.02745186 0.2904198 -0.006847319
0002b0 27 b8 ff bd e3 63 de 3d be 9f 85 3d c3 41 56 3e
       -0.12486296 0.10858896 0.06524609 0.20923524
0002c0 5e cc 4b 3c 44 cc 7a 3e 39 69 af bd 82 12 b1 3c
       0.012438862 0.24491984 -0.085649915 0.02161527
0002d0 37 d9 f3 bd b3 a1 ae bc de 27 92 3e e0 0d 87 3e
       -0.11906665 -0.021317339 0.2854604 0.26377773
0002e0 31 3c ae bd e4 91 df 3b fc d2 2d be 95 23 06 3e
       -0.08507574 0.0068228114 -0.16975015 0.13099511
0002f0 67 ba 48 3e ed 7f 51 3e a0 0f ec bd 7a a9 15 bd
       0.19602357 0.20458956 -0.11526418 -0.03653858
000300 41 55 f1 bd ce f7 2e be 18 40 f9 bc 7b a2 a6 bd
       -0.11783839 -0.17086717 -0.03042607 -0.081364594
000310 a1 39 87 be b4 df 1d be 01 3f 04 3d 57 21 ea 3c
       -0.26411155 -0.15417367 0.032286648 0.02858035
000320 29 70 9c bc e2 64 dc 3d 60 9d 11 be 05 d6 a2 bd
       -0.01909645 0.10761429 -0.1422019 -0.07950977
000330 ec d4 38 bd c1 1f 12 3d 40 da 9e 3e c7 ed c1 3e
       -0.045124933 0.035674814 0.31025887 0.37876722
000340 62 71 e2 bd 52 e8 c0 bd b8 dd 76 bc 31 9c 5b bd
       -0.11056782 -0.094193116 -0.01506751 -0.053615753
000350 a4 52 99 bd 04 5f c4 bd 82 62 28 3e 43 8b f0 3d
       -0.074864656 -0.09588435 0.16443828 0.11745312
000360 08 10 eb 3c 5a 2c af bd 9b 15 68 bc a0 79 5d 3e
       0.028694168 -0.08553381 -0.014165307 0.21628428
000370 e8 ca 2c 3e 83 c6 93 3e cf b0 a3 bd e3 d8 c2 bc
       0.16874278 0.2886239 -0.07992708 -0.02378506
000380 e4 23 6d bc e9 b6 04 be 27 88 c7 bd ad 0e b4 bd
       -0.014473889 -0.129604 -0.09742766 -0.08791862
000390 d8 be 23 bd 94 db 4a be 21 4e 42 3e aa e8 8a 3e
       -0.039976925 -0.19810325 0.18975116 0.27130634
0003a0 5c 05 26 bc 96 0d 32 3d 66 7e 89 bd 5f 67 a8 bd
       -0.010133114 0.043469988 -0.06713562 -0.082228415
0003b0 b5 65 35 3e fc a1 4b 3e 01 75 8d b5 93 e8 54 3e
       0.1771458 0.19886011 -1.0539371e-06 0.20791845
0003c0 fa 4b d2 3d 95 5d 3a 3d
       0.10268398 0.045499403

tcn_layers.0.tcnblock.network.0.net.0.bias f4 [11]
000000 72 b7 f9 3d f3 3b 0a 3e ed 79 f7 bc b0 f6 38 be
       0.121931925 0.13499431 -0.030209506 -0.18062854
000010 20 11 0c bd cc d7 20 3e b9 61 2b 3e b1 87 96 3d
       -0.03419602 0.1570732 0.16736497 0.073501
000020 6f ec 50 3e fc 2b ec 3d 71 aa 2a 3d
       0.20402692 0.11531827 0.04166645

tcn_layers.0.tcnblock.network.0.net.0.weight_g f4 [11, 1, 1]
000000 95 bf 3a 3f b8 50 f0 3e e6 e4 3d 3f 2c ce 3b 3f
       0.7294858 0.46936584 0.74177396 0.7336147
000010 95 66 e9 3e 72 28 14 3f 9b c2 20 3f 2f 5a 1e 3f
       0.45586076 0.57874215 0.62796944 0.6185636
000020 cf e0 3e 3f f8 2b 28 3f b1 58 2e 3f
       0.7456178 0.6569209 0.6810408

tcn_layers.0.tcnblock.network.0.net.0.weight_v f4 [11, 11, 2]
000000 76 e3 ee 3d 99 dd af 3d ee 57 d7 3d 70 44 31 3d
       0.116644785 0.08587188 0.10514818 0.043278158
000010 f4 1c 67 3d ae b6 c8 bc 17 91 ba 3d 33 f7 d0 bc
       0.056424096 -0.024501171 0.09109705 -0.025508499
000020 8e ee 57 3b c9 0d fa 3d 78 eb 36 3e 78 f9 71 3e
       0.0032948586 0.122096606 0.17863262 0.23630321
000030 63 57 88 3d 7d 2b 3a be f7 50 6c 3d 6e 20 cc 3d
       0.06657293 -0.18180652 0.0576944 0.09967123
000040 e4 ac 47 3d ad 38 eb bc a8 7e 11 bd d5 29 9d bd
       0.048748866 -0.028713549 -0.03552118 -0.076739945
000050 72 cf 85 bd 24 50 b0 bd 88 e7 9e 3a 24 cb 78 3c
       -0.06533708 -0.086090356 0.0012123445 0.015185151
000060 75 48 69 bb c1 c0 22 bd 58 29 67 3b 0b 3c 0e 3e
       -0.0035596166 -0.039734606 0.0035272446 0.13890092
000070 8b 65 bf 3c 4b f1 c9 3d d4 0b 0b 3e 37 86 18 3d
       0.02336385 0.09860476 0.13578731 0.037237372
000080 7c e1 58 be dc 3f d9 bd 93 49 bf bc 10 94 2f 3e
       -0.21179765 -0.10607883 -0.023350513 0.17146325
000090 3b c8 9b 3d 2a 40 a2 bd 0e 6f a7 3d 30 d4 54 3d
       0.0760655 -0.079223946 0.08175479 0.05196017
0000a0 26 07 8c 3c 00 74 87 3e e8 31 6d 3d f6 32 0d be
       0.017093252 0.26455688 0.057908922 -0.13788971
0000b0 0a b0 86 bd 95 46 3d be 45 49 4a bc f9 09 86 3d
       -0.065765455 -0.18483956 -0.01234657 0.06544871
0000c0 38 18 db bd a5 1b 0a be 24 d5 b3 3d f5 5e 11 bd
       -0.10697979 -0.13487108 0.08780888 -0.03549095
0000d0 2e b0 af 3d 19 97 92 bd 2b 04 0d bd fa 7a a5 bc
       0.085785255 -0.07157726 -0.034427803 -0.020200241
0000e0 46 56 1e 3e 17 9d 77 3e a7 ee be 3d dc 7c 60 3e
       0.15462598 0.24181019 0.09322863 0.2192263
0000f0 56 72 0a 3e c4 f3 0b be 04 f2 0e bd c3 59 f9 bc
       0.13520178 -0.13667208 -0.034898773 -0.03043831
000100 bb 81 3c be 4d 6f 5d be a2 d5 1a be 83 aa dd 3b
       -0.18408863 -0.21624489 -0.15120557 0.0067647113
000110 2d 91 00 3e 15 91 2c 3e 0b 6c dc 3d e3 2f d3 3d
       0.1255538 0.1685222 0.10762795 0.10311868
000120 d9 c5 47 3e aa 1e 23 3d ae 5c 9c bd ea 37 32 be
       0.19509067 0.039824165 -0.07634865 -0.17404142
000130 a9 65 8c 3d 00 f2 48 3e 3f 8e 94 3d d7 e3 d0 3d
       0.06855328 0.19623566 0.07253694 0.10199707
000140 ba 4d cb 3d 0e 52 5c 3d 1d 1f 8c bd f4 7a 1e 3d
       0.099269345 0.05378919 -0.06841872 0.038691476
000150 6d 71 ce 3b 4b ac d4 3d bb 95 5f bd a0 3e 72 bd
       0.0063001425 0.10384425 -0.054586153 -0.059141755
000160 72 44 1b 3d 56 4d 6c 3a 92 e9 01 be 97 31 e9 bd
       0.03790707 0.00090142095 -0.12686756 -0.11386412
000170 57 48 6a bc 79 9a 2f bb d8 73 29 be fb 42 25 be
       -0.014299474 -0.0026794954 -0.16548097 -0.16138832
000180 5f f5 b2 bc fd c6 3c bc dc f1 a6 3c af f6 10 bd
       -0.021845518 -0.011522052 0.020379 -0.035391506
000190 6a 09 23 bc 75 af 68 3c ac 7b fe bc ba 09 74 bd
       -0.009950975 0.0142019885 -0.03106483 -0.05957959
0001a0 65 c9 21 3d 46 9f 54 bd 38 d7 05 3e 67 c6 0b 3e
       0.039498705 -0.051909707 0.1307038 0.13649903
0001b0 92 69 50 bc dc 2b 3b bc ab d3 51 3e 0b f4 a8 3d
       -0.012720482 -0.011424031 0.20490901 0.082496725
0001c0 40 1b d3 3d 2a a9 3d 3c e9 a8 63 be 19 69 27 3e
       0.10307932 0.011575976 -0.22232403 0.16348685
0001d0 25 72 3b 3e 14 f0 87 3c 71 27 15 bd 2b 5a 0e be
       0.18305261 0.01659397 -0.036414567 -0.13901584
0001e0 8c 81 d3 3d 38 53 ef bd 81 3f 37 be fc bc f6 bb
       0.103274435 -0.116857946 -0.17895319 -0.007529853
0001f0 b3 22 3e 3d b3 60 0e 3e fb 21 ce 3d e8 f8 b8 3d
       0.04641981 0.13904075 0.10065075 0.0903185
000200 88 94 a5 bd f6 a1 4d be cf c9 80 3c b1 ed e1 3d
       -0.08084971 -0.20081314 0.01572123 0.11031664
000210 80 79 50 3e 41 88 f0 bd ee 3a 6c 3e d0 30 95 3e
       0.20358849 -0.11744738 0.23069355 0.29138803
000220 e0 e8 4c bd ba 75 23 3d a7 57 89 3d fe 76 60 3d
       -0.050026774 0.039907195 0.067061715 0.05480098
000230 30 41 c0 3c b9 dd 11 3e ba 44 86 bd b7 7f 18 bd
       0.023468584 0.14244737 -0.06556077 -0.037231173
000240 10 2f fd bd 6f da 63 bc 37 cd 03 bd 69 44 67 bd
       -0.12362492 -0.013907059 -0.03217813 -0.056461725
000250 61 89 61 bd 40 ae 21 be 13 3d e7 bd d9 e2 87 3d
       -0.055062655 -0.15789127 -0.11290946 0.06635065
000260 e5 07 4b bd 55 2b 6d 3d 78 ff 12 3d 9d 86 04 3e
       -0.049568076 0.057902653 0.035888165 0.12941976
000270 25 49 2e be d9 52 cd 3d 71 90 a6 be af 73 13 bd
       -0.1702009 0.100255676 -0.32532075 -0.035998996
000280 cc 3a 47 bd 6b f5 ea 3d 53 72 34 3e 56 ac d4 3d
       -0.048640057 0.11472591 0.17621736 0.10384433
000290 3c 96 04 3e 87 90 f4 bd 91 c8 81 3e 44 0a 81 3e
       0.12947935 -0.11941629 0.25348333 0.25203145
0002a0 a0 71 a9 3d 74 6e 20 3e db 56 db 3d 2f ef 7f 3d
       0.082736254 0.15667135 0.10709926 0.062483963
0002b0 05 14 b6 3d 42 0e f2 3d f5 c9 14 be de c0 16 be
       0.08890537 0.11819126 -0.14530165 -0.1472201
0002c0 63 7b 91 3a 22 a0 8d 3d 2b 2c 4a be ab 07 83 be
       0.0011099394 0.069153085 -0.19743411 -0.25591788
0002d0 55 a2 5e bc 30 34 19 3e 6a 44 06 be 37 e1 02 3e
       -0.013588508 0.14961314 -0.13112035 0.12781225
0002e0 ef f6 71 bc 59 f2 09 be 56 a0 46 be fa a6 13 be
       -0.014768346 -0.13471355 -0.19397101 -0.14419165
0002f0 fc 70 12 bd 8a 5c dd bc 62 8b 3c 3d 7e d0 f3 3d
       -0.03575228 -0.027021665 0.046031363 0.11905001
000300 e1 3a db 3d 10 1f 52 be 78 6f 07 3d 8e 6d 25 3e
       0.1070459 -0.20519662 0.03306529 0.16155073
000310 23 5a 02 3e 6d 73 dd bc 00 a2 95 3d a1 d8 8e 3b
       0.12729697 -0.027032578 0.0730629 0.0043593203
000320 2d ef 23 3e 6b 33 c6 bc b3 09 fb 3c 2a 6e a7 3d
       0.16009207 -0.02419444 0.030644273 0.08175309
000330 3a a9 48 be ea a7 4c be 5b 4a 44 3d e2 ca 0b 3e
       -0.19595805 -0.19985929 0.047922473 0.13651612
000340 70 ac 2f be 3c a3 48 3e 50 f5 63 be 4b 6c 0f be
       -0.17155623 0.19593519 -0.22261548 -0.14006154
000350 dc 66 7c be f1 12 ab bd ed 5f 06 3e d5 76 17 3e
       -0.24648613 -0.08353222 0.1312253 0.14791425
000360 7b ec 14 be c5 f3 3e 3e 6d 3d 68 3e 40 65 4a 3e
       -0.14543335 0.18647678 0.22679682 0.19765186
000370 6b db 19 3e 79 ed cc 3d a1 36 95 ba 91 df b8 3d
       0.15025108 0.10006232 -0.0011384079 0.09027017
000380 1e 7c 8c be 2c d9 89 be 3d 55 ed bd 1c 9f 84 be
       -0.27438444 -0.26923501 -0.115885235 -0.2590264
000390 79 0d f9 3c 34 da d5 bd 3b f0 1f 3e a4 14 5a bd
       0.030401932 -0.104420096 0.15618984 -0.05324234
0003a0 04 a2 84 3d ae ea ef 3d 44 d6 85 3d 12 d8 14 be
       0.064762145 0.117146835 0.065350085 -0.1453555
0003b0 ab 8a 1d 3e 98 e3 5a 3d be 96 bc bb 09 6b f5 3d
       0.15384929 0.053439707 -0.0057552746 0.11983306
0003c0 98 d2 28 be b7 bd 92 be
       -0.16486585 -0.28660366

tcn_layers.0.tcnblock.network.0.net.4.bias f4 [11]
000000 bf 1d 7c 3d 41 9d 39 bd 12 86 37 be 35 a6 3c 3e
       0.061551806 -0.045315985 -0.17922238 0.18422778
000010 96 1e 0c bd a8 95 3b bd c2 99 e5 bd 23 29 e4 bd
       -0.034208857 -0.04579702 -0.112109676 -0.11140659
000020 db 99 b3 bd 62 e1 87 bd 57 df ec bd
       -0.0876958 -0.06634785 -0.11566036

tcn_layers.0.tcnblock.network.0.net.4.weight_g f4 [11, 1, 1]
000000 45 65 11 3f 78 12 1d 3f 75 c4 26 3f 32 ab 64 3f
       0.5679515 0.61356306 0.6514352 0.89323723
000010 32 87 0a 3f 85 fa 41 3f 7d 19 10 3f a7 ef 1c 3f
       0.5411254 0.7577289 0.5628889 0.6130318
000020 23 6c 46 3f 82 6d 2b 3f aa fc 26 3f
       0.77508754 0.6696397 0.65229285

tcn_layers.0.tcnblock.network.0.net.4.weight_v f4 [11, 11, 2]
000000 db 91 66 be a0 4a e9 bd 2e 0a 1e 3e 06 64 1d 3e
       -0.22516577 -0.11391187 0.1543357 0.15370187
000010 f9 98 9f 3d 8f 18 0d 3e 5e 68 47 be 46 c4 3f bd
       0.07792849 0.137789 -0.19473407 -0.04681804
000020 f0 0e d3 3d 46 3b 33 3e 78 ab 61 bd ab b7 47 bc
       0.103055835 0.1750308 -0.055095166 -0.012189786
000030 b7 58 2b 3e 36 3f a2 3c c4 f0 c6 3d af f0 d3 bd
       0.16733061 0.019805532 0.09713891 -0.10348641
000040 55 b7 9d bc 01 31 47 3d d0 8e 8e bd c2 e5 17 ba
       -0.019252459 0.04863072 -0.06960833 -0.00057944295
000050 17 af 25 3e 37 9d a6 3c e4 75 09 be d1 53 4b be
       0.16180073 0.020338638 -0.13423878 -0.19856192
000060 d1 68 e4 3b 09 6b 88 3d 9c bd e3 bd 7a 52 ab bd
       0.006970503 0.0666104 -0.111201495 -0.083653405
000070 3c 93 02 be 34 8a 9d 3d 6e b0 30 3e 41 23 10 3e
       -0.12751478 0.07692376 0.17254803 0.14075948
000080 70 36 b7 3d e4 3e 4f 3d 26 fd 80 3e 20 7d 83 3e
       0.0894593 0.050597087 0.25193137 0.256814
000090 e9 bb 4c 3e ec 43 b8 bc 06 95 5a bd 8a a5 ad bd
       0.19993557 -0.022493325 -0.053364776 -0.0847884
0000a0 16 1e a2 3d 44 42 e9 3d 23 1f 7b bc 50 b9 97 3e
       0.07915895 0.11389592 -0.015327248 0.2963357
0000b0 2f 2f 87 3e 82 6b d5 bd 22 0d cc bd 24 5f 9d bd
       0.26403186 -0.10420896 -0.099634424 -0.07684162
0000c0 2d b5 2e be 0a 69 e8 3d 9f e3 9f bd 62 f1 7f 3e
       -0.170613 0.113481596 -0.07807087 0.24994424
0000d0 91 23 62 be cf 45 2c bd 70 62 15 3e 45 83 50 3e
       -0.2208388 -0.042058762 0.14588332 0.20362575
0000e0 38 67 12 3e de 73 b7 bd 92 61 2e 3e f9 3c f1 3c
       0.14297187 -0.08957647 0.17029408 0.02944802
0000f0 27 90 c5 3d 92 c9 62 3d 10 eb c7 bd 2f 3d 2d 3e
       0.096466355 0.055368014 -0.097616315 0.16917871
000100 74 48 07 be 79 b8 e7 3d af 6c f4 bd 31 1e b9 bd
       -0.13211232 0.11314482 -0.11934792 -0.09038962
000110 17 ec fe 3d 1f 95 26 3e 3a 13 a2 be 1e c1 a3 be
       0.12447374 0.16267823 -0.31655294 -0.31983274
000120 37 b2 0f be ab 76 17 be 0f 19 2f 3c af 4c c7 3d
       -0.14032827 -0.14791362 0.010687127 0.09731423
000130 99 72 43 3d b4 e8 1d be 16 b9 c0 3d 27 85 0f 3e
       0.04771671 -0.154208 0.09410302 0.14015637
000140 6b ed 5d be 44 54 19 be 1b 9f 06 3e 20 f1 35 bd
       -0.21672599 -0.14973551 0.13146631 -0.044419408
000150 60 f8 2d 3e 22 94 93 bd 6b e5 00 bd be d6 17 be
       0.16989279 -0.072059885 -0.03146879 -0.14828011
000160 31 0e 39 3d c0 8c cf 3d c8 f8 0e 3e 4e 03 61 bd
       0.04517955 0.10134268 0.1396209 -0.054934792
000170 e6 b2 1f bb 85 24 a8 3c f0 f3 2a 3e 36 f5 2d 3e
       -0.0024368106 0.020525226 0.16694617 0.16988072
000180 69 73 47 3d bc 66 8f bc 71 ff 0d bd 9d f9 b7 3d
       0.048694048 -0.017505042 -0.034667436 0.08983157
000190 29 e2 08 bd bc e2 18 3d c2 ac 34 3e 42 7a 93 bd
       -0.033418808 0.037325606 0.17644027 -0.07201053
0001a0 4c 36 8f bd 94 ab 9c 3e 49 ef 5d 3e c1 0d 2d be
       -0.06992778 0.30599654 0.21673311 -0.16899778
0001b0 e1 10 51 bd a2 15 ef bc 62 b7 96 bc 05 91 91 bc
       -0.051041488 -0.02918512 -0.01839799 -0.017769346
0001c0 b8 4d ef 3c f9 3b 5b bc ef 9e 18 3c 53 0a 1d bd
       0.029211864 -0.013380998 0.0093152365 -0.038339924
0001d0 a1 3e 92 bc cc ab 66 bc bc b6 af 3d 5d 90 9f 3d
       -0.01785213 -0.0140790455 0.08579776 0.07791207
0001e0 b7 5d 56 bd 58 68 54 bd 12 1d 22 3c d2 95 be 3d
       -0.052335467 -0.051857322 0.009894626 0.0930592
0001f0 b2 1d 94 bc 8a 37 af bc 83 09 ab 3e c9 83 a6 3d
       -0.018080566 -0.021388788 0.33405694 0.08130605
000200 cd 7a 6e 3c 0a fd ca 3c cd dd b8 bd cc 71 96 bd
       0.014555645 0.024778862 -0.0902668 -0.07345924
000210 06 bd ea 3d 1a 8c 08 be 07 c6 38 3d 71 0f 77 3e
       0.114618346 -0.13334695 0.04511073 0.24126984
000220 52 3c b0 3d b0 23 cd 3d 58 f0 17 be 94 b5 af bd
       0.08605255 0.100165725 -0.14837778 -0.08579555
000230 58 0b 82 3d 6d e5 6f bd 82 33 d3 3d ad 56 e0 bd
       0.0634982 -0.058568407 0.10312559 -0.10954032
000240 02 18 96 bd 7c 5a fc bd 20 04 7d 3d 03 22 26 bd
       -0.07328798 -0.12321946 0.061771512 -0.04055978
000250 78 d4 03 3e b1 ea 55 bc c7 a9 ce bd 14 ad 77 3e
       0.12874019 -0.013056443 -0.10090976 0.24187118
000260 33 fb c6 3d ec 1d 78 3d f4 2b 14 3e bd db 0d be
       0.09715881 0.06057541 0.14469892 -0.13853355
000270 3b 07 29 3d 83 35 9e 3c c4 65 b8 3e bb a2 d0 3d
       0.04126666 0.019312626 0.3601514 0.101872884
000280 f4 58 9f 3c 7d 1a 20 3e b2 65 85 3d 83 c8 37 be
       0.019451596 0.15635104 0.065135375 -0.17947583
000290 96 c7 a2 3c 19 ec da 3d 21 f7 2f 3d e2 9b 1e 3e
       0.01987056 0.10689563 0.04296029 0.15489152
0002a0 a7 50 df 3d b9 e2 e0 3c e7 b1 94 3e 7a 5f e0 bb
       0.10904055 0.02745186 0.2904198 -0.006847319
0002b0 27 b8 ff bd e3 63 de 3d be 9f 85 3d c3 41 56 3e
       -0.12486296 0.10858896 0.06524609 0.20923524
0002c0 5e cc 4b 3c 44 cc 7a 3e 39 69 af bd 82 12 b1 3c
       0.012438862 0.24491984 -0.085649915 0.02161527
0002d0 37 d9 f3 bd b3 a1 ae bc de 27 92 3e e0 0d 87 3e
       -0.11906665 -0.021317339 0.2854604 0.26377773
0002e0 31 3c ae bd e4 91 df 3b fc d2 2d be 95 23 06 3e
       -0.08507574 0.0068228114 -0.16975015 0.13099511
0002f0 67 ba 48 3e ed 7f 51 3e a0 0f ec bd 7a a9 15 bd
       0.19602357 0.20458956 -0.11526418 -0.03653858
000300 41 55 f1 bd ce f7 2e be 18 40 f9 bc 7b a2 a6 bd
       -0.11783839 -0.17086717 -0.03042607 -0.081364594
000310 a1 39 87 be b4 df 1d be 01 3f 04 3d 57 21 ea 3c
       -0.26411155 -0.15417367 0.032286648 0.02858035
000320 29 70 9c bc e2 64 dc 3d 60 9d 11 be 05 d6 a2 bd
       -0.01909645 0.10761429 -0.1422019 -0.07950977
000330 ec d4 38 bd c1 1f 12 3d 40 da 9e 3e c7 ed c1 3e
       -0.045124933 0.035674814 0.31025887 0.37876722
000340 62 71 e2 bd 52 e8 c0 bd b8 dd 76 bc 31 9c 5b bd
       -0.11056782 -0.094193116 -0.01506751 -0.053615753
000350 a4 52 99 bd 04 5f c4 bd 82 62 28 3e 43 8b f0 3d
       -0.074864656 -0.09588435 0.16443828 0.11745312
000360 08 10 eb 3c 5a 2c af bd 9b 15 68 bc a0 79 5d 3e
       0.028694168 -0.08553381 -0.014165307 0.21628428
000370 e8 ca 2c 3e 83 c6 93 3e cf b0 a3 bd e3 d8 c2 bc
       0.16874278 0.2886239 -0.07992708 -0.02378506
000380 e4 23 6d bc e9 b6 04 be 27 88 c7 bd ad 0e b4 bd
       -0.014473889 -0.129604 -0.09742766 -0.08791862
000390 d8 be 23 bd 94 db 4a be 21 4e 42 3e aa e8 8a 3e
       -0.039976925 -0.19810325 0.18975116 0.27130634
0003a0 5c 05 26 bc 96 0d 32 3d 66 7e 89 bd 5f 67 a8 bd
       -0.010133114 0.043469988 -0.06713562 -0.082228415
0003b0 b5 65 35 3e fc a1 4b 3e 01 75 8d b5 93 e8 54 3e
       0.1771458 0.19886011 -1.0539371e-06 0.20791845
0003c0 fa 4b d2 3d 95 5d 3a 3d
       0.10268398 0.045499403

tcn_layers.0.tcnblock.network.1.conv1.bias f4 [22]
000000 ba 14 c8 3a 0d 9c ae 3d a9 dc 21 3d 59 eb b3 3d
       0.0015264966 0.08525858 0.03951708 0.087851234
000010 22 f6 e7 bc 88 53 1d 3e bd ef 19 be ab 05 4f 3e
       -0.028315607 0.15363896 -0.15032859 0.20217006
000020 90 42 d8 3d 63 35 dd bd 88 23 ed bd d2 ba 13 be
       0.10559571 -0.10801198 -0.11579043 -0.14426735
000030 dd d5 9e 3c 09 5b 89 3d 55 7b 9d 3d 79 ee 32 3e
       0.019389087 0.06706817 0.07689539 0.17473783
000040 8c 97 ad bd 13 a8 1f 3d 97 ea ef bd 14 db 8d bd
       -0.08476171 0.038978647 -0.11714666 -0.069265515
000050 76 88 e3 3d b5 0b 63 3c
       0.11110012 0.013857772

tcn_layers.0.tcnblock.network.1.conv1.weight_g f4 [22, 1, 1]
000000 fd bf 35 3f 3a 18 22 3f 74 14 04 3f 6d b6 66 3f
       0.70996076 0.63318217 0.5159371 0.9012211
000010 a1 b9 fc 3e cc a3 39 3f 38 be 19 3f df f7 4a 3f
       0.49360374 0.7251556 0.60055876 0.7928447
000020 a8 e4 4e 3f f0 37 24 3f d4 15 10 3f 74 16 02 3f
       0.8081765 0.64147854 0.5628331 0.5081551
000030 8d 7f 00 3f 99 7d 25 3f a8 c7 56 3f ed 72 7a 3f
       0.5019463 0.6464477 0.838984 0.9783161
000040 6e e9 21 3f ab 56 15 3f fd 07 1e 3f fa f2 21 3f
       0.6324681 0.5833537 0.6173094 0.6326138
000050 86 63 1b 3f 54 9d 3a 3f
       0.60698736 0.72896314

tcn_layers.0.tcnblock.network.1.conv1.weight_v f4 [22, 11, 2]
000000 c8 52 a1 bd ba bd d5 3d 07 e5 03 be 75 87 70 3d
       -0.078771174 0.10436578 -0.12880336 0.058722932
000010 ad 94 c9 bd 89 7f 3a bd b7 61 a0 be ae 57 4f be
       -0.09842811 -0.045531783 -0.3132455 -0.20248291
000020 5c 18 34 3e b8 a9 c7 3d ae 3b a6 bd 0e b1 ad 3d
       0.17587417 0.09749168 -0.08116852 0.08481036
000030 08 61 d7 3d d5 e3 83 bd 8f f0 a7 bd 94 b9 07 be
       0.10516554 -0.0643994 -0.0820018 -0.13254386
000040 27 3d cf bd 3b eb 30 3e da 7a 0d 3e 41 71 67 bc
       -0.10119086 0.17277233 0.13816395 -0.014126123
000050 9b 46 de bd 16 7e d2 bd fb 62 0f 3e 70 5d 25 be
       -0.10853311 -0.10277955 0.14002602 -0.16148925
000060 4b 82 f6 3d 50 3c 06 3a b3 75 12 bd 8d 00 22 bd
       0.1203657 0.00051206816 -0.035756778 -0.039551307
000070 7e 99 41 bc 70 b6 09 3e b7 1e c2 bd b5 3d a4 bd
       -0.011816381 0.134485 -0.09478515 -0.08019582
000080 c5 a7 ba 3d 25 79 a5 bd ef 92 67 be e2 7d 32 be
       0.09114031 -0.08079747 -0.22614644 -0.17430833
000090 c9 4d 4e bd 09 62 4f be 99 3c ca 3d e1 a3 01 be
       -0.05036715 -0.20252241 0.09874839 -0.12660171
0000a0 2f fa 0f 3e 4a 63 aa 3d 52 2c 99 3d cf dc 0d bd
       0.14060281 0.08319719 0.074791566 -0.034634408
0000b0 3a 6a 0f 3e 76 13 9d bb ba 13 b7 bd e7 ee 1d 3e
       0.14005366 -0.0047935797 -0.089393094 0.15423165
0000c0 8e 78 8e bd 1a 32 41 be f3 05 82 bd eb 5a 8a bd
       -0.06956588 -0.18866768 -0.06348791 -0.067556225
0000d0 9b 34 26 bd c2 58 f2 3d 24 ad bb bd 2c 82 d1 bd
       -0.040577512 0.118333355 -0.09163883 -0.102299064
0000e0 d1 0e 69 bd 36 94 18 be 97 c3 99 3e b7 54 21 bd
       -0.056898896 -0.14900288 0.30032036 -0.03938743
0000f0 7e e2 4e bd 1c 47 0a 3e 05 4e 5c bd 13 ff 07 be
       -0.05050897 0.13503689 -0.053785343 -0.13280897
000100 32 05 1e be 5b fa fa bc cf e7 77 be 49 b5 0b be
       -0.1543167 -0.030636957 -0.24209522 -0.13643374
000110 bc 16 54 3e 4d 3f d4 bd 6e f0 a0 3c 04 9e 69 3c
       0.20711797 -0.10363636 0.019645896 0.014258865
000120 de 6e 41 3b d6 af 86 bd c8 6c a1 3d 5f c4 2c 3a
       0.0029515545 -0.06576507 0.078820765 0.0006590541
000130 81 73 8d bd f4 be 9b bd f5 fc 19 3e 39 27 c6 3b
       -0.06906796 -0.07604781 0.15037902 0.006047156
000140 9c 51 26 3e b9 d8 4c 3e 04 8d 8f bd a0 17 4a be
       0.16242069 0.20004548 -0.070093185 -0.19735575
000150 a9 de a3 3c bc b3 2c ba b3 74 1f 3d f5 30 7f 3d
       0.020003634 -0.0006588062 0.038929652 0.06230255
000160 91 c5 c5 bd 20 b3 ce bd 64 05 11 be d4 18 34 bd
       -0.096568234 -0.10092759 -0.14162213 -0.04396899
000170 67 78 a3 3d c6 52 08 be a0 83 66 3d 7b 3b 15 3e
       0.07981949 -0.13312826 0.05627787 0.14573471
000180 7d f5 0c 3e 9a 66 28 3c aa d5 6e bd 36 f5 57 bd
       0.13765521 0.010278368 -0.058309235 -0.052724086
000190 35 fa a6 3d 7f fd 8a 3a 87 ab 5d 3d 0b ac 98 bd
       0.08153192 0.0010604112 0.05411866 -0.074546896
0001a0 76 69 1f 3c 74 7c 1e 3d ca 35 b0 bd d4 6b 9f bc
       0.009729734 0.038692906 -0.086040094 -0.019460596
0001b0 d4 bd 4b 3e f6 f4 ee 3d 29 62 bf 3d 40 da a5 bc
       0.19896632 0.11667816 0.093448944 -0.020245671
0001c0 3a f8 7f be 1b e6 dc bd 08 a3 fd 3c f1 fe 02 bd
       -0.24997035 -0.10786077 0.030961528 -0.031981412
0001d0 ed 72 57 be ff 27 96 3d 0a 82 d2 3d ed 18 1c 3c
       -0.21039934 0.073318474 0.10278709 0.009527427
0001e0 4c a4 02 be ad 6e 07 be 8a f1 6e be 78 2e 30 be
       -0.12757987 -0.13225813 -0.23334327 -0.17205226
0001f0 fe 74 c5 3d 5d 41 eb 3d 6c 07 6d 3d a5 f1 0d be
       0.09641455 0.114870764 0.057868406 -0.13861711
000200 e6 7b 22 be 1e e6 85 be a7 ef 0d be 15 ed c2 bd
       -0.15867576 -0.26152128 -0.13860951 -0.09517876
000210 ca db 59 bb ea ac 20 be b0 80 a5 3d 84 17 cf ba
       -0.0033242577 -0.15690961 0.08081186 -0.0015799855
000220 4c eb 85 3d a8 15 33 be af 9e 3b be 50 64 7a 3e
       0.0653902 -0.1748873 -0.18322252 0.24452329
000230 96 9f f4 bc 0f 16 4b bd 7e 99 4b 3e 7c 0f 4c 3e
       -0.029861253 -0.049581584 0.19882771 0.19927782
000240 de 5c a2 bd ff 98 12 3e a6 66 ff bd f6 7b d2 3d
       -0.07927869 0.14316176 -0.124707505 0.1027755
000250 a7 40 1c 3d 0d 9a c2 3d e5 03 83 bd 49 2a e5 bd
       0.038147595 0.09502039 -0.06397227 -0.11189706
000260 d8 b3 1b 3e 8b 04 c9 3d d2 25 74 be c3 f5 86 be
       0.15205324 0.0981532 -0.23842552 -0.26359376
000270 96 90 59 3d 2f 71 27 3e 6e b0 4f ba e4 4e c5 bc
       0.053116404 0.1635177 -0.00079227134 -0.02408547
000280 b2 f3 32 be 07 0b 52 be be f2 7f bd a7 8a 99 bd
       -0.17475775 -0.20512019 -0.062487356 -0.07497149
000290 9e 03 24 3c b5 aa a7 3c 67 59 80 3c ea 5a 0c be
       0.010010628 0.020467142 0.01566763 -0.13706556
0002a0 f0 54 92 bd 6f 46 2a 3d 7f 0c 4e bd f8 ed 84 bc
       -0.07145107 0.041571077 -0.050304886 -0.016226754
0002b0 4d ac bb bd 81 62 e8 bd c6 fa 0f bd e4 2f 5b bd
       -0.09163723 -0.11346913 -0.035151266 -0.05351247
0002c0 cf e8 36 be 1a 7c 44 bd f6 e7 06 be 9e b1 b2 3c
       -0.17862247 -0.047969915 -0.13174424 0.02181321
0002d0 06 8e fa 3c a6 a7 11 3d 5b 27 3e bc d1 2d d9 3d
       0.0305853 0.035560273 -0.011606063 0.10604442
0002e0 21 7d 9e 3b 35 e0 07 be c9 ac a2 bd 1d 5a cf bc
       0.004836694 -0.13269122 -0.079431124 -0.025311524
0002f0 1f b8 6f 3e 52 90 84 bd b7 68 93 bd 09 93 58 3b
       0.2341008 -0.064728394 -0.07197707 0.0033046624
000300 a2 ba cb bc 61 dd ef bd 00 63 38 be d1 c4 f8 3d
       -0.024869267 -0.117121466 -0.18006516 0.12146915
000310 67 13 f1 3d 07 7b 8a 3d 24 ba a4 bd 6f 26 46 3c
       0.11771279 0.06761747 -0.08043316 0.012094124
000320 d7 14 23 3e b5 6d 15 3c e2 59 05 3e 1e 04 4d 3e
       0.15925919 0.0091203945 0.13022569 0.20021102
000330 3e 73 d3 bd d2 b5 5b 3e ed 4a 53 3e 6a 84 4d 3e
       -0.10324715 0.21456078 0.2063405 0.20070043
000340 ea 4b c5 3c 14 1d ab bd b4 c0 42 3e 00 b5 fa bd
       0.02408405 -0.083551556 0.19018823 -0.12241554
000350 a3 e5 48 3e 37 ff f0 bd 0d 45 70 bd 5f a6 29 3c
       0.1961885 -0.11767428 -0.058659602 0.010354607
000360 8b 17 60 3e 40 52 2d 3d 46 34 ca bc e2 0d 0c 3e
       0.21883981 0.042314768 -0.024683129 0.13677171
000370 7d 55 e4 bc e2 16 4f bd 21 68 80 3d b8 85 95 3d
       -0.027872795 -0.050558932 0.06269861 0.073008955
000380 cf 86 8b bd 97 89 2f bc 06 6e 48 3e 22 b7 4e 3e
       -0.06812822 -0.010713956 0.1957322 0.20187047
000390 41 99 f0 3a 23 72 5e 3d c8 63 43 be a6 d1 66 bd
       0.001835622 0.054308068 -0.19081032 -0.05635228
0003a0 0b 58 b2 3a 4e 48 cd 3c dd 3d 2a 3d 29 07 12 be
       0.0013606561 0.025058892 0.041562904 -0.14260544
0003b0 74 18 30 3e c5 ae 1a be bb 4c 5b be 17 88 d2 bd
       0.17196828 -0.15105732 -0.21415989 -0.10279863
0003c0 da 17 d3 3d 46 b7 ec bd 3c 64 92 3d ce 9e fd bd
       0.10307284 -0.11558394 0.071480244 -0.12383805
0003d0 53 72 4c bd 88 dc 57 3d 38 8f 49 3e 77 bc e4 bd
       -0.049913716 0.05270055 0.1968354 -0.11168759
0003e0 e3 58 47 bd 1c 0b af 3d b8 e4 3f bd c2 f0 1d 3e
       -0.048668753 0.08547041 -0.046848983 0.15423873
0003f0 14 fc a6 bd 30 1e f4 3c c9 00 3b 3e 9a 63 a4 bd
       -0.08153549 0.02979955 0.18262018 -0.0802681

tcn_layers.0.tcnblock.network.1.conv2.bias f4 [22]
000000 b6 83 7b bc cc de 3c bd 30 bf 97 3c f4 d0 05 3d
       -0.015351227 -0.046110913 0.018523782 0.032669976
000010 95 40 b7 3d bd 95 bd bd 2b e7 51 bd 83 f9 89 3c
       0.08947865 -0.09257076 -0.05124585 0.01684261
000020 fe 8a 39 bd 62 85 27 bd bc d7 6a 3c cf 27 e4 bc
       -0.04529857 -0.04089869 0.014333662 -0.027851013
000030 05 28 da bd 67 55 16 3d 8b af e7 bd f9 61 12 3e
       -0.10652164 0.03670254 -0.11312779 0.14295186
000040 5c 28 1b 3b 92 b4 90 bd 52 0b d2 3b fc 50 41 3e
       0.002367518 -0.07065691 0.006410041 0.1887855
000050 ee 3f bd 3d fc 93 26 be
       0.09240709 -0.16267389

tcn_layers.0.tcnblock.network.1.conv2.weight_g f4 [22, 1, 1]
000000 bf 7f 16 3f ac fe 24 3f b3 b9 16 3f 13 d6 29 3f
       0.58788675 0.644511 0.58877105 0.66342276
000010 56 30 25 3f 59 b4 0b 3f ae 96 1e 3f bc a5 17 3f
       0.6452688 0.54572064 0.6194867 0.59237266
000020 a5 b5 1e 3f d5 8e 15 3f 31 ef 33 3f f0 8a 15 3f
       0.6199592 0.5842107 0.7028685 0.58415127
000030 31 f3 20 3f 6b 0f 0d 3f 20 73 25 3f a2 3a 41 3f
       0.6287108 0.5510165 0.6462879 0.7548009
000040 19 1d 06 3f a6 12 18 3f bd 3b 14 3f a7 96 57 3f
       0.5238815 0.59403455 0.57903653 0.8421425
000050 f9 1b 2b 3f 2d 5d 1e 3f
       0.6683956 0.61860925

tcn_layers.0.tcnblock.network.1.conv2.weight_v f4 [22, 22, 2]
000000 99 8c d4 3c 01 57 a2 bd 7a be 62 3e e6 e2 13 bc
       0.025945948 -0.07926751 0.22142974 -0.009026265
000010 82 72 b4 bd f6 d8 07 3c 96 53 87 bd 4e 87 04 bd
       -0.08810903 0.008291474 -0.066077396 -0.0323556
000020 52 6b a8 bc 99 8b d5 39 30 3f 40 bd ea 3f 22 bd
       -0.020558987 0.00040730534 -0.04693526 -0.039611734
000030 3f 51 de bd 7c 86 df 3a 23 11 c5 bd 42 aa 85 bd
       -0.1085534 0.0017053629 -0.09622409 -0.06526615
000040 83 c3 ea 3d 54 fd 9c 3d 3e 4e 60 bd 74 ea 92 bd
       0.11463072 0.07665506 -0.054762118 -0.07173625
000050 dd 24 cb bb 21 05 16 3e 6b c5 e2 bc b6 59 05 bd
       -0.006199463 0.14650394 -0.027682027 -0.03255626
000060 6d 33 fb 3b 06 09 bf bb f8 37 64 3e a1 dd e2 bc
       0.0076660425 -0.005829933 0.22286975 -0.027693572
000070 87 8d a0 bd be e1 51 bd 13 e6 4f bd b2 e3 06 be
       -0.07839494 -0.051240675 -0.050756525 -0.13172796
000080 41 fc a0 bd 91 09 ba 3c da 3e 27 3d b5 9c 18 3d
       -0.078606136 0.02270964 0.040831424 0.037258822
000090 c0 62 fc 3c 3a d8 29 bb 9e 55 da bd 44 8e 28 bd
       0.030808806 -0.0025916235 -0.106608614 -0.0411513
0000a0 b7 79 8f 3c a4 f9 8a 3d 9a 31 ff 3d 52 29 52 3e
       0.017514093 0.067858964 0.124606326 0.20523575
0000b0 33 e9 bf bd cb f7 92 bd 47 85 52 3d 5e 6c c3 bc
       -0.09370651 -0.07176169 0.051396634 -0.023855384
0000c0 21 9a 74 3d fa e0 ba 3c 70 e8 f6 3d 52 c0 aa 3d
       0.0597173 0.022812355 0.12056053 0.083374634
0000d0 6a f4 e0 bd 00 1b 8e 3d 17 7f 72 3e a1 46 54 3e
       -0.10984118 0.069387436 0.23681293 0.20730068
0000e0 74 e8 8d 3d dc 57 a5 bd 27 3c d3 3d b3 d0 4c bc
       0.069291025 -0.080733985 0.103142075 -0.01250093
0000f0 ba 90 2c 3e 79 88 43 3d 08 5a 81 bc a9 12 92 3c
       0.16852084 0.047737572 -0.01579 0.017831163
000100 fb 3d 1e bd 36 a4 47 be 7d 16 16 3c 64 9f a7 bd
       -0.038633328 -0.19496235 0.009160635 -0.08184698
000110 14 ad ba 3c a5 5a e0 bc 74 c8 2b 3e 9b f4 5a ba
       0.022787608 -0.027386973 0.16775686 -0.0008352489
000120 76 12 1d 3e 1f b5 0f 3e 4e d7 80 3d ab 2b f3 3d
       0.15339074 0.14033936 0.06291066 0.118735634
000130 97 be 7b 3d 23 03 3f bd 71 b5 3a bc 0c 08 1e bd
       0.061461058 -0.04663385 -0.011395798 -0.038581893
000140 69 8e e6 bb 14 af b9 bc 57 13 4f 3d a8 50 bb 3c
       -0.0070360196 -0.022666492 0.050555553 0.022865608
000150 00 75 43 bc b6 5b a2 3d 38 31 cd bd 30 44 a7 bd
       -0.01192975 0.07927649 -0.10019153 -0.081673026
000160 51 88 87 bd 8f 37 a7 bd fc fd 12 bd 43 48 87 bb
       -0.06617797 -0.08164894 -0.03588675 -0.0041284873
000170 84 b6 b8 3b 12 79 5e 3d c8 2e 9c 3d b3 cc 4a bc
       0.005636992 0.05431468 0.0762611 -0.012377906
000180 49 50 d4 3d 3e 3f e0 3d 04 05 b1 3d 0f 6d 9c bc
       0.10366876 0.109495625 0.08643535 -0.019094972
000190 84 a6 e5 3c cd 92 14 3b 62 6a 46 3e 08 05 69 3e
       0.028033502 0.0022670508 0.1937652 0.22755826
0001a0 01 9b 8a bd e7 e8 92 3d 93 40 ba bd 4d 93 9a 3d
       -0.06767846 0.07173329 -0.09094348 0.07547627
0001b0 12 a9 c2 3b 07 0f 8c bd e3 42 3d bc 71 4e 7e bc
       0.005940565 -0.06838804 -0.011551592 -0.015521632
0001c0 a5 a7 2a 3d 2d 36 a7 bd 94 64 c3 bc 0c b1 60 bd
       0.041663785 -0.0816463 -0.02385167 -0.054856345
0001d0 9e 46 e5 3d bb 5e 16 3e 18 19 ba bc a2 28 c9 3c
       0.1119511 0.14684574 -0.022717044 0.024555508
0001e0 c6 8d 10 3d a7 b9 6b bc db 54 cc 3d 0f ee 89 3d
       0.035291456 -0.014387525 0.099771224 0.06734859
0001f0 87 5c c3 bd 83 c2 c7 3b 95 6b 12 bd ae 7c 30 3d
       -0.095391326 0.0060961857 -0.03574713 0.043087654
000200 96 af e2 3c 85 a3 32 bc 68 13 87 bd d2 b2 d5 bd
       0.027671617 -0.010903244 -0.06595498 -0.10434498
000210 70 7f c4 bc 41 4d e9 3d fb 45 88 bc 7c d1 a4 3e
       -0.023986548 0.11391688 -0.016634932 0.32191074
000220 91 bf ef bd 4e 9e 6d ba df 2b 83 bd 9a d1 4d 3c
       -0.1170646 -0.0009064422 -0.06404852 0.01256218
000230 27 d2 16 3d 8f 0f c0 3d f3 42 89 3b 1b f0 2a 3d
       0.03682151 0.093779676 0.004188889 0.04173289
000240 e6 07 94 bd 85 4c 62 3d a1 03 b1 3d 18 14 7b 3d
       -0.07228069 0.055248756 0.0864327 0.06129846
000250 a1 31 dc bc 2f df cb bb 58 b4 1c be 99 ad 1b be
       -0.026879134 -0.006221674 -0.1530317 -0.15202941
000260 07 24 0a bd dc 6c f3 3d a0 34 be ba 13 5c a7 bd
       -0.033725765 0.11885998 -0.0014511533 -0.08171859
000270 25 c1 19 3d 98 42 c3 bd d4 e5 90 bd 91 db aa 3d
       0.037537713 -0.09534186 -0.07075086 0.0834266
000280 e6 4f eb 3c d8 16 41 bc 20 74 3c 3d 8d 0e 6e 3a
       0.028724622 -0.0117852315 0.046009183 0.0009081148
000290 4a 55 31 be a6 8a 4f bd 38 74 51 bd 2e d3 e3 3b
       -0.17317691 -0.050669335 -0.051136225 0.006952665
0002a0 7c 25 b5 bb 9f 4b 1c 3d ae 05 63 3d 26 a4 3f 3c
       -0.00552815 0.038158055 0.05542534 0.011696851
0002b0 62 1a b6 3c 21 dd 17 bd 71 a7 84 3e 3e 27 64 3e
       0.022229377 -0.03707612 0.25908998 0.22280595
0002c0 17 81 08 bd 0b d4 22 be 2c 84 01 be dd 06 28 bd
       -0.033326235 -0.159012 -0.12648076 -0.04102217
0002d0 3e 89 12 be 57 fa f2 bd b5 b9 95 bc 35 e6 af bd
       -0.14310166 -0.11864155 -0.018277029 -0.085888304
0002e0 1a e1 b7 3d 11 b4 a2 bd 16 9c e0 3d 97 4c 76 3e
       0.089784816 -0.07944501 0.10967271 0.24052654
0002f0 18 2c 90 bd d4 25 32 3d 04 91 3b 3e 3c 83 02 3d
       -0.0703966 0.043493107 0.18317038 0.031863436
000300 fb 3a 04 3e ae 58 84 3d d4 36 c3 bc 68 33 bc bd
       0.12913124 0.06462227 -0.023829855 -0.091894925
000310 44 71 0b be a5 4f 1d be 67 13 e4 3d 50 20 dc 3d
       -0.13617426 -0.15362413 0.11136513 0.107483506
000320 4f 2a aa 3d 09 eb 45 bc 51 a8 31 bd 30 ee 13 bc
       0.08308851 -0.0120799625 -0.04337341 -0.009028956
000330 56 3e 00 3e ab 59 19 3e e5 12 d0 3d 25 62 8c 3d
       0.1252378 0.14975612 0.10159854 0.06854657
000340 77 aa 8d bd f1 60 03 3e bd 8e a7 3d a1 6e 02 be
       -0.06917279 0.12829949 0.08181522 -0.12737514
000350 18 4a 03 be dd 00 0d ba 81 68 02 be f3 cb c4 3d
       -0.12821233 -0.0005378852 -0.12735178 0.09609213
000360 c8 dd 33 bc d1 e2 e1 3d 93 da 05 bd 7e c3 57 bc
       -0.01097817 0.1102959 -0.03267915 -0.013169168
000370 3d a8 68 3d a3 7a 8f bc eb d7 36 bd 3b 3b c2 3d
       0.05680107 -0.017514532 -0.04463951 0.094839536
000380 7a db 5b 3d 1b 6d bf 3d a0 97 77 bc 1a 45 e0 bc
       0.053676106 0.09346982 -0.015111834 -0.0273767
000390 39 da 97 bd c6 38 b0 bd 26 43 ca bd 7d 8e 48 bc
       -0.074146695 -0.08604579 -0.09876089 -0.012241003
0003a0 7a 69 db bd f9 3b ad bd 58 67 f7 bc c4 4c 47 3d
       -0.107134774 -0.084587045 -0.030200645 0.048657194
0003b0 a7 c4 f7 3d f5 fc 12 3e 90 b8 97 bc 03 83 1b bd
       0.12098055 0.14354308 -0.018520623 -0.03796674
0003c0 d0 6c 02 bd 15 f2 0e 3e ad ca 51 bd f6 15 85 bd
       -0.031842053 0.13959534 -0.051218677 -0.06498329
0003d0 50 fd 5b bd 4c 4e 4f bc be e1 9c 3d 86 e6 a0 3d
       -0.053708375 -0.012652945 0.076602444 0.07856469
0003e0 f1 53 a5 3d f9 8c 9c 3d 09 00 3d 3e 2c e3 14 3e
       0.08072651 0.07644076 0.18457045 0.14539784
0003f0 43 27 38 3e 9b ed 0c 3c ea d3 58 3c a6 b6 08 3c
       0.17983727 0.008601571 0.013234118 0.008344328

tcn_layers.0.tcnblock.network.1.net.0.bias f4 [22]
000000 ba 14 c8 3a 0d 9c ae 3d a9 dc 21 3d 59 eb b3 3d
       0.0015264966 0.08525858 0.03951708 0.087851234
000010 22 f6 e7 bc 88 53 1d 3e bd ef 19 be ab 05 4f 3e
       -0.028315607 0.15363896 -0.15032859 0.20217006
000020 90 42 d8 3d 63 35 dd bd 88 23 ed bd d2 ba 13 be
       0.10559571 -0.10801198 -0.11579043 -0.14426735
000030 dd d5 9e 3c 09 5b 89 3d 55 7b 9d 3d 79 ee 32 3e
       0.019389087 0.06706817 0.07689539 0.17473783
000040 8c 97 ad bd 13 a8 1f 3d 97 ea ef bd 14 db 8d bd
       -0.08476171 0.038978647 -0.11714666 -0.069265515
000050 76 88 e3 3d b5 0b 63 3c
       0.11110012 0.013857772

tcn_layers.0.tcnblock.network.1.net.0.weight_g f4 [22, 1, 1]
000000 fd bf 35 3f 3a 18 22 3f 74 14 04 3f 6d b6 66 3f
       0.70996076 0.63318217 0.5159371 0.9012211
000010 a1 b9 fc 3e cc a3 39 3f 38 be 19 3f df f7 4a 3f
       0.49360374 0.7251556 0.60055876 0.7928447
000020 a8 e4 4e 3f f0 37 24 3f d4 15 10 3f 74 16 02 3f
       0.8081765 0.64147854 0.5628331 0.5081551
000030 8d 7f 00 3f 99 7d 25 3f a8 c7 56 3f ed 72 7a 3f
       0.5019463 0.6464477 0.838984 0.9783161
000040 6e e9 21 3f ab 56 15 3f fd 07 1e 3f fa f2 21 3f
       0.6324681 0.5833537 0.6173094 0.6326138
000050 86 63 1b 3f 54 9d 3a 3f
       0.60698736 0.72896314
