STABLEDRAFT1.pt (torch, 228180 bytes, 87 tensors)

tcn_layers.0.tcnblock.network.0.conv1.bias f4 [11]
-3.7711477e-06 -9.719384e-06 9.822862e-06 9.4542145e-07 -1.4943347e-06 -7.2452076e-06 -3.4123357e-06 -1.0072872e-05
9.772755e-06 1.7646565e-06 4.5211564e-06
00000000: d313 7db6 7010 23b7 dfcc 2437 dec8 7d35
00000010: f390 c8b5 dc1b f3b6 7bff 64b6 a8fe 28b7
00000020: aaf5 2337 23d9 ec35 70b4 9736

tcn_layers.0.tcnblock.network.0.conv1.weight_g f4 [11, 1, 1]
1.5019443e-06 1.6707758e-05 -6.1104737e-07 2.4296385e-06 -5.155381e-06 3.8469216e-06 -9.648252e-06 -3.863926e-06
2.016018e-08 -1.2985014e-05 -7.047662e-07
00000000: 6a96 c935 a327 8c37 db06 24b5 df0c 2336
00000010: 63fc acb6 ce14 8136 edde 21b7 dfa6 81b6
00000020: b42c ad32 36da 59b7 2a2f 3db5

tcn_layers.0.tcnblock.network.0.conv1.weight_v f4 [11, 11, 4]
5.7209118e-06 1.8927002e-06 8.593276e-06 -4.4554154e-06 -1.4267713e-06 6.6223706e-06 -2.1551185e-05 4.539733e-06
3.1384027e-06 -8.184786e-06 5.718329e-06 8.668781e-06 -1.0980665e-05 1.9893973e-06 -3.0303072e-06 7.3336764e-06
-1.04060476e-07 -3.2733166e-07 -3.906313e-06 -3.0182613e-07 -1.4791906e-06 -8.190604e-06 -3.2715568e-06 -4.2032173e-07
-8.968368e-06 -7.6149304e-06 -3.0208168e-06 2.4575752e-06 -3.3833014e-06 3.3875997e-06 5.194068e-06 -1.250327e-05
1.2049595e-05 -2.4599753e-06 -1.1182673e-06 -1.3878044e-06 4.1719813e-06 6.7801775e-06 -2.2528504e-06 1.919074e-06
-2.8981717e-07 -3.4544166e-06 8.262789e-07 6.615982e-06 7.3011192e-06 -1.7948691e-06 2.5126012e-06 -4.3536447e-06
-4.9741775e-06 8.653842e-06 -5.4877764e-06 -1.2716328e-06 1.1252614e-06 -7.3095903e-06 -5.3828494e-06 -3.5536652e-06
3.3724546e-06 6.355449e-06 3.3123732e-07 -6.095861e-06 -9.663414e-06 6.3756765e-06 7.2208627e-07 -3.7762308e-07
-4.5834877e-06 -2.3886994e-05 2.7544928e-07 -3.2826695e-06 -1.436212e-05 -7.2817115e-06 -1.2876484e-05 -6.021162e-07
5.375635e-06 -1.2511617e-05 1.0063412e-06 -3.0172207e-06 -6.3428356e-06 -3.3548265e-06 -1.9032165e-06 -2.4148876e-06
-7.0129468e-06 1.4292393e-06 -1.3214984e-06 3.148597e-06 -2.3934163e-05 1.15653975e-05 9.138666e-06 -5.207841e-06
1.10002065e-05 -4.8773563e-06 -1.09593975e-05 -9.7868115e-06 -3.2623595e-06 4.3941895e-07 1.279172e-05 -3.4406712e-06
-3.3120236e-06 -6.257394e-06 -1.0791142e-05 -1.1027803e-06 6.40375e-06 6.5932295e-06 -1.8215361e-06 6.4842293e-06
4.454188e-06 -3.370312e-06 1.3749245e-06 5.1492525e-06 6.1734204e-06 3.2211979e-06 -2.477208e-06 -3.6911547e-06
1.1988608e-06 -6.462539e-06 2.5012957e-06 1.3010461e-05 6.349264e-06 -1.1758247e-05 7.893531e-06 1.1711148e-06
2.469661e-06 3.4775342e-06 3.4094403e-06 -7.541709e-06 6.1629967e-06 3.247635e-06 -1.247674e-05 6.6358966e-06
-6.4857954e-06 2.4073546e-07 1.5688981e-06 4.268172e-07 1.0908742e-05 -3.482323e-07 3.8335197e-06 3.9570996e-06
6.5384456e-06 6.5678314e-06 -9.733401e-06 3.300252e-06 1.0596794e-05 3.4763186e-06 -7.3032297e-06 1.4953183e-06
-2.3952265e-05 2.107682e-05 -1.926636e-08 -1.6672835e-05 -4.417112e-06 -6.508148e-06 4.4780363e-06 1.0798099e-05
-4.3397326e-06 -2.295048e-06 8.529747e-07 -3.014261e-06 3.0309432e-06 -7.5472162e-06 5.0326903e-06 1.2506011e-06
1.2561273e-05 -6.2366253e-06 -9.765418e-06 -1.8811585e-06 5.3113367e-06 -3.772445e-06 -6.521879e-06 -1.2712467e-05
1.8657806e-06 -2.1176399e-07 1.781572e-06 -6.5896506e-06 -6.2736854e-06 1.2259612e-05 1.3927777e-06 -2.2520383e-06
5.0219546e-06 -2.3296157e-07 1.3007926e-06 -4.7311582e-06 7.9324053e-07 -2.5574618e-06 2.4354413e-06 9.428624e-06
2.1111688e-05 -3.1700058e-06 -4.756996e-06 -2.8293553e-06 4.375067e-06 2.0905686e-06 3.426946e-06 -2.5597885e-06
-6.569932e-06 -1.0900064e-05 -4.4886356e-06 3.816195e-06 2.821431e-06 1.6601169e-05 6.461447e-06 6.604418e-06
-3.2875034e-06 -3.001233e-06 3.8344997e-06 -4.5064503e-06 1.1874853e-06 6.762189e-06 -3.7301033e-06 5.8496466e-06
-8.444984e-06 5.2621403e-06 3.8417334e-06 2.2227503e-06 -6.2813792e-06 4.7639793e-07 4.5067127e-06 -8.489132e-06
-3.0443528e-06 4.0504556e-06 -1.6640672e-05 6.4972965e-06 1.6492759e-05 -3.6669448e-06 -4.382083e-06 7.2120815e-06
-4.162343e-06 -6.0487478e-06 -1.4804185e-06 -1.6636044e-05 -1.1668694e-06 -4.364083e-06 -2.7271233e-06 8.96915e-06
-6.109656e-06 -1.3145149e-06 -1.1838683e-07 -2.4482179e-06 -9.5671285e-06 1.6224723e-06 1.1054598e-06 -1.1848612e-07
3.3157282e-06 8.160752e-06 1.2409651e-05 6.224963e-06 6.1512765e-06 6.662909e-06 -4.4740386e-06 7.3345444e-07
-6.9232233e-06 -6.5375716e-06 -1.1285236e-06 -3.4703012e-06 2.3976943e-06 -4.1959092e-07 -1.1937893e-05 2.891893e-06
00000000: 42f6 bf36 af08 fe35 d72b 1037 ba7f 95b6
00000010: 7d7f bfb5 bb35 de36 d1c8 b4b7 0254 9836
00000020: 599d 5236 6351 09b7 12e0 bf36 2270 1137
00000030: 9939 38b7 9681 0536 485c 4bb6 cd13 f636
00000040: da77 dfb3 1fbc afb4 f912 83b6 ab0a a2b4
00000050: 9a88 c6b5 606a 09b7 eb8c 5bb6 94a8 e1b4
00000060: d976 16b7 c183 ffb6 3db9 4ab6 d2ec 2436
00000070: ad0c 63b6 8556 6336 b448 ae36 23c5 51b7
00000080: 9e28 4a37 0e16 25b6 5f17 96b5 9944 bab5
00000090: 0cfd 8b36 4881 e336 ad2f 17b6 71c9 0036
000000a0: 2b98 9bb4 6dd2 67b6 74cd 5d35 dafe dd36
000000b0: 23fc f436 3ce7 f0b5 299e 2836 8615 92b6
000000c0: dce7 a6b6 f82f 1137 a423 b8b6 f8ac aab5
000000d0: b007 9735 e744 f5b6 539e b4b6 817b 6eb6
000000e0: 5452 6236 e440 d536 e9d4 b134 0c8b ccb6
000000f0: 0c20 22b7 a5ee d536 64d5 4135 1fbc cab4
00000100: dccb 99b6 ee60 c8b7 76e1 9334 d54b 5cb6
00000110: d6f4 70b7 6d55 f4b6 1408 58b7 1ca1 21b5
00000120: 5a60 b436 fce8 51b7 9f11 8735 757b 4ab6
00000130: 8bd4 d4b6 7b23 61b6 0572 ffb5 740f 22b6
00000140: c150 ebb6 4ad4 bf35 575e b1b5 7c4c 5336
00000150: 39c6 c8b7 0109 4237 4652 1937 03bf aeb6
00000160: 878d 3837 2ca8 a3b6 41de 37b7 0932 24b7
00000170: e9ee 5ab6 48e9 eb34 059c 5637 48e6 66b6
00000180: 2244 5eb6 9bf6 d1b6 9a0b 35b7 3e03 94b5
00000190: cbdf d636 693b dd36 817b f4b5 1b93 d936
000001a0: 2f75 9536 852d 62b6 0c8a b835 bec7 ac36
000001b0: 4725 cf36 c22b 5836 1c3e 26b6 8eb5 77b6
000001c0: 8be8 a035 cad8 d8b6 efdb 2736 8147 5a37
000001d0: c30b d536 4945 45b7 756e 0437 332f 9d35
000001e0: 74bc 2536 955f 6936 bdcd 6436 c90e fdb6
000001f0: bdcb ce36 f2f1 5936 3153 51b7 eba9 de36
00000200: 8fa0 d9b6 6e3e 8134 ee92 d235 4f25 e534
00000210: b104 3737 aff4 bab4 afa1 8036 3ac7 8436
00000220: d264 db36 3e61 dc36 a44c 23b7 e679 5d36
00000230: e2c8 3137 b34a 6936 440e f5b6 bfb2 c835
00000240: 19ed c8b7 20ce b037 2c7f a5b2 a4dc 8bb7
00000250: b436 94b6 9160 dab6 0a42 9636 7b29 3537
00000260: 059e 91b6 a004 1ab6 faf7 6435 9c48 4ab6
00000270: 3567 4b36 183e fdb6 7bde a836 54da a735
00000280: 42be 5237 3444 d1b6 27d6 23b7 1d7c fcb5
00000290: 0938 b236 1d2a 7db6 84d6 dab6 a147 55b7
000002a0: bc6b fa35 3e61 63b4 591e ef35 ab1c ddb6
000002b0: 8c82 d2b6 a2ae 4d37 7aef ba35 b921 17b6
000002c0: 4382 a836 fd23 7ab4 e596 ae35 57c0 9eb6
000002d0: 13ef 5435 dca0 2bb6 9070 2336 a22f 1e37
000002e0: 0119 b137 49bc 54b6 499e 9fb6 f4df 3db6
000002f0: 8acd 9236 b24b 0c36 7cfa 6536 d5c8 2bb6
00000300: 4973 dcb6 6bdf 36b7 169d 96b6 de0c 8036
00000310: d157 3d36 bd42 8b37 68cf d836 859b dd36
00000320: e19e 5cb6 ca68 49b6 1aaa 8036 1d36 97b6
00000330: af61 9f35 c3e6 e236 b052 7ab6 1548 c436
00000340: eeae 0db7 7191 b036 3de8 8036 8f2a 1536
00000350: a3c4 d2b6 a2c3 ff34 5e38 9736 8b6c 0eb7
00000360: 954d 4cb6 26e9 8736 9297 8bb7 5a03 da36
00000370: ee59 8a37 a215 76b6 ce09 93b6 4fff f136
00000380: 41aa 8bb6 59f6 cab6 cbb2 c6b5 a28d 8bb7
00000390: 549d 9cb5 306f 92b6 9f03 37b6 357a 1637
000003a0: 8c01 cdb6 636e b0b5 d93b feb3 104c 24b6
000003b0: 8182 20b7 b9c3 d935 4f5f 9435 6f72 feb3
000003c0: c783 5e36 2aea 0837 0c33 5037 06e0 d036
000003d0: 1067 ce36 f491 df36 b31f 96b6 9be2 4435
000003e0: 094e e8b6 505d dbb6 c777 97b5 52e3 68b6
000003f0: 13e8 2036 2344 e1b4 dc48 48b7 5812 4236

tcn_layers.0.tcnblock.network.0.conv2.bias f4 [11]
1.530411e-05 8.1424236e-07 -3.1455863e-06 0.0023976937 -1.4394287e-06 -2.1877447e-06 -1.31720935e-05 -1.2047363e-05
-2.0260799e-05 6.3587763e-06 3.2585954e-06
00000000: 5361 8037 4f92 5a35 c318 53b6 a022 1d3b
00000010: 6532 c1b5 2bd1 12b6 b6fd 5cb7 081f 4ab7
00000020: bcf5 a9b7 795d d536 3eae 5a36

tcn_layers.0.tcnblock.network.0.conv2.weight_g f4 [11, 1, 1]
6.8386857e-06 -3.7986938e-06 2.9672515e-06 1.4172635e-06 1.2548791e-05 6.27676e-06 6.8477934e-06 6.6744187e-06
-3.364392e-06 -6.5702834e-06 -1.1746943e-05
00000000: dd77 e536 10ed 7eb6 fe20 4736 ce38 be35
00000010: a688 5237 f59c d236 19c6 e536 d2f4 df36
00000020: d0c7 61b6 4e76 dcb6 bc14 45b7

tcn_layers.0.tcnblock.network.0.conv2.weight_v f4 [11, 11, 4]
4.381173e-06 8.563508e-06 2.7223e-06 1.0813883e-05 2.5036265e-06 -8.446632e-06 8.85008e-06 3.2691605e-06
-4.928033e-06 -6.492065e-06 -1.5331226e-06 -4.5133193e-06 -4.756882e-07 2.446927e-06 -3.814773e-06 8.173013e-06
-2.3873772e-05 5.3691674e-06 -3.844965e-06 -2.3674836e-06 4.2895294e-06 -4.01811e-06 -2.8095162e-06 4.4881117e-06
1.6697606e-05 -3.1620714e-06 5.3883196e-06 -3.208752e-06 -4.359824e-07 1.113051e-06 -3.2883654e-06 1.0155859e-05
7.897112e-06 -6.61539e-06 5.711684e-06 -3.168419e-06 7.570657e-06 -6.2654913e-06 5.9706854e-06 -1.4042765e-06
6.256348e-06 4.6440114e-06 -3.3760507e-06 1.8716021e-06 -4.43293e-06 1.0937558e-05 6.5618196e-06 4.418148e-06
4.40545e-06 2.3196553e-07 4.208513e-06 3.261808e-06 1.6623135e-05 -3.2905127e-06 1.1307241e-05 -6.4839874e-06
2.752505e-06 -7.556658e-06 -2.2855769e-08 -7.150115e-07 -4.7209446e-06 4.8126963e-06 -3.600066e-06 1.6543794e-05
5.8102487e-06 -5.9492015e-07 -5.056861e-06 -5.6634585e-06 -7.059771e-06 -2.1019077e-05 1.1194829e-05 3.3824515e-06
3.2946325e-06 1.0475731e-05 -2.7425629e-06 -2.5386705e-06 -1.1504175e-05 -6.414338e-06 -2.2048473e-06 -1.0687439e-06
-5.9802283e-06 -5.1351635e-06 -1.8771214e-08 6.484262e-06 8.222151e-06 2.3069745e-06 -1.2999038e-05 -3.5931412e-06
1.2510635e-05 -5.709631e-06 4.9861073e-06 8.050892e-06 -6.2230856e-07 5.71638e-06 2.1568012e-05 -6.5380227e-06
5.7149387e-06 2.4165015e-06 3.9622e-06 4.698471e-06 -6.2238255e-06 -3.803657e-06 -5.573953e-07 -3.4059142e-06
-4.960721e-06 2.9034602e-06 -1.0990485e-05 -6.0067355e-06 -1.0996325e-05 2.1864769e-06 8.510291e-06 2.806327e-06
-3.4564882e-06 -2.4225906e-06 -2.9668267e-06 3.6352412e-06 1.9546715e-06 6.428515e-06 3.2431815e-06 -2.336904e-06
3.4523885e-06 2.8351355e-06 -7.909252e-06 2.550426e-06 -1.8699709e-06 -4.810079e-07 2.423321e-06 1.8957295e-06
-4.055404e-07 6.2400236e-06 -4.4296617e-06 -2.777797e-06 -1.2086663e-05 -8.037383e-06 -3.3998986e-06 -3.245053e-06
2.4533335e-06 -1.6675043e-05 9.855789e-06 -5.6380186e-06 8.8106635e-06 2.4812898e-06 -1.0970884e-05 6.4406263e-06
-3.6299332e-06 2.7337446e-06 -1.01500245e-05 1.977963e-07 1.6686013e-06 1.6658012e-05 -3.0173783e-06 -3.3732267e-06
2.4249484e-06 -4.56201e-06 4.3857267e-06 1.1055279e-05 -4.4000903e-06 1.1769957e-06 -6.41794e-07 8.499019e-06
-6.558409e-06 6.7559745e-06 6.549228e-06 -2.3942273e-05 -2.9115986e-07 -7.4772593e-06 5.939672e-06 5.182535e-06
3.5286682e-06 3.4213026e-06 3.476408e-06 -1.1618545e-06 3.8287562e-06 -6.5431764e-06 -4.322356e-06 3.2762164e-06
-1.9097226e-06 6.4999717e-06 -6.085538e-06 4.3762607e-06 -6.466848e-06 -3.8152134e-06 6.459349e-06 2.4885658e-06
8.202824e-06 -3.640744e-06 -1.4057389e-06 6.3037387e-06 2.7483184e-06 6.6533503e-06 4.9623727e-06 2.1257808e-06
4.530592e-06 -3.4404993e-06 -1.1460163e-05 -3.2620308e-06 -3.5034896e-06 3.835265e-06 5.846056e-06 -9.234118e-06
2.4285525e-06 9.646896e-06 1.0931188e-05 4.813979e-06 3.1389345e-06 5.651896e-06 5.0525305e-06 -5.981239e-06
7.1151237e-07 3.744942e-06 5.6909444e-06 5.415112e-06 -6.2440135e-06 -1.00070965e-05 -4.50531e-07 -1.4073818e-06
1.1718768e-06 5.5128767e-06 1.1697133e-06 2.3460623e-06 -4.495061e-06 -5.0922713e-06 -3.0373924e-06 -8.283562e-06
-1.2508712e-05 3.7285492e-06 4.6932246e-06 -1.4400349e-06 4.445809e-06 -8.539374e-06 -5.7128414e-06 7.914063e-06
6.4722467e-06 1.2506925e-05 -8.655723e-07 -7.911867e-06 3.752258e-06 3.9950763e-07 -6.189791e-06 -6.413758e-06
3.8953863e-06 -2.4248118e-06 8.58522e-06 7.2144453e-06 -1.7668277e-05 6.5558243e-06 -1.2921205e-05 -3.4542145e-06
1.3500054e-06 1.2921162e-05 1.0773717e-06 -6.4642663e-06 4.469596e-06 7.904318e-06 1.0982755e-05 -2.4160922e-06
00000000: fd01 9336 fdab 0f37 c2b0 3636 466d 3537
00000010: fa03 2836 02b6 0db7 ce7a 1437 c063 5b36
00000020: 7b5b a5b6 6ad6 d9b6 b1c5 cdb5 1e71 97b6
00000030: 1762 ffb4 e335 2436 a700 80b6 d31e 0937
00000040: 8944 c8b7 cc28 b436 ff03 81b6 0fe1 1eb6
00000050: c7ee 8f36 4dd3 86b6 1f8b 3cb6 9698 9636
00000060: d611 8c37 f933 54b6 50cd b436 f155 57b6
00000070: f710 eab4 2464 9535 b0ad 5cb6 1563 2a37
00000080: d67d 0437 c4f9 ddb6 fea6 bf36 06a1 54b6
00000090: 7307 fe36 293c d2b6 cc57 c836 937a bcb5
000000a0: 9fed d136 c1d3 9b36 1c90 62b6 c233 fb35
000000b0: 94be 94b6 7480 3737 9a2d dc36 9a3f 9436
000000c0: 87d2 9336 3312 7934 da36 8d36 6fe5 5a36
000000d0: e971 8b37 94d2 5cb6 3bb4 3d37 0791 d9b6
000000e0: adb7 3836 338f fdb6 5e54 c4b2 37ef 3fb5
000000f0: 9b68 9eb6 bf7c a136 aa98 71b6 87c7 8a37
00000100: a8f5 c236 9ab2 1fb5 1bae a9b6 bd08 beb6
00000110: f9e2 ecb6 2052 b0b7 6dd1 3b37 13fe 6236
00000120: 5b19 5d36 ecc0 2f37 df0c 38b6 075e 2ab6
00000130: 0e02 41b7 be3a d7b6 fdf6 13b6 c371 8fb5
00000140: c5a9 c8b6 b84e acb6 563e a1b2 6393 d936
00000150: dff1 0937 85d1 1a36 7116 5ab7 b221 71b6
00000160: c5e4 5137 5b95 bfb6 564e a736 5112 0737
00000170: b80c 27b5 55cf bf36 f4ec b437 3061 dbb6
00000180: f3c2 bf36 2e2b 2236 0af3 8436 8fa7 9d36
00000190: 41d6 d0b6 5442 7fb6 ea9f 15b5 2991 64b6
000001a0: 4574 a6b6 11d9 4236 c663 38b7 778d c9b6
000001b0: db7c 38b7 63bb 1236 6cc7 0e37 5554 3c36
000001c0: 04f6 67b6 ca93 22b6 b219 47b6 f8f4 7336
000001d0: 002d 0336 86b4 d736 6fa5 5936 b4d3 1cb6
000001e0: 95af 6736 4243 3e36 fbb1 04b7 fc27 2b36
000001f0: b6fb fab5 9c1e 01b5 56a0 2236 c570 fe35
00000200: 0cb9 d9b4 6561 d136 81a2 94b6 306a 3ab6
00000210: d3c7 4ab7 4cd8 06b7 d029 64b6 96c5 59b6
00000220: f3a3 2436 62e1 8bb7 4b5a 2537 362e bdb6
00000230: 83d1 1337 3c84 2636 970f 38b7 8f1c d836
00000240: c799 73b6 6075 3736 064a 2ab7 d561 5434
00000250: b4f4 df35 cfbc 8b37 2a7e 4ab6 985f 62b6
00000260: 4cbc 2236 5e13 99b6 1b29 9336 107a 3937
00000270: 7da4 93b6 44f9 9d35 bf47 2cb5 0297 0e37
00000280: 4e10 dcb6 61b1 e236 71c1 db36 a4d7 c8b7
00000290: b550 9cb4 2be5 fab6 654d c736 a3e5 ad36
000002a0: 0fce 6c36 8899 6536 3c4c 6936 04f1 9bb5
000002b0: c478 8036 758d dbb6 c108 91b6 f8dc 5b36
000002c0: c928 00b6 551a da36 6032 ccb6 cbd7 9236
000002d0: cdfd d8b6 6f04 80b6 63bd d836 3c01 2736
000002e0: dc9e 0937 8153 74b6 d2ac bcb5 b484 d336
000002f0: c06f 3836 d83f df36 7582 a636 a3a8 0e36
00000300: 7d05 9836 54e3 66b6 0645 40b7 43e9 5ab6
00000310: 7e1d 6bb6 adb0 8036 3d29 c436 3cec 1ab7
00000320: 37fa 2236 1ad9 2137 1865 3737 c487 a136
00000330: 7ca6 5236 6ba5 bd36 e888 a936 74b2 c8b6
00000340: c2fe 3e35 9d51 7b36 d7f4 be36 75b3 b536
00000350: ab83 d1b6 27e4 27b7 82e0 f1b4 45e5 bcb5
00000360: 6149 9d35 40fb b836 0bff 9c35 0b71 1d36
00000370: 48d4 96b6 47de aab6 01d6 4bb6 a1f9 0ab7
00000380: 82dc 51b7 fd37 7a36 7e7a 9d36 3947 c1b5
00000390: 352d 9536 5544 0fb7 efb0 bfb6 a4c6 0437
000003a0: 2d2c d936 d5d4 5137 ad59 68b5 36bd 04b7
000003b0: 4dcf 7b36 e97b d634 e6b1 cfb6 c335 d7b6
000003c0: 1db5 8236 f3b9 22b6 3d09 1037 9d13 f236
000003d0: 5636 94b7 1afa db36 27c8 58b7 f4ce 67b6
000003e0: d531 b535 f8c7 5837 369a 9035 a0e7 d8b6
000003f0: 8af9 9536 ca9c 0437 9342 3837 2624 22b6

tcn_layers.0.tcnblock.network.0.net.0.bias f4 [11]
-3.7711477e-06 -9.719384e-06 9.822862e-06 9.4542145e-07 -1.4943347e-06 -7.2452076e-06 -3.4123357e-06 -1.0072872e-05
9.772755e-06 1.7646565e-06 4.5211564e-06
00000000: d313 7db6 7010 23b7 dfcc 2437 dec8 7d35
00000010: f390 c8b5 dc1b f3b6 7bff 64b6 a8fe 28b7
00000020: aaf5 2337 23d9 ec35 70b4 9736

tcn_layers.0.tcnblock.network.0.net.0.weight_g f4 [11, 1, 1]
1.5019443e-06 1.6707758e-05 -6.1104737e-07 2.4296385e-06 -5.155381e-06 3.8469216e-06 -9.648252e-06 -3.863926e-06
2.016018e-08 -1.2985014e-05 -7.047662e-07
00000000: 6a96 c935 a327 8c37 db06 24b5 df0c 2336
00000010: 63fc acb6 ce14 8136 edde 21b7 dfa6 81b6
00000020: b42c ad32 36da 59b7 2a2f 3db5

tcn_layers.0.tcnblock.network.0.net.0.weight_v f4 [11, 11, 4]
5.7209118e-06 1.8927002e-06 8.593276e-06 -4.4554154e-06 -1.4267713e-06 6.6223706e-06 -2.1551185e-05 4.539733e-06
3.1384027e-06 -8.184786e-06 5.718329e-06 8.668781e-06 -1.0980665e-05 1.9893973e-06 -3.0303072e-06 7.3336764e-06
-1.04060476e-07 -3.2733166e-07 -3.906313e-06 -3.0182613e-07 -1.4791906e-06 -8.190604e-06 -3.2715568e-06 -4.2032173e-07
-8.968368e-06 -7.6149304e-06 -3.0208168e-06 2.4575752e-06 -3.3833014e-06 3.3875997e-06 5.194068e-06 -1.250327e-05
1.2049595e-05 -2.4599753e-06 -1.1182673e-06 -1.3878044e-06 4.1719813e-06 6.7801775e-06 -2.2528504e-06 1.919074e-06
-2.8981717e-07 -3.4544166e-06 8.262789e-07 6.615982e-06 7.3011192e-06 -1.7948691e-06 2.5126012e-06 -4.3536447e-06
-4.9741775e-06 8.653842e-06 -5.4877764e-06 -1.2716328e-06 1.1252614e-06 -7.3095903e-06 -5.3828494e-06 -3.5536652e-06
3.3724546e-06 6.355449e-06 3.3123732e-07 -6.095861e-06 -9.663414e-06 6.3756765e-06 7.2208627e-07 -3.7762308e-07
-4.5834877e-06 -2.3886994e-05 2.7544928e-07 -3.2826695e-06 -1.436212e-05 -7.2817115e-06 -1.2876484e-05 -6.021162e-07
5.375635e-06 -1.2511617e-05 1.0063412e-06 -3.0172207e-06 -6.3428356e-06 -3.3548265e-06 -1.9032165e-06 -2.4148876e-06
-7.0129468e-06 1.4292393e-06 -1.3214984e-06 3.148597e-06 -2.3934163e-05 1.15653975e-05 9.138666e-06 -5.207841e-06
1.10002065e-05 -4.8773563e-06 -1.09593975e-05 -9.7868115e-06 -3.2623595e-06 4.3941895e-07 1.279172e-05 -3.4406712e-06
-3.3120236e-06 -6.257394e-06 -1.0791142e-05 -1.1027803e-06 6.40375e-06 6.5932295e-06 -1.8215361e-06 6.4842293e-06
4.454188e-06 -3.370312e-06 1.3749245e-06 5.1492525e-06 6.1734204e-06 3.2211979e-06 -2.477208e-06 -3.6911547e-06
1.1988608e-06 -6.462539e-06 2.5012957e-06 1.3010461e-05 6.349264e-06 -1.1758247e-05 7.893531e-06 1.1711148e-06
2.469661e-06 3.4775342e-06 3.4094403e-06 -7.541709e-06 6.1629967e-06 3.247635e-06 -1.247674e-05 6.6358966e-06
-6.4857954e-06 2.4073546e-07 1.5688981e-06 4.268172e-07 1.0908742e-05 -3.482323e-07 3.8335197e-06 3.9570996e-06
6.5384456e-06 6.5678314e-06 -9.733401e-06 3.300252e-06 1.0596794e-05 3.4763186e-06 -7.3032297e-06 1.4953183e-06
-2.3952265e-05 2.107682e-05 -1.926636e-08 -1.6672835e-05 -4.417112e-06 -6.508148e-06 4.4780363e-06 1.0798099e-05
-4.3397326e-06 -2.295048e-06 8.529747e-07 -3.014261e-06 3.0309432e-06 -7.5472162e-06 5.0326903e-06 1.2506011e-06
1.2561273e-05 -6.2366253e-06 -9.765418e-06 -1.8811585e-06 5.3113367e-06 -3.772445e-06 -6.521879e-06 -1.2712467e-05
1.8657806e-06 -2.1176399e-07 1.781572e-06 -6.5896506e-06 -6.2736854e-06 1.2259612e-05 1.3927777e-06 -2.2520383e-06
5.0219546e-06 -2.3296157e-07 1.3007926e-06 -4.7311582e-06 7.9324053e-07 -2.5574618e-06 2.4354413e-06 9.428624e-06
2.1111688e-05 -3.1700058e-06 -4.756996e-06 -2.8293553e-06 4.375067e-06 2.0905686e-06 3.426946e-06 -2.5597885e-06
-6.569932e-06 -1.0900064e-05 -4.4886356e-06 3.816195e-06 2.821431e-06 1.6601169e-05 6.461447e-06 6.604418e-06
-3.2875034e-06 -3.001233e-06 3.8344997e-06 -4.5064503e-06 1.1874853e-06 6.762189e-06 -3.7301033e-06 5.8496466e-06
-8.444984e-06 5.2621403e-06 3.8417334e-06 2.2227503e-06 -6.2813792e-06 4.7639793e-07 4.5067127e-06 -8.489132e-06
-3.0443528e-06 4.0504556e-06 -1.6640672e-05 6.4972965e-06 1.6492759e-05 -3.6669448e-06 -4.382083e-06 7.2120815e-06
-4.162343e-06 -6.0487478e-06 -1.4804185e-06 -1.6636044e-05 -1.1668694e-06 -4.364083e-06 -2.7271233e-06 8.96915e-06
-6.109656e-06 -1.3145149e-06 -1.1838683e-07 -2.4482179e-06 -9.5671285e-06 1.6224723e-06 1.1054598e-06 -1.1848612e-07
3.3157282e-06 8.160752e-06 1.2409651e-05 6.224963e-06 6.1512765e-06 6.662909e-06 -4.4740386e-06 7.3345444e-07
-6.9232233e-06 -6.5375716e-06 -1.1285236e-06 -3.4703012e-06 2.3976943e-06 -4.1959092e-07 -1.1937893e-05 2.891893e-06
00000000: 42f6 bf36 af08 fe35 d72b 1037 ba7f 95b6
00000010: 7d7f bfb5 bb35 de36 d1c8 b4b7 0254 9836
00000020: 599d 5236 6351 09b7 12e0 bf36 2270 1137
00000030: 9939 38b7 9681 0536 485c 4bb6 cd13 f636
00000040: da77 dfb3 1fbc afb4 f912 83b6 ab0a a2b4
00000050: 9a88 c6b5 606a 09b7 eb8c 5bb6 94a8 e1b4
00000060: d976 16b7 c183 ffb6 3db9 4ab6 d2ec 2436
00000070: ad0c 63b6 8556 6336 b448 ae36 23c5 51b7
00000080: 9e28 4a37 0e16 25b6 5f17 96b5 9944 bab5
00000090: 0cfd 8b36 4881 e336 ad2f 17b6 71c9 0036
000000a0: 2b98 9bb4 6dd2 67b6 74cd 5d35 dafe dd36
000000b0: 23fc f436 3ce7 f0b5 299e 2836 8615 92b6
000000c0: dce7 a6b6 f82f 1137 a423 b8b6 f8ac aab5
000000d0: b007 9735 e744 f5b6 539e b4b6 817b 6eb6
000000e0: 5452 6236 e440 d536 e9d4 b134 0c8b ccb6
000000f0: 0c20 22b7 a5ee d536 64d5 4135 1fbc cab4
00000100: dccb 99b6 ee60 c8b7 76e1 9334 d54b 5cb6
00000110: d6f4 70b7 6d55 f4b6 1408 58b7 1ca1 21b5
00000120: 5a60 b436 fce8 51b7 9f11 8735 757b 4ab6
00000130: 8bd4 d4b6 7b23 61b6 0572 ffb5 740f 22b6
00000140: c150 ebb6 4ad4 bf35 575e b1b5 7c4c 5336
00000150: 39c6 c8b7 0109 4237 4652 1937 03bf aeb6
00000160: 878d 3837 2ca8 a3b6 41de 37b7 0932 24b7
00000170: e9ee 5ab6 48e9 eb34 059c 5637 48e6 66b6
00000180: 2244 5eb6 9bf6 d1b6 9a0b 35b7 3e03 94b5
00000190: cbdf d636 693b dd36 817b f4b5 1b93 d936
000001a0: 2f75 9536 852d 62b6 0c8a b835 bec7 ac36
000001b0: 4725 cf36 c22b 5836 1c3e 26b6 8eb5 77b6
000001c0: 8be8 a035 cad8 d8b6 efdb 2736 8147 5a37
000001d0: c30b d536 4945 45b7 756e 0437 332f 9d35
000001e0: 74bc 2536 955f 6936 bdcd 6436 c90e fdb6
000001f0: bdcb ce36 f2f1 5936 3153 51b7 eba9 de36
00000200: 8fa0 d9b6 6e3e 8134 ee92 d235 4f25 e534
00000210: b104 3737 aff4 bab4 afa1 8036 3ac7 8436
00000220: d264 db36 3e61 dc36 a44c 23b7 e679 5d36
00000230: e2c8 3137 b34a 6936 440e f5b6 bfb2 c835
00000240: 19ed c8b7 20ce b037 2c7f a5b2 a4dc 8bb7
00000250: b436 94b6 9160 dab6 0a42 9636 7b29 3537
00000260: 059e 91b6 a004 1ab6 faf7 6435 9c48 4ab6
00000270: 3567 4b36 183e fdb6 7bde a836 54da a735
00000280: 42be 5237 3444 d1b6 27d6 23b7 1d7c fcb5
00000290: 0938 b236 1d2a 7db6 84d6 dab6 a147 55b7
000002a0: bc6b fa35 3e61 63b4 591e ef35 ab1c ddb6
000002b0: 8c82 d2b6 a2ae 4d37 7aef ba35 b921 17b6
000002c0: 4382 a836 fd23 7ab4 e596 ae35 57c0 9eb6
000002d0: 13ef 5435 dca0 2bb6 9070 2336 a22f 1e37
000002e0: 0119 b137 49bc 54b6 499e 9fb6 f4df 3db6
000002f0: 8acd 9236 b24b 0c36 7cfa 6536 d5c8 2bb6
00000300: 4973 dcb6 6bdf 36b7 169d 96b6 de0c 8036
00000310: d157 3d36 bd42 8b37 68cf d836 859b dd36
00000320: e19e 5cb6 ca68 49b6 1aaa 8036 1d36 97b6
00000330: af61 9f35 c3e6 e236 b052 7ab6 1548 c436
00000340: eeae 0db7 7191 b036 3de8 8036 8f2a 1536
00000350: a3c4 d2b6 a2c3 ff34 5e38 9736 8b6c 0eb7
00000360: 954d 4cb6 26e9 8736 9297 8bb7 5a03 da36
00000370: ee59 8a37 a215 76b6 ce09 93b6 4fff f136
00000380: 41aa 8bb6 59f6 cab6 cbb2 c6b5 a28d 8bb7
00000390: 549d 9cb5 306f 92b6 9f03 37b6 357a 1637
000003a0: 8c01 cdb6 636e b0b5 d93b feb3 104c 24b6
000003b0: 8182 20b7 b9c3 d935 4f5f 9435 6f72 feb3
000003c0: c783 5e36 2aea 0837 0c33 5037 06e0 d036
000003d0: 1067 ce36 f491 df36 b31f 96b6 9be2 4435
000003e0: 094e e8b6 505d dbb6 c777 97b5 52e3 68b6
000003f0: 13e8 2036 2344 e1b4 dc48 48b7 5812 4236

tcn_layers.0.tcnblock.network.0.net.4.bias f4 [11]
1.530411e-05 8.1424236e-07 -3.1455863e-06 0.0023976937 -1.4394287e-06 -2.1877447e-06 -1.31720935e-05 -1.2047363e-05
-2.0260799e-05 6.3587763e-06 3.2585954e-06
00000000: 5361 8037 4f92 5a35 c318 53b6 a022 1d3b
00000010: 6532 c1b5 2bd1 12b6 b6fd 5cb7 081f 4ab7
00000020: bcf5 a9b7 795d d536 3eae 5a36

tcn_layers.0.tcnblock.network.0.net.4.weight_g f4 [11, 1, 1]
6.8386857e-06 -3.7986938e-06 2.9672515e-06 1.4172635e-06 1.2548791e-05 6.27676e-06 6.8477934e-06 6.6744187e-06
-3.364392e-06 -6.5702834e-06 -1.1746943e-05
00000000: dd77 e536 10ed 7eb6 fe20 4736 ce38 be35
00000010: a688 5237 f59c d236 19c6 e536 d2f4 df36
00000020: d0c7 61b6 4e76 dcb6 bc14 45b7

tcn_layers.0.tcnblock.network.0.net.4.weight_v f4 [11, 11, 4]
4.381173e-06 8.563508e-06 2.7223e-06 1.0813883e-05 2.5036265e-06 -8.446632e-06 8.85008e-06 3.2691605e-06
-4.928033e-06 -6.492065e-06 -1.5331226e-06 -4.5133193e-06 -4.756882e-07 2.446927e-06 -3.814773e-06 8.173013e-06
-2.3873772e-05 5.3691674e-06 -3.844965e-06 -2.3674836e-06 4.2895294e-06 -4.01811e-06 -2.8095162e-06 4.4881117e-06
1.6697606e-05 -3.1620714e-06 5.3883196e-06 -3.208752e-06 -4.359824e-07 1.113051e-06 -3.2883654e-06 1.0155859e-05
7.897112e-06 -6.61539e-06 5.711684e-06 -3.168419e-06 7.570657e-06 -6.2654913e-06 5.9706854e-06 -1.4042765e-06
6.256348e-06 4.6440114e-06 -3.3760507e-06 1.8716021e-06 -4.43293e-06 1.0937558e-05 6.5618196e-06 4.418148e-06
4.40545e-06 2.3196553e-07 4.208513e-06 3.261808e-06 1.6623135e-05 -3.2905127e-06 1.1307241e-05 -6.4839874e-06
2.752505e-06 -7.556658e-06 -2.2855769e-08 -7.150115e-07 -4.7209446e-06 4.8126963e-06 -3.600066e-06 1.6543794e-05
5.8102487e-06 -5.9492015e-07 -5.056861e-06 -5.6634585e-06 -7.059771e-06 -2.1019077e-05 1.1194829e-05 3.3824515e-06
3.2946325e-06 1.0475731e-05 -2.7425629e-06 -2.5386705e-06 -1.1504175e-05 -6.414338e-06 -2.2048473e-06 -1.0687439e-06
-5.9802283e-06 -5.1351635e-06 -1.8771214e-08 6.484262e-06 8.222151e-06 2.3069745e-06 -1.2999038e-05 -3.5931412e-06
1.2510635e-05 -5.709631e-06 4.9861073e-06 8.050892e-06 -6.2230856e-07 5.71638e-06 2.1568012e-05 -6.5380227e-06
5.7149387e-06 2.4165015e-06 3.9622e-06 4.698471e-06 -6.2238255e-06 -3.803657e-06 -5.573953e-07 -3.4059142e-06
-4.960721e-06 2.9034602e-06 -1.0990485e-05 -6.0067355e-06 -1.0996325e-05 2.1864769e-06 8.510291e-06 2.806327e-06
-3.4564882e-06 -2.4225906e-06 -2.9668267e-06 3.6352412e-06 1.9546715e-06 6.428515e-06 3.2431815e-06 -2.336904e-06
3.4523885e-06 2.8351355e-06 -7.909252e-06 2.550426e-06 -1.8699709e-06 -4.810079e-07 2.423321e-06 1.8957295e-06
-4.055404e-07 6.2400236e-06 -4.4296617e-06 -2.777797e-06 -1.2086663e-05 -8.037383e-06 -3.3998986e-06 -3.245053e-06
2.4533335e-06 -1.6675043e-05 9.855789e-06 -5.6380186e-06 8.8106635e-06 2.4812898e-06 -1.0970884e-05 6.4406263e-06
-3.6299332e-06 2.7337446e-06 -1.01500245e-05 1.977963e-07 1.6686013e-06 1.6658012e-05 -3.0173783e-06 -3.3732267e-06
2.4249484e-06 -4.56201e-06 4.3857267e-06 1.1055279e-05 -4.4000903e-06 1.1769957e-06 -6.41794e-07 8.499019e-06
-6.558409e-06 6.7559745e-06 6.549228e-06 -2.3942273e-05 -2.9115986e-07 -7.4772593e-06 5.939672e-06 5.182535e-06
3.5286682e-06 3.4213026e-06 3.476408e-06 -1.1618545e-06 3.8287562e-06 -6.5431764e-06 -4.322356e-06 3.2762164e-06
-1.9097226e-06 6.4999717e-06 -6.085538e-06 4.3762607e-06 -6.466848e-06 -3.8152134e-06 6.459349e-06 2.4885658e-06
8.202824e-06 -3.640744e-06 -1.4057389e-06 6.3037387e-06 2.7483184e-06 6.6533503e-06 4.9623727e-06 2.1257808e-06
4.530592e-06 -3.4404993e-06 -1.1460163e-05 -3.2620308e-06 -3.5034896e-06 3.835265e-06 5.846056e-06 -9.234118e-06
2.4285525e-06 9.646896e-06 1.0931188e-05 4.813979e-06 3.1389345e-06 5.651896e-06 5.0525305e-06 -5.981239e-06
7.1151237e-07 3.744942e-06 5.6909444e-06 5.415112e-06 -6.2440135e-06 -1.00070965e-05 -4.50531e-07 -1.4073818e-06
1.1718768e-06 5.5128767e-06 1.1697133e-06 2.3460623e-06 -4.495061e-06 -5.0922713e-06 -3.0373924e-06 -8.283562e-06
-1.2508712e-05 3.7285492e-06 4.6932246e-06 -1.4400349e-06 4.445809e-06 -8.539374e-06 -5.7128414e-06 7.914063e-06
6.4722467e-06 1.2506925e-05 -8.655723e-07 -7.911867e-06 3.752258e-06 3.9950763e-07 -6.189791e-06 -6.413758e-06
3.8953863e-06 -2.4248118e-06 8.58522e-06 7.2144453e-06 -1.7668277e-05 6.5558243e-06 -1.2921205e-05 -3.4542145e-06
1.3500054e-06 1.2921162e-05 1.0773717e-06 -6.4642663e-06 4.469596e-06 7.904318e-06 1.0982755e-05 -2.4160922e-06
00000000: fd01 9336 fdab 0f37 c2b0 3636 466d 3537
00000010: fa03 2836 02b6 0db7 ce7a 1437 c063 5b36
00000020: 7b5b a5b6 6ad6 d9b6 b1c5 cdb5 1e71 97b6
00000030: 1762 ffb4 e335 2436 a700 80b6 d31e 0937
00000040: 8944 c8b7 cc28 b436 ff03 81b6 0fe1 1eb6
00000050: c7ee 8f36 4dd3 86b6 1f8b 3cb6 9698 9636
00000060: d611 8c37 f933 54b6 50cd b436 f155 57b6
00000070: f710 eab4 2464 9535 b0ad 5cb6 1563 2a37
00000080: d67d 0437 c4f9 ddb6 fea6 bf36 06a1 54b6
00000090: 7307 fe36 293c d2b6 cc57 c836 937a bcb5
000000a0: 9fed d136 c1d3 9b36 1c90 62b6 c233 fb35
000000b0: 94be 94b6 7480 3737 9a2d dc36 9a3f 9436
000000c0: 87d2 9336 3312 7934 da36 8d36 6fe5 5a36
000000d0: e971 8b37 94d2 5cb6 3bb4 3d37 0791 d9b6
000000e0: adb7 3836 338f fdb6 5e54 c4b2 37ef 3fb5
000000f0: 9b68 9eb6 bf7c a136 aa98 71b6 87c7 8a37
00000100: a8f5 c236 9ab2 1fb5 1bae a9b6 bd08 beb6
00000110: f9e2 ecb6 2052 b0b7 6dd1 3b37 13fe 6236
00000120: 5b19 5d36 ecc0 2f37 df0c 38b6 075e 2ab6
00000130: 0e02 41b7 be3a d7b6 fdf6 13b6 c371 8fb5
00000140: c5a9 c8b6 b84e acb6 563e a1b2 6393 d936
00000150: dff1 0937 85d1 1a36 7116 5ab7 b221 71b6
00000160: c5e4 5137 5b95 bfb6 564e a736 5112 0737
00000170: b80c 27b5 55cf bf36 f4ec b437 3061 dbb6
00000180: f3c2 bf36 2e2b 2236 0af3 8436 8fa7 9d36
00000190: 41d6 d0b6 5442 7fb6 ea9f 15b5 2991 64b6
000001a0: 4574 a6b6 11d9 4236 c663 38b7 778d c9b6
000001b0: db7c 38b7 63bb 1236 6cc7 0e37 5554 3c36
000001c0: 04f6 67b6 ca93 22b6 b219 47b6 f8f4 7336
000001d0: 002d 0336 86b4 d736 6fa5 5936 b4d3 1cb6
000001e0: 95af 6736 4243 3e36 fbb1 04b7 fc27 2b36
000001f0: b6fb fab5 9c1e 01b5 56a0 2236 c570 fe35
00000200: 0cb9 d9b4 6561 d136 81a2 94b6 306a 3ab6
00000210: d3c7 4ab7 4cd8 06b7 d029 64b6 96c5 59b6
00000220: f3a3 2436 62e1 8bb7 4b5a 2537 362e bdb6
00000230: 83d1 1337 3c84 2636 970f 38b7 8f1c d836
00000240: c799 73b6 6075 3736 064a 2ab7 d561 5434
00000250: b4f4 df35 cfbc 8b37 2a7e 4ab6 985f 62b6
00000260: 4cbc 2236 5e13 99b6 1b29 9336 107a 3937
00000270: 7da4 93b6 44f9 9d35 bf47 2cb5 0297 0e37
00000280: 4e10 dcb6 61b1 e236 71c1 db36 a4d7 c8b7
00000290: b550 9cb4 2be5 fab6 654d c736 a3e5 ad36
000002a0: 0fce 6c36 8899 6536 3c4c 6936 04f1 9bb5
000002b0: c478 8036 758d dbb6 c108 91b6 f8dc 5b36
000002c0: c928 00b6 551a da36 6032 ccb6 cbd7 9236
000002d0: cdfd d8b6 6f04 80b6 63bd d836 3c01 2736
000002e0: dc9e 0937 8153 74b6 d2ac bcb5 b484 d336
000002f0: c06f 3836 d83f df36 7582 a636 a3a8 0e36
00000300: 7d05 9836 54e3 66b6 0645 40b7 43e9 5ab6
00000310: 7e1d 6bb6 adb0 8036 3d29 c436 3cec 1ab7
00000320: 37fa 2236 1ad9 2137 1865 3737 c487 a136
00000330: 7ca6 5236 6ba5 bd36 e888 a936 74b2 c8b6
00000340: c2fe 3e35 9d51 7b36 d7f4 be36 75b3 b536
00000350: ab83 d1b6 27e4 27b7 82e0 f1b4 45e5 bcb5
00000360: 6149 9d35 40fb b836 0bff 9c35 0b71 1d36
00000370: 48d4 96b6 47de aab6 01d6 4bb6 a1f9 0ab7
00000380: 82dc 51b7 fd37 7a36 7e7a 9d36 3947 c1b5
00000390: 352d 9536 5544 0fb7 efb0 bfb6 a4c6 0437
000003a0: 2d2c d936 d5d4 5137 ad59 68b5 36bd 04b7
000003b0: 4dcf 7b36 e97b d634 e6b1 cfb6 c335 d7b6
000003c0: 1db5 8236 f3b9 22b6 3d09 1037 9d13 f236
000003d0: 5636 94b7 1afa db36 27c8 58b7 f4ce 67b6
000003e0: d531 b535 f8c7 5837 369a 9035 a0e7 d8b6
000003f0: 8af9 9536 ca9c 0437 9342 3837 2624 22b6

tcn_layers.0.tcnblock.network.1.conv1.bias f4 [22]
5.8827777e-06 2.0596279e-05 -1.7595274e-06 4.3142976e-05 -2.6152547e-05 1.2733293e-06 -7.753921e-06 -1.45620215e-05
4.423742e-06 1.0529576e-06 6.692276e-06 -8.816644e-06 4.6219047e-06 -4.904687e-06 5.8092627e-07 -9.94307e-07
-4.42776e-06 1.978253e-05 5.9100676e-06 9.965439e-07 4.327438e-06 1.6166572e-05
00000000: ad64 c536 2cc6 ac37 e728 ecb5 6bf4 3438
00000010: 2b62 dbb7 43e7 aa35 d616 02b7 684f 74b7
00000020: a86f 9436 5953 8d35 378e e036 33eb 13b7
00000030: dc15 9b36 f192 a4b6 f3f0 1b35 2174 85b5
00000040: 2b92 94b6 a9f2 a537 184f c636 fdc0 8535
00000050: 6934 9136 739d 8737

tcn_layers.0.tcnblock.network.1.conv1.weight_g f4 [22, 1, 1]
-1.8984434e-07 -1.5083687e-05 -7.2500834e-06 -3.239225e-05 0.10231644 -1.3642616e-06 -7.894426e-06 -3.6610065e-06
-1.3431714e-05 3.1048506e-07 2.410576e-06 -2.574846e-06 2.5289823e-06 7.09418e-06 -8.668314e-06 -1.7421968e-06
-4.9771365e-06 8.073442e-06 4.173721e-06 -5.6526665e-06 7.364747e-06 1.49969555e-05
00000000: 04d8 4bb4 f10f 7db7 be45 f3b6 eadc 07b8
00000010: 488b d13d ac1b b7b5 4d72 04b7 9daf 75b6
00000020: c658 61b7 beb0 a634 61c5 2136 84cb 2cb6
00000030: 96b7 2936 8b0a ee36 206e 11b7 6dd5 e9b5
00000040: 4701 a7b6 2b73 0737 fe0b 8c36 09ac bdb6
00000050: b21e f736 6f9b 7b37

tcn_layers.0.tcnblock.network.1.conv1.weight_v f4 [22, 11, 4]
9.038476e-07 1.1220223e-05 -2.8992165e-06 -1.0763645e-05 -1.0403858e-05 -8.199894e-06 -1.8291623e-06 -4.4640265e-06
1.7473151e-06 6.57164e-06 -2.1894675e-05 2.3805774e-06 7.9271895e-06 7.047956e-06 4.6262458e-06 -6.8001455e-06
7.747069e-07 4.7227672e-06 -5.395379e-06 6.4315873e-06 9.797912e-06 -1.7473023e-06 -5.82871e-06 5.29642e-06
6.177191e-06 -5.1338284e-06 -3.7633658e-06 -4.0386453e-06 6.7763467e-06 1.0118275e-05 -1.7972448e-07 -2.20971e-06
-5.0749095e-06 -1.6818386e-07 5.0190915e-06 4.1011435e-06 3.0816993e-06 1.1885047e-06 -5.5016785e-06 -1.674279e-06
-3.8503134e-07 2.551797e-06 -1.9170611e-06 7.417212e-06 3.7345003e-06 -7.6696615e-06 5.7001753e-06 4.755824e-06
7.263936e-06 -1.1585921e-05 9.0883805e-06 3.247411e-06 -1.1512927e-05 1.9759077e-06 -1.3441918e-07 6.505152e-06
-3.547709e-06 -4.982196e-06 -3.888025e-06 -5.578513e-06 -4.3086443e-06 4.136683e-06 9.167296e-06 -1.0944371e-05
-4.8935244e-06 2.7659962e-06 5.8981473e-06 3.9752986e-06 2.8266168e-06 -9.519938e-07 -5.17702e-07 -2.4357038e-07
5.45785e-06 7.1176473e-06 5.2323285e-06 -2.2907934e-06 -9.3439803e-07 3.1990382e-06 -1.4938404e-05 -6.478868e-07
-6.9443566e-08 2.0674274e-06 -4.3037703e-06 -1.2314115e-07 8.235899e-07 7.840419e-06 -2.4220992e-06 -4.2620145e-06
7.240634e-06 4.9510895e-06 6.8372815e-06 -6.604718e-06 -6.920549e-06 6.1049886e-06 6.2793056e-06 5.5858536e-06
5.4366437e-06 4.6412556e-06 5.2379237e-06 3.0151357e-06 -9.684005e-06 4.6676905e-06 -2.0922462e-06 1.6853684e-06
-1.3989293e-06 -8.7248117e-07 2.5086547e-07 -3.3751287e-06 -2.7255044e-06 6.4816736e-06 1.0133596e-05 3.7576328e-07
8.647715e-06 -1.4424845e-06 1.994199e-06 7.783332e-06 -9.324883e-07 7.509376e-06 2.3010898e-06 -5.297784e-06
-8.939807e-06 1.4765236e-06 -1.0467691e-05 -3.8372104e-07 1.919347e-06 -8.205012e-06 -8.627103e-07 6.3763554e-07
-3.9394e-06 1.2330466e-05 -3.6685651e-06 -2.8194718e-06 7.877767e-06 3.1084396e-06 9.774104e-06 1.0851365e-06
8.7306935e-06 -4.3896075e-06 -3.366289e-07 -3.547484e-06 4.699542e-06 -5.753727e-06 5.1129778e-06 4.942713e-06
3.9330757e-06 1.0033987e-05 5.1434436e-06 -3.959233e-06 -4.9647583e-06 -9.789313e-07 -2.6443595e-06 1.14768345e-05
6.2266017e-06 -6.2179274e-06 -1.2075443e-06 2.1799585e-06 7.5551347e-06 -1.0763492e-05 7.1329737e-06 2.5091126e-06
6.1769697e-06 1.9779764e-06 -6.8610693e-06 -1.9588279e-06 -2.8916973e-05 -1.5254619e-05 -5.705861e-06 -3.2892916e-05
-9.523328e-06 1.3617271e-05 3.804132e-06 6.3063717e-06 3.0966214e-07 9.968266e-06 1.4124852e-05 6.050395e-06
-0.000215727 -0.00022071527 -0.00022842379 -0.0002381394 0.0013757778 0.0014596145 0.0015066126 0.0014822553
5.95312e-06 5.9531167e-06 1.1759109e-05 -5.9419717e-06 -0.0006406345 -0.00065612135 -0.0006746193 -0.000697935
-4.751178e-07 -5.645214e-06 -6.3645766e-06 1.995216e-06 -5.880423e-06 -5.941948e-06 5.9532267e-06 5.9419785e-06
-8.830361e-05 -3.0606992e-05 1.537928e-05 6.8742855e-05 3.6101537e-06 3.6862896e-06 -2.964073e-06 -9.516033e-06
-0.00051599444 -0.00037410404 -0.00028742038 -0.0002091802 -0.000589857 -0.0005698329 -0.00055871846 -0.0005483488
1.1759018e-05 -5.952982e-06 -1.1759068e-05 5.880428e-06 -2.7032356e-06 -8.373443e-06 3.5808523e-06 6.431863e-06
-5.128694e-06 2.2427177e-05 -3.8836583e-06 -7.170281e-06 -4.051799e-06 4.1915205e-06 -4.293392e-06 -4.2005518e-06
-5.4067955e-06 7.4964146e-07 -5.6554554e-06 -1.912369e-05 5.482842e-06 8.912697e-06 4.405429e-06 6.0984826e-06
4.822503e-06 4.177464e-06 -1.11769195e-05 4.2936986e-06 1.1564471e-05 9.300037e-06 -7.360781e-06 5.9959643e-06
-4.351475e-06 -3.9353845e-06 -5.582039e-07 -6.205496e-07 -4.7401168e-06 1.4609867e-06 -5.8148726e-06 1.0142853e-06
00000000: ef9f 7235 7e3e 3c37 2990 42b6 8195 34b7
00000010: 3b8c 2eb7 4792 09b7 8a81 f5b5 b2c9 95b6
00000020: 4a85 ea35 f581 dc36 75aa b7b7 02c2 1f36
00000030: 05ff 0437 7b7d ec36 263b 9b36 ce2c e4b6
00000040: 74f5 4f35 4378 9e36 f409 b5b6 eace d736
00000050: b661 2437 da84 eab5 3d94 c3b6 e7b7 b136
00000060: ab45 cf36 4043 acb6 228e 7cb6 b383 87b6
00000070: 6060 e336 a9c1 2937 4afa 40b4 874a 14b6
00000080: 2449 aab6 0796 34b4 ab69 a836 8e9c 8936
00000090: 31cf 4e36 b684 9f35 0f9b b8b6 cab7 e0b5
000000a0: 4eb6 ceb4 8a3f 2b36 dca6 00b6 5ee1 f836
000000b0: 3a9e 7a36 f2ac 00b7 2244 bf36 3894 9f36
000000c0: bcbc f336 2761 42b7 4c7a 1837 19ee 5936
000000d0: a527 41b7 d699 0436 dd54 10b4 d546 da36
000000e0: 2d15 6eb6 bd2c a7b6 e175 82b6 102f bbb6
000000f0: f992 90b6 d6cd 8a36 3dcd 1937 b79d 37b7
00000100: 0e33 a4b6 749f 3936 b3e8 c536 8e63 8536
00000110: e8b0 3d36 848c 7fb5 36f8 0ab5 0fc4 82b4
00000120: 9322 b736 20d4 ee36 5c91 af36 88bb 19b6
00000130: 58d3 7ab5 0faf 5636 f59f 7ab7 71ea 2db5
00000140: 0121 95b3 22be 0a36 1b69 90b6 c838 04b4
00000150: ab14 5d35 588a 0337 598b 22b6 6d02 8fb6
00000160: 93f4 f236 8921 a636 cd6b e536 189e ddb6
00000170: 1037 e8b6 74d9 cc36 d3b2 d236 1e6e bb36
00000180: 6a6c b636 15bc 9b36 6cc1 af36 a357 4a36
00000190: 7c78 22b7 289f 9c36 8468 0cb6 d134 e235
000001a0: d8c2 bbb5 7334 6ab5 b0ae 8634 4580 62b6
000001b0: cfe7 36b6 277d d936 7703 2a37 83bc c934
000001c0: a715 1137 649b c1b5 14d4 0536 2895 0237
000001d0: 1c50 7ab5 0cf9 fb36 6c6c 1a36 9ec3 b1b6
000001e0: 2efc 15b7 f72c c635 649e 2fb7 3802 ceb4
000001f0: 21ce 0036 42a8 09b7 0095 67b5 fb29 2b35
00000200: 302f 84b6 f3de 4e37 7831 76b6 2836 3db6
00000210: c02a 0437 969a 5036 75fb 2337 02a5 9135
00000220: 0b7a 1237 714a 93b6 ecb9 b4b4 5011 6eb6
00000230: c2b0 9d36 2310 c1b6 2590 ab36 95d9 a536
00000240: ddf8 8336 a557 2837 d895 ac36 8dd9 84b6
00000250: f396 a6b6 d363 83b5 c075 31b6 a18c 4037
00000260: 1aee d036 97a3 d0b6 e812 a2b5 674b 1236
00000270: 1d82 fd36 d994 34b7 c757 ef36 3a62 2836
00000280: c443 cf36 60bd 0436 2338 e6b6 6874 03b6
00000290: ba92 f2b7 17ee 7fb7 f974 bfb6 80f6 09b8
000002a0: 62c6 1fb7 bc75 6437 7d4a 7f36 529b d336
000002b0: a43f a634 603d 2737 c7f9 6c37 7f04 cb36
000002c0: c734 62b9 ce6f 67b9 0b85 6fb9 0fb5 79b9
000002d0: 7153 b43a 8950 bf3a 8879 c53a 3c48 c23a
000002e0: e9c0 c736 e2c0 c736 fd48 4537 2661 c7b6
000002f0: 41f0 27ba 8fff 2bba efd8 30ba a0f5 36ba
00000300: b113 ffb4 056c bdb6 4c8f d5b6 8de5 0536
00000310: 7350 c5b6 f260 c7b6 d4c1 c736 3561 c736
00000320: a42f b9b8 0260 00b8 c102 8137 0a2a 9038
00000330: f845 7236 f961 7736 63ea 46b6 0da7 1fb7
00000340: cd43 07ba 6523 c4b9 e9b0 96b9 6257 5bb9
00000350: a2a0 1aba d760 15ba f676 12ba 11bf 0fba
00000360: 9948 4537 babf c7b6 d048 45b7 7e50 c536
00000370: 3c69 35b6 aa7b 0cb7 934e 7036 48d1 d736
00000380: 2517 acb6 ff21 bc37 5f50 82b6 3f98 f0b6
00000390: b0f4 87b6 e3a4 8c36 f50f 90b6 77f2 8cb6
000003a0: 056c b5b6 f83a 4935 fec3 bdb6 d06b a0b7
000003b0: 41f9 b736 be87 1537 59d2 9336 91a1 cc36
000003c0: fcd0 a136 242c 8c36 8184 3bb7 9712 9036
000003d0: 0605 4237 5b07 1c37 a1fc f6b6 f130 c936
000003e0: e302 92b6 b20c 84b6 7bd7 15b5 d893 26b5
000003f0: 4b0d 9fb6 1f17 c435 601d c3b6 9422 8835

tcn_layers.0.tcnblock.network.1.conv2.bias f4 [22]
0.010823051 -8.461878e-06 8.553763e-06 3.6047907e-06 -7.39604e-06 3.0709e-06 5.123367e-06 2.8524657e-06
6.9276844e-06 -8.789128e-06 7.6126603e-06 1.9873166e-06 1.9117004e-05 6.2016425e-06 -1.2881159e-05 -2.5940233e-06
5.119549e-06 1.7946355e-06 -2.0872571e-06 -9.593e-06 8.096021e-06 5.066525e-05
00000000: 2b53 313c 7df7 0db7 2282 0f37 d5e9 7136
00000010: 802b f8b6 a915 4e36 63e9 ab36 fd6c 3f36
00000020: 5b74 e836 0475 13b7 4170 ff36 d75d 0536
00000030: 745d a037 b417 d036 281c 58b7 fb14 2eb6
00000040: 97c8 ab36 35df f035 ce12 0cb6 9ff1 20b7
00000050: 25d4 0737 6681 5438

tcn_layers.0.tcnblock.network.1.conv2.weight_g f4 [22, 1, 1]
0.025328437 4.923885e-07 5.401099e-06 6.608719e-06 4.445167e-06 -1.2053404e-05 4.605234e-06 -1.866698e-06
1.416308e-06 6.1963476e-07 0.09075704 -5.1238403e-06 3.3280394e-06 -3.2886835e-06 -2.8352756e-06 5.379402e-06
-6.533193e-06 3.934751e-06 -1.2578576e-05 3.6895499e-06 -3.404661e-06 -1.4225427e-06
00000000: 957d cf3c ae2c 0435 163b b536 77c0 dd36
00000010: b227 9536 fa38 4ab7 a986 9a36 418b fab5
00000020: f917 be35 fa54 2635 d4de b93d 74ed abb6
00000030: 4857 5f36 27b3 5cb6 aa45 3eb6 b680 b436
00000040: b337 dbb6 4107 8436 9308 53b7 fc99 7736
00000050: a17b 64b6 32ee beb5

tcn_layers.0.tcnblock.network.1.conv2.weight_v f4 [22, 22, 4]
-4.357494e-05 -2.4422372e-06 6.660443e-06 9.60853e-06 2.9500019e-05 1.0935837e-06 2.3984007e-06 8.4158655e-06
-3.8053363e-06 3.126368e-06 -1.7375389e-05 6.696103e-06 1.3306034e-05 1.7873073e-05 2.4664846e-06 -1.0854269e-06
-0.0006928457 -0.00086888234 -0.00077392586 -0.0008769462 -1.5465248e-05 -6.3328107e-06 2.1558868e-05 1.0813093e-05
-1.9000955e-06 -2.0136447e-06 2.5793026e-06 2.4488416e-05 -7.6716504e-05 -1.5479872e-06 -6.5808035e-06 -7.3655033e-06
-3.329327e-05 -3.6867323e-07 -3.5652677e-06 2.1838216e-05 7.049148e-06 -3.2624441e-06 3.1484317e-06 -7.603222e-06
1.3819352e-06 3.1790834e-05 1.9410456e-05 7.4418294e-06 -2.332595e-05 -6.2620607e-06 4.03806e-05 -2.5179364e-05
-2.2982479e-06 -3.4247362e-06 -1.9629411e-05 -1.1143186e-06 -1.9810743e-05 -1.3103539e-06 -2.340799e-06 -3.8362243e-05
-5.480586e-07 -1.018623e-05 7.21741e-06 8.558823e-06 -3.6859503e-05 -8.415853e-06 1.8485014e-05 -1.6317144e-05
1.9973709e-06 3.0867666e-06 3.148508e-05 3.411809e-05 4.0338332e-07 -5.327881e-07 -3.3643112e-06 -3.9140664e-06
-2.403114e-06 4.6341174e-06 7.0297347e-06 1.4197576e-05 2.6750888e-06 -7.349689e-06 7.092554e-05 -3.1801108e-06
-1.3936623e-06 8.6100306e-05 -4.5839863e-07 2.0923562e-05 -2.9312165e-05 1.3615001e-05 3.4066559e-06 4.973155e-06
-9.6856065e-06 2.01574e-06 4.8430934e-06 -1.4819599e-06 6.704253e-06 -1.1614344e-05 4.1199833e-06 -1.2860492e-05
1.0678464e-06 7.253934e-07 -5.463112e-06 4.31814e-06 -9.609257e-06 2.3705502e-06 5.052921e-06 -4.126303e-06
-3.1445243e-06 1.4347563e-06 -1.3242447e-06 1.0690967e-05 2.1829835e-06 5.602599e-06 -2.1880344e-06 -2.0196842e-06
4.010781e-06 -5.1040856e-06 1.7615218e-06 -8.418468e-06 -5.576305e-06 -8.1915405e-06 8.669986e-06 2.79413e-06
2.6624405e-06 -9.257017e-06 -5.3010117e-06 4.805551e-06 -5.496792e-06 -6.6944955e-07 -9.3396575e-06 -5.7602465e-06
8.359863e-06 2.203738e-06 -3.757394e-06 5.6446115e-06 3.9741994e-06 -7.064567e-08 4.569303e-06 6.004334e-06
8.723064e-06 -8.730375e-06 4.419842e-06 -4.5860843e-06 -6.203079e-06 -7.659665e-06 -2.9943471e-06 -4.1636727e-06
-5.17038e-06 -9.730512e-06 -6.77155e-06 4.8316115e-06 4.8123516e-06 -8.239225e-06 2.5257816e-06 -4.126342e-06
7.366147e-06 3.9796564e-06 9.857485e-06 5.0293274e-06 -8.267433e-07 -1.2086838e-06 5.3259164e-06 -5.538893e-06
1.1947791e-06 -4.0209043e-06 -3.527591e-06 2.2833187e-06 -1.230044e-05 4.0125688e-06 4.3005443e-06 4.828783e-06
-3.5122794e-06 4.0142777e-06 9.272698e-06 3.2307446e-06 1.1230713e-06 3.2307507e-06 -9.0414846e-07 -5.6314934e-06
-2.4109916e-06 -2.1532835e-05 -9.9130075e-06 1.9656786e-06 1.07923415e-05 2.6017567e-06 -1.667488e-06 6.2771284e-07
5.9294734e-06 -2.0953012e-06 -3.7218476e-06 9.828539e-06 2.8355273e-06 -1.1591505e-06 6.6699495e-06 1.2505045e-05
6.202205e-06 1.7672854e-05 -2.768025e-06 -1.2925962e-05 6.408551e-06 -7.930781e-06 -3.2490689e-06 -1.1806724e-05
-2.1736705e-06 2.9965736e-06 9.6583035e-06 7.401828e-07 6.4428878e-06 -4.638434e-06 5.369509e-06 1.5330179e-06
1.0998215e-05 2.884623e-07 -3.4687048e-06 9.867055e-07 -6.057142e-06 1.0830159e-05 3.7498824e-06 2.1534834e-05
2.8328795e-06 -3.331027e-06 7.0218766e-07 7.245343e-06 5.911395e-06 3.8741528e-06 -7.3145757e-06 -2.4639396e-06
1.3133985e-05 1.2192687e-06 1.1574927e-05 -3.6900706e-06 -4.4302947e-06 3.522744e-07 2.4277858e-06 1.4685043e-06
6.4352303e-06 1.0724083e-06 -2.8108234e-06 -1.1001434e-05 2.6899688e-06 6.6672246e-06 6.4132832e-06 -2.796478e-06
-2.1531989e-05 -5.9815256e-06 1.0056131e-05 -1.2494224e-05 3.3004774e-06 7.315737e-06 1.2626365e-05 -4.437405e-06
6.21531e-06 -1.9556844e-06 -3.7142117e-06 6.3430025e-06 -3.2702064e-06 5.995815e-06 -4.6991595e-06 2.1497952e-05
00000000: 3cc4 36b8 51e5 23b6 c57c df36 5234 2137
00000010: cf76 f737 40c7 9235 36f4 2036 de31 0d37
00000020: 2e5f 7fb6 98ce 5136 5dc1 91b7 16af e036
00000030: fb3c 5f37 22ee 9537 e285 2536 fcae 91b5
00000040: 16a0 35ba b5c5 63ba 49e1 4aba dde2 65ba
00000050: 5ebb 81b7 6e7e d4b6 51d9 b437 e169 3537
00000060: c906 ffb5 2722 07b6 1518 2d36 796c cd37
00000070: dce2 a0b8 6fc4 cfb5 acd0 dcb6 3125 f7b6
00000080: 60a4 0bb8 10ee c5b4 d542 6fb6 3631 b737
00000090: b887 ec36 5df0 5ab6 a549 5336 2e1f ffb6
000000a0: ef7a b935 2657 0538 a3d3 a237 d4b4 f936
000000b0: 19ac c3b7 b11e d2b6 575e 2938 4638 d3b7
000000c0: 993b 1ab6 85d4 65b6 d7a9 a4b7 b28f 95b5
000000d0: 3f2f a6b7 6bdf afb5 9f16 1db6 25e7 20b8
000000e0: 4d1e 13b5 86e5 2ab7 142d f236 dd97 0f37
000000f0: 9799 1ab8 d031 0db7 4410 9b37 cde0 88b7
00000100: 920a 0636 3f26 4f36 d90e 0438 051a 0f38
00000110: 9590 d834 eb04 0fb5 6dc6 61b6 9355 83b6
00000120: 2f45 21b6 c47e 9b36 f6e0 eb36 2032 6e37
00000130: ad85 3336 599d f6b6 dcbd 9438 e369 55b6
00000140: df0d bbb5 c090 b438 d419 f6b4 0285 af37
00000150: 65e3 f5b7 fc6b 6437 e79d 6436 13df a636
00000160: 5d7f 22b7 2646 0736 db81 a236 c1e7 c6b5
00000170: 18f5 e036 3adb 42b7 633e 8a36 64c3 57b7
00000180: ec52 8f35 a8b8 4235 c64f b7b6 8ae4 9036
00000190: 7237 21b7 be15 1f36 438c a936 ac74 8ab6
000001a0: 8406 53b6 da91 c035 b4bc b1b5 5b5d 3337
000001b0: 5f7f 1236 f5fd bb36 25d6 12b6 e989 07b6
000001c0: 5994 8636 c343 abb6 6e6d ec35 0b3d 0db7
000001d0: 181c bbb6 666e 09b7 4e75 1137 ca82 3b36
000001e0: 61ac 3236 964e 1bb7 58df b1b6 5e3f a136
000001f0: 1571 b8b6 39b4 33b5 86b1 1cb7 2448 c1b6
00000200: 5741 0c37 eee3 1336 8a27 7cb6 d866 bd36
00000210: 1d5a 8536 deb5 97b3 0452 9936 d678 c936
00000220: 4659 1237 ad78 12b7 274e 9436 2ae2 99b6
00000230: 0b24 d0b6 0382 00b7 7ef2 48b6 adb5 8bb6
00000240: 3a7d adb6 3b40 23b7 2c37 e3b6 3a1f a236
00000250: c979 a136 343b 0ab7 9980 2936 0275 8ab6
00000260: b92a f736 fd88 8536 9361 2537 98c1 a836
00000270: 5eed 5db5 0f3a a2b5 46b5 b236 bbda b9b6
00000280: 4c5c a035 4eeb 86b6 8dbb 6cb6 1e3b 1936
00000290: fd5d 4eb7 b4a3 8636 654d 9036 ee06 a236
000002a0: 80b4 6bb6 62b2 8636 ef91 1b37 c5cf 5836
000002b0: 70bc 9635 e0cf 5836 9cb4 72b5 29f6 bcb6
000002c0: 85cc 21b6 69a1 b4b7 0b50 26b7 1aea 0336
000002d0: c110 3537 d799 2e36 74ce dfb5 1980 2835
000002e0: caf5 c636 009d 0cb6 dbc4 79b6 41e5 2437
000002f0: fd49 3e36 1c94 9bb5 6ece df36 c2cc 5137
00000300: 891c d036 2a40 9437 4fc2 39b6 96dc 58b7
00000310: 0909 d736 720e 05b7 940a 5ab6 7e15 46b7
00000320: 60df 11b6 be18 4936 190a 2237 fab0 4635
00000330: fc2f d836 d8a3 9bb6 bb2b b436 18c2 cd35
00000340: f984 3837 f5dd 9a34 e5c7 68b6 f16e 8435
00000350: 743e cbb6 2eb3 3537 7da6 7b36 b4a5 b437
00000360: 801c 3e36 9c8a 5fb6 f87d 3c35 061d f336
00000370: 7f5a c636 b8fe 8136 ba6f f5b6 295a 25b6
00000380: 095a 5c37 c1a5 a335 ef31 4237 eea2 77b6
00000390: f1a7 94b6 3a20 bd34 0bed 2236 6c19 c535
000003a0: 35ee d736 abef 8f35 94a1 3cb6 cd92 38b7
000003b0: 5085 3436 06b7 df36 af31 d736 20ab 3bb6
000003c0: 989f b4b7 eab4 c8b6 c1b6 2837 499e 51b7
000003d0: c57d 5d36 b479 f536 d3d5 5337 05e5 94b6
000003e0: 1b8d d036 673e 03b6 ac41 79b6 fad5 d436
000003f0: b875 5bb6 a92f c936 79ad 9db6 8056 b437

tcn_layers.0.tcnblock.network.1.net.0.bias f4 [22]
5.8827777e-06 2.0596279e-05 -1.7595274e-06 4.3142976e-05 -2.6152547e-05 1.2733293e-06 -7.753921e-06 -1.45620215e-05
4.423742e-06 1.0529576e-06 6.692276e-06 -8.816644e-06 4.6219047e-06 -4.904687e-06 5.8092627e-07 -9.94307e-07
-4.42776e-06 1.978253e-05 5.9100676e-06 9.965439e-07 4.327438e-06 1.6166572e-05
00000000: ad64 c536 2cc6 ac37 e728 ecb5 6bf4 3438
00000010: 2b62 dbb7 43e7 aa35 d616 02b7 684f 74b7
00000020: a86f 9436 5953 8d35 378e e036 33eb 13b7
00000030: dc15 9b36 f192 a4b6 f3f0 1b35 2174 85b5
00000040: 2b92 94b6 a9f2 a537 184f c636 fdc0 8535
00000050: 6934 9136 739d 8737

tcn_layers.0.tcnblock.network.1.net.0.weight_g f4 [22, 1, 1]
-1.8984434e-07 -1.5083687e-05 -7.2500834e-06 -3.239225e-05 0.10231644 -1.3642616e-06 -7.894426e-06 -3.6610065e-06
-1.3431714e-05 3.1048506e-07 2.410576e-06 -2.574846e-06 2.5289823e-06 7.09418e-06 -8.668314e-06 -1.7421968e-06
-4.9771365e-06 8.073442e-06 4.173721e-06 -5.6526665e-06 7.364747e-06 1.49969555e-05
00000000: 04d8 4bb4 f10f 7db7 be45 f3b6 eadc 07b8
00000010: 488b d13d ac1b b7b5 4d72 04b7 9daf 75b6
00000020: c658 61b7 beb0 a634 61c5 2136 84cb 2cb6
00000030: 96b7 2936 8b0a ee36 206e 11b7 6dd5 e9b5
00000040: 4701 a7b6 2b73 0737 fe0b 8c36 09ac bdb6
00000050: b21e f736 6f9b 7b37
