STABLE_BetterForm.pt (torch, 959826 bytes, 123 tensors)

tcn_layers.0.tcnblock.network.0.conv1.bias f4 [11]
000000 b2 34 cd 35 03 24 28 36 a8 3f bb 35 3d d2 31 37
       1.5289027e-06 2.5054912e-06 1.3951112e-06 1.0598972e-05
000010 52 27 0a 35 ac d8 3c 3a e6 36 e3 35 80 db cf 35
       5.1466225e-07 0.00072039175 1.6928796e-06 1.5486585e-06
000020 ff 4e e0 36 35 3d d4 36 e3 73 27 b6
       6.6849166e-06 6.325218e-06 -2.4952394e-06

tcn_layers.0.tcnblock.network.0.conv1.weight_g f4 [11, 1, 1]
000000 5c 11 ab 3c c4 a8 81 3d ed 76 9b 3d 88 f1 33 3e
       0.020882301 0.063310176 0.07591043 0.17572606
000010 4f 60 aa 3d f3 92 73 3e ca 29 23 3e cc 87 93 3d
       0.08319151 0.23786525 0.1593391 0.072036356
000020 b8 4e 24 3e 48 d0 6b 3e ef d4 7d 3d
       0.16045654 0.23028672 0.061970647

tcn_layers.0.tcnblock.network.0.conv1.weight_v f4 [11, 11, 4]
000000 4a ec 11 b7 de b2 fc b6 42 32 13 b7 b7 40 0a b7
       -8.697689e-06 -7.531008e-06 -8.773584e-06 -8.240509e-06
000010 81 35 2f b8 6e b0 30 b8 94 85 32 b8 07 b9 33 b8
       -4.177308e-05 -4.2125983e-05 -4.256291e-05 -4.2849246e-05
000020 bc f3 c5 b7 03 eb c7 b7 30 a3 ca b7 c6 63 cb b7
       -2.3597728e-05 -2.3832084e-05 -2.4156267e-05 -2.4245946e-05
000030 0b 6f 84 b7 dd 2c 84 b7 07 a6 84 b7 12 a0 84 b7
       -1.5787335e-05 -1.5756517e-05 -1.5812939e-05 -1.5810165e-05
000040 b5 b6 a2 b6 22 22 90 b6 02 f6 b1 b6 5e 3a b6 b6
       -4.849246e-06 -4.295508e-06 -5.30365e-06 -5.4308175e-06
000050 31 1f 1c b8 17 06 1d b8 79 3d 1e b8 e5 1a 1f b8
       -3.7222348e-05 -3.743739e-05 -3.7727386e-05 -3.79336e-05
000060 aa e8 d3 b7 5e 9c d7 b7 e0 d8 da b7 db 76 dc b7
       -2.5261503e-05 -2.5702811e-05 -2.6088615e-05 -2.628139e-05
000070 e8 8a 76 b7 ad ab 75 b7 d8 2c 77 b7 0e ad 76 b7
       -1.4695084e-05 -1.4643109e-05 -1.4732788e-05 -1.4703035e-05
000080 6c 90 a4 b7 a2 0c a6 b7 b7 12 a7 b7 dd f3 a4 b7
       -1.9617575e-05 -1.9794625e-05 -1.9916666e-05 -1.9663881e-05
000090 86 c6 de b6 c0 bd ef b6 3c 04 0a b7 08 3b 02 b7
       -6.6392267e-06 -7.144845e-06 -8.226427e-06 -7.762348e-06
0000a0 a6 3c c6 b7 6f 32 c8 b7 5b eb ca b7 83 a3 cb b7
       -2.3631681e-05 -2.3865343e-05 -2.4189872e-05 -2.4275627e-05
0000b0 b8 e2 77 b7 0e 18 77 b7 ed 05 74 b7 12 3a 6f b7
       -1.4775134e-05 -1.4727948e-05 -1.4544913e-05 -1.4259031e-05
0000c0 49 28 fc b8 6a f7 fc b8 49 67 fe b8 d8 5e ff b8
       -0.000120238 -0.00012062381 -0.00012130902 -0.000121770136
0000d0 ac 26 89 b8 c9 a5 8a b8 dc 94 8b b8 d3 95 8c b8
       -6.539872e-05 -6.611233e-05 -6.655764e-05 -6.703627e-05
0000e0 a6 4a 66 b7 8b 33 5e b7 73 4d 5d b7 cb dc 5d b7
       -1.3726449e-05 -1.3244232e-05 -1.3190659e-05 -1.3224034e-05
0000f0 5e 26 ab b7 b8 b2 ae b7 d5 d6 b1 b7 cd ca b5 b7
       -2.0402655e-05 -2.0825639e-05 -2.1200083e-05 -2.1671318e-05
000100 78 21 e3 b8 6d 1c e5 b8 76 fe e6 b8 3c 1b e8 b8
       -0.000108304375 -0.00010924866 -0.00011014652 -0.00011067695
000110 94 58 cb b8 05 ca cc b8 40 a5 ce b8 65 04 cf b8
       -9.696293e-05 -9.765107e-05 -9.853626e-05 -9.871348e-05
000120 89 a6 58 b8 2f 4b 5b b8 db b3 5d b8 2e 49 60 b8
       -5.165351e-05 -5.228369e-05 -5.285801e-05 -5.3473916e-05
000130 b9 1f 3d b8 ec 29 3c b8 64 a0 3c b8 66 7c 3a b8
       -4.5090655e-05 -4.4861736e-05 -4.497207e-05 -4.446171e-05
000140 a9 ea 53 b8 32 0c 54 b8 f2 95 56 b8 8a 2c 57 b8
       -5.0524864e-05 -5.0556097e-05 -5.1161223e-05 -5.1301475e-05
000150 ab 65 89 b8 f4 e4 8a b8 63 d3 8b b8 09 d4 8c b8
       -6.551606e-05 -6.6229986e-05 -6.66741e-05 -6.715215e-05
000160 d4 44 c5 b7 db fd c4 b7 6d 3e c6 b7 70 b7 c1 b7
       -2.351628e-05 -2.3483231e-05 -2.3632509e-05 -2.3092813e-05
000170 f1 1a 0c b9 d6 63 0d b9 cf f2 0e b9 b3 ca 0f b9
       -0.00013361477 -0.00013484 -0.00013632629 -0.00013713054
000180 ab 3b b7 b8 25 8c b8 b8 6b d2 b9 b8 c9 1e bb b8
       -8.737234e-05 -8.799908e-05 -8.860681e-05 -8.922589e-05
000190 76 d1 b4 b7 0a c1 ba b7 75 61 c1 b7 d3 82 c7 b7
       -2.155521e-05 -2.2262819e-05 -2.3052775e-05 -2.3783568e-05
0001a0 23 c0 f5 b7 7d d6 f8 b7 ca 4e fc b7 67 1c 00 b8
       -2.9295747e-05 -2.9663783e-05 -3.007743e-05 -3.054403e-05
0001b0 ea a9 19 b9 e2 97 1a b9 52 68 1b b9 94 38 1c b9
       -0.00014654515 -0.00014743165 -0.00014820814 -0.00014898396
0001c0 8d c6 c7 b8 51 f6 c9 b8 67 fd ca b8 59 25 cb b8
       -9.5260424e-05 -9.630307e-05 -9.6793105e-05 -9.686751e-05
0001d0 b2 d5 90 b8 f6 96 91 b8 ea 73 92 b8 00 38 93 b8
       -6.906259e-05 -6.9422575e-05 -6.983413e-05 -7.019937e-05
0001e0 66 c1 fb b7 a9 f5 f6 b7 d3 fe f0 b7 e8 a4 e8 b7
       -3.001159e-05 -2.943988e-05 -2.8728891e-05 -2.7733346e-05
0001f0 54 2b 43 b8 c6 a1 45 b8 43 72 46 b8 e1 c3 45 b8
       -4.6531975e-05 -4.7119123e-05 -4.7313293e-05 -4.7150887e-05
000200 99 85 b7 b8 cf d7 b8 b8 c3 1f ba b8 77 6b bb b8
       -8.7510045e-05 -8.814001e-05 -8.875087e-05 -8.936872e-05
000210 62 bb c2 b7 c6 e3 d0 b7 a4 78 cf b7 25 13 d4 b7
       -2.321386e-05 -2.4901597e-05 -2.47325e-05 -2.5281284e-05
000220 10 3a e9 b9 03 3f ec b9 13 4c ef b9 46 d0 f1 b9
       -0.00044484483 -0.00045060375 -0.00045642312 -0.00046122278
000230 76 8c 41 b9 88 05 43 b9 2c 4d 43 b9 57 70 44 b9
       -0.0001845824 -0.0001859871 -0.00018625398 -0.00018733866
000240 5f be 31 b7 ec a8 3b b7 81 91 40 b7 68 2f 41 b7
       -1.0594346e-05 -1.1185399e-05 -1.147797e-05 -1.1514734e-05
000250 59 3f 58 b8 f4 4c 5e b8 53 20 5f b8 ed a8 65 b8
       -5.155741e-05 -5.3000593e-05 -5.3197447e-05 -5.475518e-05
000260 d8 97 16 ba c4 d8 17 ba 80 27 18 ba 83 ef 18 ba
       -0.00057446724 -0.00057924935 -0.0005804226 -0.000583403
000270 f5 1f 1e b9 2f 81 22 b9 e8 da 26 b9 c7 e9 29 b9
       -0.00015079959 -0.00015497649 -0.00015912543 -0.00016204185
000280 39 22 09 b8 5a af 07 b8 16 4e 01 b8 f8 cf fc b7
       -3.2695218e-05 -3.2349817e-05 -3.082872e-05 -3.0137584e-05
000290 f5 b4 7a 39 81 de 80 39 37 85 83 39 21 a9 86 39
       0.0002390927 0.0002457984 0.0002508552 0.00025684483
0002a0 86 22 0a 39 23 15 0c 39 fd 08 0d 39 32 eb 0e 39
       0.00013173567 0.00013359314 0.00013450156 0.00013629792
0002b0 b0 0b 42 b9 4d 86 43 b9 fd cf 43 b9 79 f4 44 b9
       -0.00018505636 -0.0001864668 -0.00018674131 -0.0001878309
0002c0 9b cc a9 b7 1c 27 ac b7 f6 50 ac b7 89 c6 a9 b7
       -2.0241647e-05 -2.052221e-05 -2.0541698e-05 -2.023882e-05
0002d0 4a 3e 20 b9 b2 68 21 b9 8b 16 22 b9 af 65 22 b9
       -0.00015281994 -0.00015393159 -0.00015457922 -0.00015487404
0002e0 3f 6c c6 b8 86 53 c7 b8 68 c7 c8 b8 68 d5 c9 b8
       -9.461538e-05 -9.504617e-05 -9.5738855e-05 -9.624177e-05
0002f0 1d ca 8a b7 4d ee 91 b7 0c 6f 99 b7 d2 ac 9a b7
       -1.6544998e-05 -1.7396314e-05 -1.8290732e-05 -1.8438706e-05
000300 bf 3c d4 b7 f7 94 d7 b7 dc 6f d7 b7 df 90 d9 b7
       -2.5300656e-05 -2.5699364e-05 -2.5682086e-05 -2.5935877e-05
000310 ac a2 27 b9 71 ee 28 b9 5d ec 29 b9 83 c2 2a b9
       -0.00015986961 -0.00016110555 -0.00016205148 -0.00016284925
000320 10 77 ea b8 6b 5a ec b8 27 ec ed b8 3a b9 ee b8
       -0.000111801666 -0.000112701986 -0.000113450275 -0.000113832255
000330 85 c9 92 b8 0d 93 93 b8 15 8b 94 b8 3b 74 95 b8
       -6.9993584e-05 -7.0368966e-05 -7.083096e-05 -7.126523e-05
000340 cc 22 30 b8 21 90 2a b8 c6 c0 25 b8 8e 35 26 b8
       -4.1994077e-05 -4.066539e-05 -3.95186e-05 -3.962736e-05
000350 c1 fd 4d b8 62 ca 4e b8 a8 e1 4e b8 94 7e 4f b8
       -4.9112135e-05 -4.930271e-05 -4.9324386e-05 -4.947053e-05
000360 6a b0 c6 b8 83 98 c7 b8 0c 0f c9 b8 59 1f ca b8
       -9.4742354e-05 -9.517467e-05 -9.5872296e-05 -9.6379496e-05
000370 d2 eb 53 b8 00 9a 54 b8 85 64 56 b8 c6 5f 58 b8
       -5.0525945e-05 -5.0688162e-05 -5.1115192e-05 -5.158761e-05
000380 36 cf d7 b9 62 b6 d9 b9 e6 3b db b9 cb a5 dc b9
       -0.0004116238 -0.0004152535 -0.00041815563 -0.00042085195
000390 52 cd a1 b9 dc d3 a2 b9 b0 ce a3 b9 0e c2 a4 b9
       -0.00030861289 -0.00031056895 -0.00031243777 -0.000314251
0003a0 f8 2a 9d b7 e8 7c a9 b7 29 51 b4 b7 65 1f be b7
       -1.8735867e-05 -2.0204534e-05 -2.1495465e-05 -2.2664384e-05
0003b0 fb 47 ea b8 00 dd ea b8 64 8d ed b8 f1 28 ef b8
       -0.00011171397 -0.00011199154 -0.00011327377 -0.00011404034
0003c0 fc 66 01 ba 73 cb 01 ba 46 5b 02 ba c4 eb 02 ba
       -0.00049363053 -0.0004951276 -0.0004972707 -0.0004994238
0003d0 d2 2d a1 b9 09 d1 a2 b9 46 f2 a3 b9 b1 6e a4 b9
       -0.00030742452 -0.0003105479 -0.0003127029 -0.0003136299
0003e0 09 2c 8a b9 75 f8 8a b9 ee d5 8b b9 ab 96 8c b9
       -0.0002635422 -0.00026506526 -0.00026671536 -0.00026815137
0003f0 30 a2 8e b9 53 f9 8e b9 11 c3 8d b9 6f ab 8c b9
       -0.0002720519 -0.00027270112 -0.00027038952 -0.0002683061

tcn_layers.0.tcnblock.network.0.conv2.bias f4 [11]
000000 13 f0 a6 3a d5 f0 9c 39 0f 2a 3f b5 b9 19 1e 37
       0.0012736343 0.00029934073 -7.121425e-07 9.423523e-06
000010 25 29 34 3d a9 cc 3a b5 27 7d 57 38 ed 1b 31 36
       0.04398455 -6.958822e-07 5.137655e-05 2.639131e-06
000020 3c 08 1f b5 2a b3 16 b5 60 3f 1c b6
       -5.92441e-07 -5.614007e-07 -2.32827e-06

tcn_layers.0.tcnblock.network.0.conv2.weight_g f4 [11, 1, 1]
000000 99 15 39 3e f5 3f c8 3d 92 e5 f0 3d 6c 55 6e 3e
       0.18074645 0.09777824 0.11762537 0.23274773
000010 f5 c6 66 3e fb eb 87 3d 9c 1a 5f 3e d8 db 5a 3d
       0.22536834 0.066368066 0.21787494 0.053432316
000020 a4 46 a4 3d dd a0 d8 3d 08 73 1e 3e
       0.08021286 0.10577557 0.15473568

tcn_layers.0.tcnblock.network.0.conv2.weight_v f4 [11, 11, 4]
000000 ca 7b e7 37 e8 8a e0 37 b2 79 f1 37 af 1e f1 37
       2.759499e-05 2.6767564e-05 2.8786108e-05 2.8743727e-05
000010 99 25 c7 38 2a 16 ce 38 94 1b d3 38 5d 62 c7 38
       9.4960626e-05 9.826974e-05 0.00010066401 9.507381e-05
000020 9a 7a e6 38 b5 88 e7 38 a4 96 e2 38 f0 e6 dd 38
       0.00010990091 0.00011040402 0.00010804579 0.00010581117
000030 4e 86 fb 38 ff 7d f2 38 e6 dc fb 38 0e ca f7 38
       0.00011993629 0.00011562928 0.00012009758 0.000118155134
000040 b8 95 f3 38 4e 3b fc 38 b8 0f f0 38 c6 a0 f8 38
       0.0001161503 0.00012027343 0.0001144702 0.00011855508
000050 22 c7 91 39 98 90 92 39 52 4d 91 39 c3 ba 91 39
       0.0002780492 0.0002795502 0.00027714163 0.00027795703
000060 32 7f 39 39 84 ca 3a 39 06 f3 3c 39 cb 01 36 39
       0.00017690359 0.00017813785 0.0001801961 0.0001735754
000070 72 b8 c3 38 18 35 bd 38 bb af c0 38 ba 33 cb 38
       9.33268e-05 9.022112e-05 9.188006e-05 9.689429e-05
000080 b1 35 3b 39 4a 52 3e 39 18 fc 37 39 cb dd 43 39
       0.00017853711 0.00018150467 0.00017546152 0.00018679273
000090 21 e5 fb b6 8b ad 13 b7 2a be 2a b7 ef a5 22 b7
       -7.507057e-06 -8.802289e-06 -1.0177066e-05 -9.694587e-06
0000a0 90 a1 b8 38 57 a3 bd 38 4b 67 bb 38 83 4c c2 38
       8.803897e-05 9.042647e-05 8.936095e-05 9.264892e-05
0000b0 95 80 78 b6 70 53 71 b6 e2 a5 52 b6 b7 6c 2e b6
       -3.7029724e-06 -3.5960365e-06 -3.1388995e-06 -2.59913e-06
0000c0 93 49 c2 36 1d 2f dd 36 08 3c ee 36 d1 77 0a 37
       5.7902157e-06 6.591798e-06 7.0999413e-06 8.253338e-06
0000d0 d5 6b 42 b7 1f fa 1c b7 57 c6 e0 b6 dd a2 03 b7
       -1.1588408e-05 -9.35656e-06 -6.69881e-06 -7.846128e-06
0000e0 68 c6 57 b9 1b ef 54 b9 1e d7 52 b9 9a 50 5a b9
       -0.0002057791 -0.00020306969 -0.00020107298 -0.00020820127
0000f0 ee 7c f0 b5 50 a2 1c b5 6f cc b9 33 68 f7 01 b6
       -1.7917753e-06 -5.8350724e-07 8.65192e-08 -1.9366507e-06
000100 8d c2 99 37 cc 58 a9 37 d3 0f a4 37 ac c7 83 37
       1.8329616e-05 2.018772e-05 1.9557692e-05 1.5709396e-05
000110 d2 15 d9 36 da 12 dd 36 b7 aa 9d 36 44 b9 70 36
       6.469644e-06 6.588508e-06 4.6988384e-06 3.5870626e-06
000120 94 8f 6d b6 ea b1 3f b5 ce 15 fd b4 21 92 1d 34
       -3.5399325e-06 -7.1411944e-07 -4.7140787e-07 1.4674926e-07
000130 7f 49 ef 36 6f 12 13 37 9f 0d d9 36 8e 8e 9c 36
       7.131311e-06 8.766175e-06 6.4686897e-06 4.665758e-06
000140 c5 b0 2d 3a 2c 36 2e 3a 7a 05 33 3a 36 70 38 3a
       0.0006625767 0.00066456455 0.0006829124 0.00070357637
000150 97 f2 6d b6 81 84 e6 b5 bb b9 31 35 6c ed c1 b5
       -3.5456958e-06 -1.7174899e-06 6.620791e-07 -1.4448719e-06
000160 68 1f 03 35 59 1c 8f 34 16 dc 1a b4 c7 bb d2 34
       4.8847005e-07 2.665645e-07 -1.4422434e-07 3.9252174e-07
000170 d1 73 94 35 e4 02 65 b3 fc 47 02 34 37 cb f8 33
       1.1060566e-06 -5.3320846e-08 1.2133381e-07 1.15853645e-07
000180 d3 d9 23 b5 fc 2d 2e 33 a9 20 5e b5 a1 39 33 b5
       -6.103921e-07 4.0554355e-08 -8.274897e-07 -6.676656e-07
000190 cd 36 8a 33 84 fc 87 b5 14 7c 6c b4 6a 45 a7 34
       6.436094e-08 -1.0131776e-06 -2.2024352e-07 3.115668e-07
0001a0 4a 23 c0 b2 23 bd c9 b4 07 68 3f b4 c6 bb 56 35
       -2.236779e-08 -3.7576783e-07 -1.7826106e-07 7.999446e-07
0001b0 2a 16 68 33 8f 2c c3 b4 c8 58 f3 b4 ff 78 d4 33
       5.4036867e-08 -3.6354e-07 -4.5326874e-07 9.894028e-08
0001c0 33 9b 18 b3 36 ad a7 33 c9 13 e5 34 17 8f 57 34
       -3.553141e-08 7.8080504e-08 4.266897e-07 2.0075491e-07
0001d0 44 b9 1e 35 6c 0d 63 b4 e1 58 37 b4 96 1f a6 b3
       5.9129184e-07 -2.1145905e-07 -1.7075537e-07 -7.735723e-08
0001e0 87 fb 82 b3 db b3 b6 33 b8 9e b7 b4 1a 75 65 33
       -6.099349e-08 8.507751e-08 -3.420189e-07 5.342472e-08
0001f0 22 6f 6c 34 4a 17 f4 32 8f 1a b1 b4 1c e7 a7 b4
       2.2019643e-07 2.841593e-08 -3.2988143e-07 -3.1274328e-07
000200 ca 04 55 34 44 5e d4 32 d9 24 50 b4 fa 37 16 b3
       1.9838913e-07 2.4722915e-08 -1.9384915e-07 -3.4975507e-08
000210 9f 9f 57 37 f3 54 73 37 3f b8 61 37 a3 25 57 37
       1.2852163e-05 1.45037075e-05 1.3453943e-05 1.2823762e-05
000220 95 0e c5 38 a1 1f ce 38 c8 93 ce 38 ce 8c ce 38
       9.396408e-05 9.828737e-05 9.850372e-05 9.8490724e-05
000230 94 63 05 39 8b 34 f0 38 79 38 f6 38 cd d0 0b 39
       0.00012720964 0.00011453879 0.00011740713 0.00013333857
000240 4a d5 21 39 c2 ce 28 39 31 7a 32 39 c2 c2 43 39
       0.00015433613 0.00016098752 0.00017020923 0.00018669202
000250 62 2b 1c 39 12 06 1d 39 cb 55 0e 39 68 5c 1b 39
       0.0001489348 0.00014974948 0.00013574136 0.00014816376
000260 46 26 f2 39 4c e3 06 3a 35 98 0f 3a b6 4c eb 39
       0.00046186353 0.0005145564 0.00054776977 0.00044879847
000270 0d 7a ae 39 19 52 a4 39 21 d5 b0 39 80 93 a9 39
       0.000332788 0.00031341685 0.0003372813 0.00032344088
000280 a6 1c f8 38 f6 e3 d8 38 bd ab d2 38 9d 1d e8 38
       0.00011830898 0.00010342144 0.00010045569 0.00011068138
000290 a0 c2 bc 39 cb a1 ad 39 f6 3a b3 39 de 44 b8 39
       0.0003600316 0.00033117677 0.0003418547 0.00035146525
0002a0 fa f9 11 b8 e5 8a e9 b7 d9 6d 95 b7 a7 10 40 b8
       -3.4803503e-05 -2.7840442e-05 -1.7813336e-05 -4.5791876e-05
0002b0 2c ef c3 38 a7 06 b3 38 fa 26 b9 38 80 a5 d0 38
       9.342874e-05 8.536624e-05 8.8287474e-05 9.94904e-05
0002c0 a9 31 0d 38 57 6f 0f 38 ea 11 0a 38 21 3d 0b 38
       3.366327e-05 3.419755e-05 3.2918448e-05 3.3197113e-05
0002d0 ca 29 fd 38 a5 cb f3 38 3f 7a f9 38 da f7 fd 38
       0.00012071764 0.00011625075 0.00011896015 0.00012110146
0002e0 f1 72 1a 39 68 d2 11 39 ee 68 11 39 98 57 18 39
       0.00014729403 0.0001390666 0.00013867367 0.00014528481
0002f0 83 07 60 39 4d 4a 67 39 c9 95 63 39 80 8a 68 39
       0.00021365103 0.00022057556 0.00021704206 0.0002217684
000300 f2 28 1d 39 2e 52 20 39 8d 61 1b 39 f4 75 21 39
       0.0001498794 0.00015289403 0.00014818292 0.00015398097
000310 c7 24 c4 39 9e c3 c5 39 95 6a c9 39 68 f4 c8 39
       0.00037411434 0.00037720514 0.00038417117 0.0003832907
000320 4a a1 7c 39 f4 56 84 39 b3 50 82 39 23 07 83 39
       0.00024092678 0.00025241787 0.00024855658 0.00024991584
000330 2d 46 f7 38 3b 00 f3 38 3b 9c f9 38 70 e0 f7 38
       0.00011790949 0.00011587186 0.000119023454 0.000118196825
000340 b0 77 84 39 85 69 84 39 26 08 88 39 66 e8 85 39
       0.00025266176 0.0002525562 0.00025946012 0.00025540887
000350 13 a0 87 b5 f8 3d 46 b6 85 03 8b b6 e6 ab 3e b6
       -1.0104872e-06 -2.954037e-06 -4.1429325e-06 -2.8412264e-06
000360 0f a6 e8 38 2c 1b f4 38 6d 21 e9 38 9a fb f5 38
       0.00011093553 0.00011639888 0.00011116532 0.00011729375
000370 86 b4 02 b5 4f 60 a4 34 bc 0a a0 31 50 d7 e1 b4
       -4.869147e-07 3.0617454e-07 4.6578332e-09 -4.2066176e-07
000380 4f 16 08 b4 5d b8 51 b4 e7 42 01 b6 53 7c ae b4
       -1.2674103e-07 -1.9531713e-07 -1.926144e-06 -3.2500483e-07
000390 a5 4f 24 34 aa 13 a8 b5 43 e8 b7 b5 5f 89 72 35
       1.5302665e-07 -1.2522698e-06 -1.370216e-06 9.0351926e-07
0003a0 3c fb 0e 35 c6 9b 5e 35 e1 84 cc b5 89 7b 4c b5
       5.3264716e-07 8.2928125e-07 -1.5237857e-06 -7.617569e-07
0003b0 7f a5 89 34 d9 61 5a b3 d1 db 3a b4 ad 31 a3 35
       2.5638653e-07 -5.0846072e-08 -1.7402569e-07 1.2158904e-06
0003c0 6d 7d 97 b3 01 36 6d 33 c1 30 58 b4 97 d9 98 33
       -7.0543e-08 5.522998e-08 -2.0134304e-07 7.117631e-08
0003d0 a8 d4 7e 33 0f d6 bc b4 65 6c 2c 35 2c 46 8b 31
       5.9332393e-08 -3.5173477e-07 6.423273e-07 4.05341e-09
0003e0 50 34 f1 b4 e8 9f 22 b5 85 00 ff b4 9b d8 07 b5
       -4.492781e-07 -6.0582397e-07 -4.749783e-07 -5.060662e-07
0003f0 d5 c8 ad 33 39 d3 bc 33 34 39 af b4 38 7d 44 b4
       8.0924714e-08 8.7928534e-08 -3.263791e-07 -1.8299477e-07

tcn_layers.0.tcnblock.network.0.net.0.bias f4 [11]
000000 b2 34 cd 35 03 24 28 36 a8 3f bb 35 3d d2 31 37
       1.5289027e-06 2.5054912e-06 1.3951112e-06 1.0598972e-05
000010 52 27 0a 35 ac d8 3c 3a e6 36 e3 35 80 db cf 35
       5.1466225e-07 0.00072039175 1.6928796e-06 1.5486585e-06
000020 ff 4e e0 36 35 3d d4 36 e3 73 27 b6
       6.6849166e-06 6.325218e-06 -2.4952394e-06

tcn_layers.0.tcnblock.network.0.net.0.weight_g f4 [11, 1, 1]
000000 5c 11 ab 3c c4 a8 81 3d ed 76 9b 3d 88 f1 33 3e
       0.020882301 0.063310176 0.07591043 0.17572606
000010 4f 60 aa 3d f3 92 73 3e ca 29 23 3e cc 87 93 3d
       0.08319151 0.23786525 0.1593391 0.072036356
000020 b8 4e 24 3e 48 d0 6b 3e ef d4 7d 3d
       0.16045654 0.23028672 0.061970647

tcn_layers.0.tcnblock.network.0.net.0.weight_v f4 [11, 11, 4]
000000 4a ec 11 b7 de b2 fc b6 42 32 13 b7 b7 40 0a b7
       -8.697689e-06 -7.531008e-06 -8.773584e-06 -8.240509e-06
000010 81 35 2f b8 6e b0 30 b8 94 85 32 b8 07 b9 33 b8
       -4.177308e-05 -4.2125983e-05 -4.256291e-05 -4.2849246e-05
000020 bc f3 c5 b7 03 eb c7 b7 30 a3 ca b7 c6 63 cb b7
       -2.3597728e-05 -2.3832084e-05 -2.4156267e-05 -2.4245946e-05
000030 0b 6f 84 b7 dd 2c 84 b7 07 a6 84 b7 12 a0 84 b7
       -1.5787335e-05 -1.5756517e-05 -1.5812939e-05 -1.5810165e-05
000040 b5 b6 a2 b6 22 22 90 b6 02 f6 b1 b6 5e 3a b6 b6
       -4.849246e-06 -4.295508e-06 -5.30365e-06 -5.4308175e-06
000050 31 1f 1c b8 17 06 1d b8 79 3d 1e b8 e5 1a 1f b8
       -3.7222348e-05 -3.743739e-05 -3.7727386e-05 -3.79336e-05
000060 aa e8 d3 b7 5e 9c d7 b7 e0 d8 da b7 db 76 dc b7
       -2.5261503e-05 -2.5702811e-05 -2.6088615e-05 -2.628139e-05
000070 e8 8a 76 b7 ad ab 75 b7 d8 2c 77 b7 0e ad 76 b7
       -1.4695084e-05 -1.4643109e-05 -1.4732788e-05 -1.4703035e-05
000080 6c 90 a4 b7 a2 0c a6 b7 b7 12 a7 b7 dd f3 a4 b7
       -1.9617575e-05 -1.9794625e-05 -1.9916666e-05 -1.9663881e-05
000090 86 c6 de b6 c0 bd ef b6 3c 04 0a b7 08 3b 02 b7
       -6.6392267e-06 -7.144845e-06 -8.226427e-06 -7.762348e-06
0000a0 a6 3c c6 b7 6f 32 c8 b7 5b eb ca b7 83 a3 cb b7
       -2.3631681e-05 -2.3865343e-05 -2.4189872e-05 -2.4275627e-05
0000b0 b8 e2 77 b7 0e 18 77 b7 ed 05 74 b7 12 3a 6f b7
       -1.4775134e-05 -1.4727948e-05 -1.4544913e-05 -1.4259031e-05
0000c0 49 28 fc b8 6a f7 fc b8 49 67 fe b8 d8 5e ff b8
       -0.000120238 -0.00012062381 -0.00012130902 -0.000121770136
0000d0 ac 26 89 b8 c9 a5 8a b8 dc 94 8b b8 d3 95 8c b8
       -6.539872e-05 -6.611233e-05 -6.655764e-05 -6.703627e-05
0000e0 a6 4a 66 b7 8b 33 5e b7 73 4d 5d b7 cb dc 5d b7
       -1.3726449e-05 -1.3244232e-05 -1.3190659e-05 -1.3224034e-05
0000f0 5e 26 ab b7 b8 b2 ae b7 d5 d6 b1 b7 cd ca b5 b7
       -2.0402655e-05 -2.0825639e-05 -2.1200083e-05 -2.1671318e-05
000100 78 21 e3 b8 6d 1c e5 b8 76 fe e6 b8 3c 1b e8 b8
       -0.000108304375 -0.00010924866 -0.00011014652 -0.00011067695
000110 94 58 cb b8 05 ca cc b8 40 a5 ce b8 65 04 cf b8
       -9.696293e-05 -9.765107e-05 -9.853626e-05 -9.871348e-05
000120 89 a6 58 b8 2f 4b 5b b8 db b3 5d b8 2e 49 60 b8
       -5.165351e-05 -5.228369e-05 -5.285801e-05 -5.3473916e-05
000130 b9 1f 3d b8 ec 29 3c b8 64 a0 3c b8 66 7c 3a b8
       -4.5090655e-05 -4.4861736e-05 -4.497207e-05 -4.446171e-05
000140 a9 ea 53 b8 32 0c 54 b8 f2 95 56 b8 8a 2c 57 b8
       -5.0524864e-05 -5.0556097e-05 -5.1161223e-05 -5.1301475e-05
000150 ab 65 89 b8 f4 e4 8a b8 63 d3 8b b8 09 d4 8c b8
       -6.551606e-05 -6.6229986e-05 -6.66741e-05 -6.715215e-05
000160 d4 44 c5 b7 db fd c4 b7 6d 3e c6 b7 70 b7 c1 b7
       -2.351628e-05 -2.3483231e-05 -2.3632509e-05 -2.3092813e-05
000170 f1 1a 0c b9 d6 63 0d b9 cf f2 0e b9 b3 ca 0f b9
       -0.00013361477 -0.00013484 -0.00013632629 -0.00013713054
000180 ab 3b b7 b8 25 8c b8 b8 6b d2 b9 b8 c9 1e bb b8
       -8.737234e-05 -8.799908e-05 -8.860681e-05 -8.922589e-05
000190 76 d1 b4 b7 0a c1 ba b7 75 61 c1 b7 d3 82 c7 b7
       -2.155521e-05 -2.2262819e-05 -2.3052775e-05 -2.3783568e-05
0001a0 23 c0 f5 b7 7d d6 f8 b7 ca 4e fc b7 67 1c 00 b8
       -2.9295747e-05 -2.9663783e-05 -3.007743e-05 -3.054403e-05
0001b0 ea a9 19 b9 e2 97 1a b9 52 68 1b b9 94 38 1c b9
       -0.00014654515 -0.00014743165 -0.00014820814 -0.00014898396
0001c0 8d c6 c7 b8 51 f6 c9 b8 67 fd ca b8 59 25 cb b8
       -9.5260424e-05 -9.630307e-05 -9.6793105e-05 -9.686751e-05
0001d0 b2 d5 90 b8 f6 96 91 b8 ea 73 92 b8 00 38 93 b8
       -6.906259e-05 -6.9422575e-05 -6.983413e-05 -7.019937e-05
0001e0 66 c1 fb b7 a9 f5 f6 b7 d3 fe f0 b7 e8 a4 e8 b7
       -3.001159e-05 -2.943988e-05 -2.8728891e-05 -2.7733346e-05
0001f0 54 2b 43 b8 c6 a1 45 b8 43 72 46 b8 e1 c3 45 b8
       -4.6531975e-05 -4.7119123e-05 -4.7313293e-05 -4.7150887e-05
000200 99 85 b7 b8 cf d7 b8 b8 c3 1f ba b8 77 6b bb b8
       -8.7510045e-05 -8.814001e-05 -8.875087e-05 -8.936872e-05
000210 62 bb c2 b7 c6 e3 d0 b7 a4 78 cf b7 25 13 d4 b7
       -2.321386e-05 -2.4901597e-05 -2.47325e-05 -2.5281284e-05
000220 10 3a e9 b9 03 3f ec b9 13 4c ef b9 46 d0 f1 b9
       -0.00044484483 -0.00045060375 -0.00045642312 -0.00046122278
000230 76 8c 41 b9 88 05 43 b9 2c 4d 43 b9 57 70 44 b9
       -0.0001845824 -0.0001859871 -0.00018625398 -0.00018733866
000240 5f be 31 b7 ec a8 3b b7 81 91 40 b7 68 2f 41 b7
       -1.0594346e-05 -1.1185399e-05 -1.147797e-05 -1.1514734e-05
000250 59 3f 58 b8 f4 4c 5e b8 53 20 5f b8 ed a8 65 b8
       -5.155741e-05 -5.3000593e-05 -5.3197447e-05 -5.475518e-05
000260 d8 97 16 ba c4 d8 17 ba 80 27 18 ba 83 ef 18 ba
       -0.00057446724 -0.00057924935 -0.0005804226 -0.000583403
000270 f5 1f 1e b9 2f 81 22 b9 e8 da 26 b9 c7 e9 29 b9
       -0.00015079959 -0.00015497649 -0.00015912543 -0.00016204185
000280 39 22 09 b8 5a af 07 b8 16 4e 01 b8 f8 cf fc b7
       -3.2695218e-05 -3.2349817e-05 -3.082872e-05 -3.0137584e-05
000290 f5 b4 7a 39 81 de 80 39 37 85 83 39 21 a9 86 39
       0.0002390927 0.0002457984 0.0002508552 0.00025684483
0002a0 86 22 0a 39 23 15 0c 39 fd 08 0d 39 32 eb 0e 39
       0.00013173567 0.00013359314 0.00013450156 0.00013629792
0002b0 b0 0b 42 b9 4d 86 43 b9 fd cf 43 b9 79 f4 44 b9
       -0.00018505636 -0.0001864668 -0.00018674131 -0.0001878309
0002c0 9b cc a9 b7 1c 27 ac b7 f6 50 ac b7 89 c6 a9 b7
       -2.0241647e-05 -2.052221e-05 -2.0541698e-05 -2.023882e-05
0002d0 4a 3e 20 b9 b2 68 21 b9 8b 16 22 b9 af 65 22 b9
       -0.00015281994 -0.00015393159 -0.00015457922 -0.00015487404
0002e0 3f 6c c6 b8 86 53 c7 b8 68 c7 c8 b8 68 d5 c9 b8
       -9.461538e-05 -9.504617e-05 -9.5738855e-05 -9.624177e-05
0002f0 1d ca 8a b7 4d ee 91 b7 0c 6f 99 b7 d2 ac 9a b7
       -1.6544998e-05 -1.7396314e-05 -1.8290732e-05 -1.8438706e-05
000300 bf 3c d4 b7 f7 94 d7 b7 dc 6f d7 b7 df 90 d9 b7
       -2.5300656e-05 -2.5699364e-05 -2.5682086e-05 -2.5935877e-05
000310 ac a2 27 b9 71 ee 28 b9 5d ec 29 b9 83 c2 2a b9
       -0.00015986961 -0.00016110555 -0.00016205148 -0.00016284925
000320 10 77 ea b8 6b 5a ec b8 27 ec ed b8 3a b9 ee b8
       -0.000111801666 -0.000112701986 -0.000113450275 -0.000113832255
000330 85 c9 92 b8 0d 93 93 b8 15 8b 94 b8 3b 74 95 b8
       -6.9993584e-05 -7.0368966e-05 -7.083096e-05 -7.126523e-05
000340 cc 22 30 b8 21 90 2a b8 c6 c0 25 b8 8e 35 26 b8
       -4.1994077e-05 -4.066539e-05 -3.95186e-05 -3.962736e-05
000350 c1 fd 4d b8 62 ca 4e b8 a8 e1 4e b8 94 7e 4f b8
       -4.9112135e-05 -4.930271e-05 -4.9324386e-05 -4.947053e-05
000360 6a b0 c6 b8 83 98 c7 b8 0c 0f c9 b8 59 1f ca b8
       -9.4742354e-05 -9.517467e-05 -9.5872296e-05 -9.6379496e-05
000370 d2 eb 53 b8 00 9a 54 b8 85 64 56 b8 c6 5f 58 b8
       -5.0525945e-05 -5.0688162e-05 -5.1115192e-05 -5.158761e-05
000380 36 cf d7 b9 62 b6 d9 b9 e6 3b db b9 cb a5 dc b9
       -0.0004116238 -0.0004152535 -0.00041815563 -0.00042085195
000390 52 cd a1 b9 dc d3 a2 b9 b0 ce a3 b9 0e c2 a4 b9
       -0.00030861289 -0.00031056895 -0.00031243777 -0.000314251
0003a0 f8 2a 9d b7 e8 7c a9 b7 29 51 b4 b7 65 1f be b7
       -1.8735867e-05 -2.0204534e-05 -2.1495465e-05 -2.2664384e-05
0003b0 fb 47 ea b8 00 dd ea b8 64 8d ed b8 f1 28 ef b8
       -0.00011171397 -0.00011199154 -0.00011327377 -0.00011404034
0003c0 fc 66 01 ba 73 cb 01 ba 46 5b 02 ba c4 eb 02 ba
       -0.00049363053 -0.0004951276 -0.0004972707 -0.0004994238
0003d0 d2 2d a1 b9 09 d1 a2 b9 46 f2 a3 b9 b1 6e a4 b9
       -0.00030742452 -0.0003105479 -0.0003127029 -0.0003136299
0003e0 09 2c 8a b9 75 f8 8a b9 ee d5 8b b9 ab 96 8c b9
       -0.0002635422 -0.00026506526 -0.00026671536 -0.00026815137
0003f0 30 a2 8e b9 53 f9 8e b9 11 c3 8d b9 6f ab 8c b9
       -0.0002720519 -0.00027270112 -0.00027038952 -0.0002683061

tcn_layers.0.tcnblock.network.0.net.4.bias f4 [11]
000000 13 f0 a6 3a d5 f0 9c 39 0f 2a 3f b5 b9 19 1e 37
       0.0012736343 0.00029934073 -7.121425e-07 9.423523e-06
000010 25 29 34 3d a9 cc 3a b5 27 7d 57 38 ed 1b 31 36
       0.04398455 -6.958822e-07 5.137655e-05 2.639131e-06
000020 3c 08 1f b5 2a b3 16 b5 60 3f 1c b6
       -5.92441e-07 -5.614007e-07 -2.32827e-06

tcn_layers.0.tcnblock.network.0.net.4.weight_g f4 [11, 1, 1]
000000 99 15 39 3e f5 3f c8 3d 92 e5 f0 3d 6c 55 6e 3e
       0.18074645 0.09777824 0.11762537 0.23274773
000010 f5 c6 66 3e fb eb 87 3d 9c 1a 5f 3e d8 db 5a 3d
       0.22536834 0.066368066 0.21787494 0.053432316
000020 a4 46 a4 3d dd a0 d8 3d 08 73 1e 3e
       0.08021286 0.10577557 0.15473568

tcn_layers.0.tcnblock.network.0.net.4.weight_v f4 [11, 11, 4]
000000 ca 7b e7 37 e8 8a e0 37 b2 79 f1 37 af 1e f1 37
       2.759499e-05 2.6767564e-05 2.8786108e-05 2.8743727e-05
000010 99 25 c7 38 2a 16 ce 38 94 1b d3 38 5d 62 c7 38
       9.4960626e-05 9.826974e-05 0.00010066401 9.507381e-05
000020 9a 7a e6 38 b5 88 e7 38 a4 96 e2 38 f0 e6 dd 38
       0.00010990091 0.00011040402 0.00010804579 0.00010581117
000030 4e 86 fb 38 ff 7d f2 38 e6 dc fb 38 0e ca f7 38
       0.00011993629 0.00011562928 0.00012009758 0.000118155134
000040 b8 95 f3 38 4e 3b fc 38 b8 0f f0 38 c6 a0 f8 38
       0.0001161503 0.00012027343 0.0001144702 0.00011855508
000050 22 c7 91 39 98 90 92 39 52 4d 91 39 c3 ba 91 39
       0.0002780492 0.0002795502 0.00027714163 0.00027795703
000060 32 7f 39 39 84 ca 3a 39 06 f3 3c 39 cb 01 36 39
       0.00017690359 0.00017813785 0.0001801961 0.0001735754
000070 72 b8 c3 38 18 35 bd 38 bb af c0 38 ba 33 cb 38
       9.33268e-05 9.022112e-05 9.188006e-05 9.689429e-05
000080 b1 35 3b 39 4a 52 3e 39 18 fc 37 39 cb dd 43 39
       0.00017853711 0.00018150467 0.00017546152 0.00018679273
000090 21 e5 fb b6 8b ad 13 b7 2a be 2a b7 ef a5 22 b7
       -7.507057e-06 -8.802289e-06 -1.0177066e-05 -9.694587e-06
0000a0 90 a1 b8 38 57 a3 bd 38 4b 67 bb 38 83 4c c2 38
       8.803897e-05 9.042647e-05 8.936095e-05 9.264892e-05
0000b0 95 80 78 b6 70 53 71 b6 e2 a5 52 b6 b7 6c 2e b6
       -3.7029724e-06 -3.5960365e-06 -3.1388995e-06 -2.59913e-06
0000c0 93 49 c2 36 1d 2f dd 36 08 3c ee 36 d1 77 0a 37
       5.7902157e-06 6.591798e-06 7.0999413e-06 8.253338e-06
0000d0 d5 6b 42 b7 1f fa 1c b7 57 c6 e0 b6 dd a2 03 b7
       -1.1588408e-05 -9.35656e-06 -6.69881e-06 -7.846128e-06
0000e0 68 c6 57 b9 1b ef 54 b9 1e d7 52 b9 9a 50 5a b9
       -0.0002057791 -0.00020306969 -0.00020107298 -0.00020820127
0000f0 ee 7c f0 b5 50 a2 1c b5 6f cc b9 33 68 f7 01 b6
       -1.7917753e-06 -5.8350724e-07 8.65192e-08 -1.9366507e-06
000100 8d c2 99 37 cc 58 a9 37 d3 0f a4 37 ac c7 83 37
       1.8329616e-05 2.018772e-05 1.9557692e-05 1.5709396e-05
000110 d2 15 d9 36 da 12 dd 36 b7 aa 9d 36 44 b9 70 36
       6.469644e-06 6.588508e-06 4.6988384e-06 3.5870626e-06
000120 94 8f 6d b6 ea b1 3f b5 ce 15 fd b4 21 92 1d 34
       -3.5399325e-06 -7.1411944e-07 -4.7140787e-07 1.4674926e-07
000130 7f 49 ef 36 6f 12 13 37 9f 0d d9 36 8e 8e 9c 36
       7.131311e-06 8.766175e-06 6.4686897e-06 4.665758e-06
000140 c5 b0 2d 3a 2c 36 2e 3a 7a 05 33 3a 36 70 38 3a
       0.0006625767 0.00066456455 0.0006829124 0.00070357637
000150 97 f2 6d b6 81 84 e6 b5 bb b9 31 35 6c ed c1 b5
       -3.5456958e-06 -1.7174899e-06 6.620791e-07 -1.4448719e-06
000160 68 1f 03 35 59 1c 8f 34 16 dc 1a b4 c7 bb d2 34
       4.8847005e-07 2.665645e-07 -1.4422434e-07 3.9252174e-07
000170 d1 73 94 35 e4 02 65 b3 fc 47 02 34 37 cb f8 33
       1.1060566e-06 -5.3320846e-08 1.2133381e-07 1.15853645e-07
000180 d3 d9 23 b5 fc 2d 2e 33 a9 20 5e b5 a1 39 33 b5
       -6.103921e-07 4.0554355e-08 -8.274897e-07 -6.676656e-07
000190 cd 36 8a 33 84 fc 87 b5 14 7c 6c b4 6a 45 a7 34
       6.436094e-08 -1.0131776e-06 -2.2024352e-07 3.115668e-07
0001a0 4a 23 c0 b2 23 bd c9 b4 07 68 3f b4 c6 bb 56 35
       -2.236779e-08 -3.7576783e-07 -1.7826106e-07 7.999446e-07
0001b0 2a 16 68 33 8f 2c c3 b4 c8 58 f3 b4 ff 78 d4 33
       5.4036867e-08 -3.6354e-07 -4.5326874e-07 9.894028e-08
0001c0 33 9b 18 b3 36 ad a7 33 c9 13 e5 34 17 8f 57 34
       -3.553141e-08 7.8080504e-08 4.266897e-07 2.0075491e-07
0001d0 44 b9 1e 35 6c 0d 63 b4 e1 58 37 b4 96 1f a6 b3
       5.9129184e-07 -2.1145905e-07 -1.7075537e-07 -7.735723e-08
0001e0 87 fb 82 b3 db b3 b6 33 b8 9e b7 b4 1a 75 65 33
       -6.099349e-08 8.507751e-08 -3.420189e-07 5.342472e-08
0001f0 22 6f 6c 34 4a 17 f4 32 8f 1a b1 b4 1c e7 a7 b4
       2.2019643e-07 2.841593e-08 -3.2988143e-07 -3.1274328e-07
000200 ca 04 55 34 44 5e d4 32 d9 24 50 b4 fa 37 16 b3
       1.9838913e-07 2.4722915e-08 -1.9384915e-07 -3.4975507e-08
000210 9f 9f 57 37 f3 54 73 37 3f b8 61 37 a3 25 57 37
       1.2852163e-05 1.45037075e-05 1.3453943e-05 1.2823762e-05
000220 95 0e c5 38 a1 1f ce 38 c8 93 ce 38 ce 8c ce 38
       9.396408e-05 9.828737e-05 9.850372e-05 9.8490724e-05
000230 94 63 05 39 8b 34 f0 38 79 38 f6 38 cd d0 0b 39
       0.00012720964 0.00011453879 0.00011740713 0.00013333857
000240 4a d5 21 39 c2 ce 28 39 31 7a 32 39 c2 c2 43 39
       0.00015433613 0.00016098752 0.00017020923 0.00018669202
000250 62 2b 1c 39 12 06 1d 39 cb 55 0e 39 68 5c 1b 39
       0.0001489348 0.00014974948 0.00013574136 0.00014816376
000260 46 26 f2 39 4c e3 06 3a 35 98 0f 3a b6 4c eb 39
       0.00046186353 0.0005145564 0.00054776977 0.00044879847
000270 0d 7a ae 39 19 52 a4 39 21 d5 b0 39 80 93 a9 39
       0.000332788 0.00031341685 0.0003372813 0.00032344088
000280 a6 1c f8 38 f6 e3 d8 38 bd ab d2 38 9d 1d e8 38
       0.00011830898 0.00010342144 0.00010045569 0.00011068138
000290 a0 c2 bc 39 cb a1 ad 39 f6 3a b3 39 de 44 b8 39
       0.0003600316 0.00033117677 0.0003418547 0.00035146525
0002a0 fa f9 11 b8 e5 8a e9 b7 d9 6d 95 b7 a7 10 40 b8
       -3.4803503e-05 -2.7840442e-05 -1.7813336e-05 -4.5791876e-05
0002b0 2c ef c3 38 a7 06 b3 38 fa 26 b9 38 80 a5 d0 38
       9.342874e-05 8.536624e-05 8.8287474e-05 9.94904e-05
0002c0 a9 31 0d 38 57 6f 0f 38 ea 11 0a 38 21 3d 0b 38
       3.366327e-05 3.419755e-05 3.2918448e-05 3.3197113e-05
0002d0 ca 29 fd 38 a5 cb f3 38 3f 7a f9 38 da f7 fd 38
       0.00012071764 0.00011625075 0.00011896015 0.00012110146
0002e0 f1 72 1a 39 68 d2 11 39 ee 68 11 39 98 57 18 39
       0.00014729403 0.0001390666 0.00013867367 0.00014528481
0002f0 83 07 60 39 4d 4a 67 39 c9 95 63 39 80 8a 68 39
       0.00021365103 0.00022057556 0.00021704206 0.0002217684
000300 f2 28 1d 39 2e 52 20 39 8d 61 1b 39 f4 75 21 39
       0.0001498794 0.00015289403 0.00014818292 0.00015398097
000310 c7 24 c4 39 9e c3 c5 39 95 6a c9 39 68 f4 c8 39
       0.00037411434 0.00037720514 0.00038417117 0.0003832907
000320 4a a1 7c 39 f4 56 84 39 b3 50 82 39 23 07 83 39
       0.00024092678 0.00025241787 0.00024855658 0.00024991584
000330 2d 46 f7 38 3b 00 f3 38 3b 9c f9 38 70 e0 f7 38
       0.00011790949 0.00011587186 0.000119023454 0.000118196825
000340 b0 77 84 39 85 69 84 39 26 08 88 39 66 e8 85 39
       0.00025266176 0.0002525562 0.00025946012 0.00025540887
000350 13 a0 87 b5 f8 3d 46 b6 85 03 8b b6 e6 ab 3e b6
       -1.0104872e-06 -2.954037e-06 -4.1429325e-06 -2.8412264e-06
000360 0f a6 e8 38 2c 1b f4 38 6d 21 e9 38 9a fb f5 38
       0.00011093553 0.00011639888 0.00011116532 0.00011729375
000370 86 b4 02 b5 4f 60 a4 34 bc 0a a0 31 50 d7 e1 b4
       -4.869147e-07 3.0617454e-07 4.6578332e-09 -4.2066176e-07
000380 4f 16 08 b4 5d b8 51 b4 e7 42 01 b6 53 7c ae b4
       -1.2674103e-07 -1.9531713e-07 -1.926144e-06 -3.2500483e-07
000390 a5 4f 24 34 aa 13 a8 b5 43 e8 b7 b5 5f 89 72 35
       1.5302665e-07 -1.2522698e-06 -1.370216e-06 9.0351926e-07
0003a0 3c fb 0e 35 c6 9b 5e 35 e1 84 cc b5 89 7b 4c b5
       5.3264716e-07 8.2928125e-07 -1.5237857e-06 -7.617569e-07
0003b0 7f a5 89 34 d9 61 5a b3 d1 db 3a b4 ad 31 a3 35
       2.5638653e-07 -5.0846072e-08 -1.7402569e-07 1.2158904e-06
0003c0 6d 7d 97 b3 01 36 6d 33 c1 30 58 b4 97 d9 98 33
       -7.0543e-08 5.522998e-08 -2.0134304e-07 7.117631e-08
0003d0 a8 d4 7e 33 0f d6 bc b4 65 6c 2c 35 2c 46 8b 31
       5.9332393e-08 -3.5173477e-07 6.423273e-07 4.05341e-09
0003e0 50 34 f1 b4 e8 9f 22 b5 85 00 ff b4 9b d8 07 b5
       -4.492781e-07 -6.0582397e-07 -4.749783e-07 -5.060662e-07
0003f0 d5 c8 ad 33 39 d3 bc 33 34 39 af b4 38 7d 44 b4
       8.0924714e-08 8.7928534e-08 -3.263791e-07 -1.8299477e-07

tcn_layers.0.tcnblock.network.1.conv1.bias f4 [88]
000000 6b 6e 5a b6 e2 2f a5 35 e1 e7 03 b6 89 f4 01 37
       -3.2548803e-06 1.2307394e-06 -1.9655492e-06 7.745934e-06
000010 3d de cb b4 94 2c c9 b5 c4 3d 9a b5 d2 96 f8 35
       -3.7973396e-07 -1.4988641e-06 -1.149187e-06 1.8521334e-06
000020 f8 db 4e b6 5f 61 37 35 dd 31 10 b6 21 9d 72 b6
       -3.082443e-06 6.8314506e-07 -2.1486696e-06 -3.6152271e-06
000030 31 5a 1e b6 4d 6e d6 35 a9 0c be b5 7e 27 ae b6
       -2.3596333e-06 1.5976344e-06 -1.4159788e-06 -5.1902016e-06
000040 e5 f5 4e b5 e6 65 bd b6 a2 28 1c 36 e2 87 2c b6
       -7.7098804e-07 -5.6445015e-06 2.3269463e-06 -2.5709091e-06
000050 d1 7d af b4 7c c1 9a 36 29 8e 35 b5 dd 40 11 b6
       -3.2687834e-07 4.612082e-06 -6.7634625e-07 -2.164444e-06
000060 e5 b3 13 b6 04 6d 51 b5 b2 67 13 b4 bd a2 11 b6
       -2.200942e-06 -7.8017206e-07 -1.3728166e-07 -2.170141e-06
000070 a5 1b 9c b5 00 6a 26 36 3c f3 a4 b6 1f bb 70 b6
       -1.1630951e-06 2.4797628e-06 -4.915897e-06 -3.5871706e-06
000080 fe e4 5a b5 bb fb a6 b6 35 4e c7 b6 bb d3 91 34
       -8.1544556e-07 -4.976491e-06 -5.9397667e-06 2.716241e-07
000090 e6 e9 57 b6 f3 4b 0d b6 01 63 bc b5 8f 4e a1 34
       -3.2173643e-06 -2.1054846e-06 -1.4035905e-06 3.0045746e-07
0000a0 f6 3b 4e b6 a7 72 26 b6 90 0a 18 b7 f0 58 e7 35
       -3.0731294e-06 -2.4802664e-06 -9.062365e-06 1.7236725e-06
0000b0 14 7c 81 b4 63 1e aa 36 a4 db 29 35 71 12 0d b6
       -2.41184e-07 5.0699323e-06 6.3277025e-07 -2.1021372e-06
0000c0 2c a0 97 b5 3a 17 15 b6 b5 1b 3f b6 54 23 1f b6
       -1.1296993e-06 -2.221625e-06 -2.8477345e-06 -2.371341e-06
0000d0 c4 6f cc 35 d3 ca 8b b6 6a dc 18 b7 83 b6 05 35
       1.5231712e-06 -4.1661347e-06 -9.111225e-06 4.981195e-07
0000e0 c6 06 b4 b6 a8 2c 7a b6 41 10 60 b6 60 cc 30 36
       -5.3652066e-06 -3.7278896e-06 -3.3388062e-06 2.6345006e-06
0000f0 13 20 a0 b5 07 b6 df b6 31 c1 ae b4 ab 81 c4 35
       -1.1930264e-06 -6.6671087e-06 -3.255059e-07 1.4640876e-06
000100 bd 3c aa b4 f0 10 a8 b6 03 1a 00 b6 d1 e8 9a b6
       -3.170916e-07 -5.008762e-06 -1.9088627e-06 -4.616661e-06
000110 16 48 c3 b6 ff d9 82 b6 2b e7 62 b6 c1 95 3e b6
       -5.819845e-06 -3.89968e-06 -3.3811182e-06 -2.8399375e-06
000120 bb b9 45 b5 70 60 cb 34 f5 2a 10 b6 69 87 1d 36
       -7.365849e-07 3.7881864e-07 -2.1482676e-06 2.3473642e-06
000130 b9 9e 04 b7 e1 54 a3 b5 e7 d6 8c 35 23 2e 8b b6
       -7.904769e-06 -1.2169149e-06 1.0493358e-06 -4.147894e-06
000140 f7 06 77 b4 91 c6 f9 b5 2f 73 20 35 48 6c ef b5
       -2.3006201e-07 -1.8609736e-06 5.977226e-07 -1.7838402e-06
000150 1a fc 14 b6 c1 ec 95 b6 c5 91 04 34 4b 72 e2 b4
       -2.220046e-06 -4.468108e-06 1.2346489e-07 -4.217894e-07

tcn_layers.0.tcnblock.network.1.conv1.weight_g f4 [88, 1, 1]
000000 5e cf f4 3c 2f a7 bc 3c ce 5e 93 3d 36 e2 10 3e
       0.029884037 0.023028938 0.07195817 0.14148793
000010 48 ab dc 3d be 03 d3 3b 32 22 77 3d 5d 7f 7c 3d
       0.10774857 0.006439655 0.060335346 0.0616449
000020 29 e1 b6 3d e4 ad 0d 3e 20 a2 69 3d 22 2a c7 3d
       0.08929665 0.13835865 0.05703938 0.09724833
000030 b9 68 f6 3d 9e 5b 85 3d a3 4b 4b 3d ce 54 75 3d
       0.12031693 0.06511615 0.04963268 0.05989533
000040 d3 75 c4 3d 16 99 80 3d cc c0 a0 3c 06 06 84 3c
       0.09592786 0.06279199 0.019623183 0.016116153
000050 a0 95 08 b4 a8 a0 08 3e 9c c3 4f 3d de f1 d3 3d
       -1.272042e-07 0.13342535 0.050723657 0.10348867
000060 16 38 07 3c 55 1b 78 3d 28 dc 8f 3c 54 f7 3b 3d
       0.008253118 0.06057294 0.017561033 0.045890167
000070 94 ca 0a 3c fb 24 d1 b5 9e 1d a4 3d 56 62 6f 3d
       0.00847115 -1.5582476e-06 0.080134615 0.05844339
000080 83 7a 3a 3d 6d ee 77 3d 10 ed fa 3d 67 54 b1 3d
       0.045526993 0.060530115 0.12252247 0.086586766
000090 dd 74 d6 3d c1 dd f2 3d 38 c4 3c 3d bc 35 ff 3c
       0.10471509 0.118587025 0.046085566 0.031153552
0000a0 7a 72 46 3d 10 8a e6 3d 67 42 9b 3d 49 f6 b9 b3
       0.048449017 0.11256802 0.075810246 -8.659533e-08
0000b0 20 4e 10 3b 35 07 ee 3d d8 fa 48 3d 24 13 90 3d
       0.0022019222 0.116224684 0.04906735 0.07034901
0000c0 8d 5b 66 3d 0c c5 14 3d 79 ee d8 3d 28 6f 04 3e
       0.056239653 0.03632073 0.1059236 0.12933028
0000d0 f1 da 86 3d 67 ed 9d 3d 09 08 5e 3d da 13 40 3d
       0.065847285 0.077112965 0.05420688 0.046893932
0000e0 ef 63 40 3d 8e 8b 71 3d 9d 0a bd 3d 60 03 b2 3d
       0.046970304 0.05897098 0.0923054 0.0869205
0000f0 0b f4 80 3d 3b 32 b1 3d e3 b9 a7 3c 18 ed b4 3d
       0.062965475 0.08652159 0.02047438 0.088342845
000100 55 eb 09 3d 4a 56 b1 3d b2 0e 27 3d eb a3 39 3d
       0.033671696 0.086590365 0.0407855 0.04532234
000110 3d f2 59 3d 6d 49 8c 3d b6 04 83 3d ed 05 8d 3d
       0.053209532 0.06849942 0.06397383 0.06885896
000120 69 fc 3d 3d b7 6b 90 3c 68 32 b6 3c e0 d1 c3 3c
       0.046383295 0.017629487 0.022240832 0.023903787
000130 26 f5 7b 3d da a2 4f 3d 01 da cf 3d a0 64 a7 3d
       0.06151309 0.050692417 0.10149003 0.081734896
000140 0f e9 34 3c 67 33 81 3d 5a 62 0a 35 84 97 22 3d
       0.011041894 0.06308632 5.1552126e-07 0.039695278
000150 4b d7 a3 3d 3e 1f 69 3d 2b 19 0e 3e 7c bf 71 3c
       0.08000048 0.05691456 0.13876788 0.014755126

tcn_layers.0.tcnblock.network.1.conv1.weight_v f4 [88, 11, 4]
000000 74 5f 88 b7 10 e2 97 b7 a1 68 90 b7 a2 85 90 b7
       -1.6256912e-05 -1.8105871e-05 -1.721486e-05 -1.7228365e-05
000010 d7 6c af 38 80 46 b5 38 df 19 ba 38 0d 82 bf 38
       8.364923e-05 8.643884e-05 8.87399e-05 9.1318136e-05
000020 25 26 1e b6 2e 3d 89 b5 62 b2 e4 b2 b1 5f f0 35
       -2.3566038e-06 -1.0225101e-06 -2.6623812e-08 1.7909243e-06
000030 a2 1b 69 b8 9d 27 72 b8 c0 0e 7a b8 37 92 80 b8
       -5.5577264e-05 -5.773419e-05 -5.961838e-05 -6.13075e-05
000040 4d b8 49 b4 50 36 39 b6 d3 65 44 b6 0b b3 db b5
       -1.8786632e-07 -2.7598762e-06 -2.9265545e-06 -1.636888e-06
000050 71 32 97 b5 16 41 ba 35 3f ac 9b b5 44 2b 23 b6
       -1.1265057e-06 1.3877022e-06 -1.159853e-06 -2.4314077e-06
000060 81 1c 9c 38 41 69 a4 38 3c a2 ab 38 53 85 b0 38
       7.443969e-05 7.8397345e-05 8.184134e-05 8.4171676e-05
000070 fd 9d f3 32 1b 2b 1b 36 6f c3 b2 33 0d 57 16 b6
       2.8360768e-08 2.312189e-06 8.32432e-08 -2.2402412e-06
000080 e8 68 ad b7 0e 49 b1 b7 0e a4 b7 b7 ec 52 c0 b7
       -2.0672058e-05 -2.1134063e-05 -2.1891694e-05 -2.2926797e-05
000090 37 59 be b7 e8 03 c9 b7 ad 5d cc b7 ec 6e d1 b7
       -2.2691309e-05 -2.3962886e-05 -2.4362316e-05 -2.4966394e-05
0000a0 2c e1 ca 34 0c a1 a8 b5 dc b7 d6 b5 c0 90 0a b5
       3.7789266e-07 -1.2563846e-06 -1.5997753e-06 -5.1619645e-07
0000b0 90 f5 53 35 a4 64 48 b6 f4 43 aa b5 3d 8d 84 b6
       7.8960966e-07 -2.9860903e-06 -1.2685764e-06 -3.950349e-06
0000c0 54 9e 97 38 c4 f9 9e 38 85 bd a4 38 45 3d aa 38
       7.229732e-05 7.5805496e-05 7.85543e-05 8.117644e-05
0000d0 4f 43 97 b4 ec 78 a3 b4 34 72 71 35 13 3c b1 35
       -2.8174915e-07 -3.0449098e-07 8.9945684e-07 1.3205012e-06
0000e0 a9 a7 2f b8 a3 2b 38 b8 7f f2 3f b8 72 8a 48 b8
       -4.1879397e-05 -4.390966e-05 -4.576379e-05 -4.7812653e-05
0000f0 4c b5 14 b6 91 2c 09 36 91 b0 a6 34 c4 f0 27 b6
       -2.2159247e-06 2.0440532e-06 3.1048378e-07 -2.5025083e-06
000100 66 6a 08 b6 0d 87 71 b5 af 45 cd b5 96 fd e3 b4
       -2.0327511e-06 -8.997602e-07 -1.5293971e-06 -4.2466553e-07
000110 4c 75 84 38 27 8c 89 38 45 38 8e 38 d4 db 92 38
       6.316099e-05 6.5587745e-05 6.781569e-05 7.002769e-05
000120 29 57 a3 b5 30 50 80 35 1e 30 9b 35 3d a3 a5 35
       -1.2169813e-06 9.560081e-07 1.1562404e-06 1.2340967e-06
000130 3f 79 5c b7 82 e0 6f b7 dc 66 83 b7 6b 07 8c b7
       -1.3141252e-05 -1.4297782e-05 -1.5664315e-05 -1.6692755e-05
000140 5a f6 db b6 3b 62 eb b6 ac 2b 0a b7 de 85 17 b7
       -6.5553877e-06 -7.0149813e-06 -8.235609e-06 -9.03147e-06
000150 81 d0 2c 35 ea 43 9b 35 6e 60 98 33 f4 e8 9a b4
       6.4378406e-07 1.1568166e-06 7.095592e-08 -2.885423e-07
000160 74 00 62 b7 73 4d 35 b7 d4 a2 2a b7 fd 16 0e b7
       -1.3470755e-05 -1.0806473e-05 -1.0170701e-05 -8.469212e-06
000170 d4 fc 5f 39 6b 4e 66 39 39 35 6e 39 e6 72 74 39
       0.00021361123 0.00021963722 0.00022717276 0.00023312456
000180 24 71 54 b7 4e 93 53 35 7c 72 53 35 67 30 ce b5
       -1.2662527e-05 7.881798e-07 7.877022e-07 -1.5362283e-06
000190 c1 ea f8 b8 ce b5 ff b8 fe 28 05 b9 42 5a 09 b9
       -0.00011869288 -0.00012193211 -0.00012699139 -0.00013098962
0001a0 e9 a0 ad 36 a6 a7 f1 36 1d 57 a4 35 a2 61 af 36
       5.174534e-06 7.2018765e-06 1.2244305e-06 5.2267724e-06
0001b0 da 63 54 b7 50 c6 56 37 ae 1e 5e 37 e7 d3 54 b7
       -1.2659433e-05 1.2801567e-05 1.3239374e-05 -1.2685522e-05
0001c0 15 13 59 39 24 86 60 39 e7 72 69 39 25 be 72 39
       0.00020701841 0.00021412276 0.00022263416 0.00023149753
0001d0 61 51 7d b5 de 8f 39 35 81 d2 dd 35 82 09 b1 34
       -9.4368266e-07 6.9127225e-07 1.6527048e-06 3.2975737e-07
0001e0 9c 34 dd b7 31 c2 ed b7 9d ba 00 b8 7b 52 0b b8
       -2.6369751e-05 -2.8343029e-05 -3.0691375e-05 -3.3217e-05
0001f0 59 37 61 b8 23 04 6a b8 fd 48 71 b8 83 88 77 b8
       -5.3695727e-05 -5.57938e-05 -5.7526853e-05 -5.9016525e-05
000200 81 43 1a b7 8f 0e 15 b7 06 b2 f2 b6 c4 95 06 b7
       -9.194832e-06 -8.884482e-06 -7.2328867e-06 -8.021892e-06
000210 b1 2b 95 39 85 8c 94 39 ba 86 98 39 1f 15 9e 39
       0.00028452047 0.00028333455 0.00029092078 0.00030151845
000220 5a 2a b4 b9 dd a9 b8 b9 aa d5 bc b9 9c 30 c0 b9
       -0.0003436383 -0.00035221773 -0.00036017346 -0.0003665731
000230 12 7a 41 b4 ee 59 50 b5 f4 fb cb b4 7a 2c 57 35
       -1.8018935e-07 -7.7616903e-07 -3.7995017e-07 8.0158463e-07
000240 3f 96 13 39 46 be 0c 39 38 5a 07 39 74 89 03 39
       0.00014074983 0.00013422323 0.00012908212 0.00012544339
000250 95 be 01 3a 72 87 05 3a ba 82 07 3a 61 44 0b 3a
       0.00049493584 0.000509373 0.0005169321 0.00053126185
000260 90 10 97 b4 52 25 d1 b5 82 45 2b 36 f5 b7 c1 b5
       -2.8137993e-07 -1.5582575e-06 2.5521445e-06 -1.4433159e-06
000270 13 c7 33 b8 ec 99 3c b8 4f 5a 41 b8 c2 f0 41 b8
       -4.2862328e-05 -4.4966044e-05 -4.6098892e-05 -4.623901e-05
000280 dd 00 6a 36 a5 e4 93 36 11 2a 97 36 87 03 d0 35
       3.486922e-06 4.407559e-06 4.505048e-06 1.5498234e-06
000290 da 96 66 36 ed a1 91 b6 75 65 d7 b6 a3 bd d4 b6
       3.4360478e-06 -4.3401874e-06 -6.4193105e-06 -6.340169e-06
0002a0 7f 76 df 38 39 41 e0 38 ee ff de 38 28 8e e4 38
       0.0001065554 0.00010693301 0.000106334555 0.00010898366
0002b0 86 0f a1 37 3d 29 ab 37 99 38 a9 37 4d 19 b1 37
       1.9199924e-05 2.0403992e-05 2.0172725e-05 2.1111826e-05
0002c0 b9 20 78 b6 8c 18 81 b6 37 e9 94 b6 40 23 d0 b6
       -3.6973927e-06 -3.847357e-06 -4.4378935e-06 -6.2029867e-06
0002d0 ab ad b8 39 63 3b bd 39 f9 92 c2 39 87 1f c8 39
       0.00035224608 0.00036093136 0.00037112067 0.00038170462
0002e0 52 30 95 b4 ed 3a 8b b5 1a d6 17 b4 a8 4b 29 36
       -2.778857e-07 -1.0373457e-06 -1.414086e-07 2.5227e-06
0002f0 77 70 37 b9 a4 92 3a b9 5e 24 41 b9 f6 89 46 b9
       -0.00017494136 -0.0001779297 -0.00018419462 -0.00018934146
000300 58 68 40 36 e2 f6 48 36 e2 61 af 36 17 86 da 36
       2.8670966e-06 2.9946027e-06 5.2268015e-06 6.5125164e-06
000310 fe 65 06 b6 00 b5 33 32 03 b4 8b b5 7d c2 90 b4
       -2.0026923e-06 1.0460326e-08 -1.0408697e-06 -2.69636e-07
000320 60 e9 b2 39 4c a1 b7 39 10 b0 be 39 09 bd c4 39
       0.00034124684 0.00035024656 0.000363708 0.00037524875
000330 ba 05 32 35 e4 0c f8 b5 01 d5 06 b5 fb 80 2c b4
       6.63185e-07 -1.8481192e-06 -5.022885e-07 -1.6065671e-07
000340 2c ee cb b7 43 ad fd b7 f7 6d 07 b8 4e 2e 1b b8
       -2.4310393e-05 -3.0240632e-05 -3.228892e-05 -3.6998004e-05
000350 1b 4f 9b b8 e2 a1 a1 b8 6c eb a6 b8 10 80 af b8
       -7.4057105e-05 -7.707231e-05 -7.9593476e-05 -8.368504e-05
000360 38 83 b7 b6 cd 35 9d b6 d0 ad 12 b6 30 34 e4 35
       -5.469101e-06 -4.685228e-06 -2.1856868e-06 1.7002512e-06
000370 d7 45 81 35 b9 f0 8f b5 b2 12 8b 34 1e 06 f1 b5
       9.631575e-07 -1.072439e-06 2.590437e-07 -1.795768e-06
000380 80 58 a3 37 20 18 01 38 c5 75 e8 37 0b bc f4 37
       1.9472325e-05 3.0778465e-05 2.7711396e-05 2.9174631e-05
000390 8d fb a0 b6 f0 b2 b3 b4 01 3b 5d b5 98 b9 cd b6
       -4.797656e-06 -3.3471542e-07 -8.241478e-07 -6.131082e-06
0003a0 df d6 80 b7 7b 50 a3 b6 63 11 90 35 98 80 c0 b7
       -1.5358846e-05 -4.8671477e-06 1.0733896e-06 -2.2948065e-05
0003b0 3f 33 d2 33 ce 8b 3b 33 08 46 89 35 a5 a7 3b 35
       9.7882086e-08 4.3666482e-08 1.0227677e-06 6.9906883e-07
0003c0 12 bd 96 b4 28 ba ff b5 5c 1e 9d b6 cd d9 14 35
       -2.8077244e-07 -1.9053159e-06 -4.682499e-06 5.545124e-07
0003d0 0f d6 cb 36 51 d1 4d b4 b5 2e c4 36 29 ee b8 36
       6.074791e-06 -1.9168262e-07 5.8466926e-06 5.511353e-06
0003e0 1a a0 9b b5 04 b7 99 b4 e9 7a 68 35 bb 23 cf 34
       -1.1594996e-06 -2.8631632e-07 8.660559e-07 3.8582752e-07
0003f0 1c 4a 90 b7 87 b4 96 b7 d8 4b 9a b7 5d 71 b0 b7
       -1.7200648e-05 -1.7965458e-05 -1.8393548e-05 -2.1033624e-05

tcn_layers.0.tcnblock.network.1.conv2.bias f4 [88]
000000 e7 75 e4 b5 95 06 65 35 d5 51 71 3b 04 59 8d 3a
       -1.7021638e-06 8.5318726e-07 0.0036822457 0.0010783975
000010 c7 58 20 b5 45 9a 58 3b 66 12 ad b5 c2 43 db b4
       -5.973383e-07 0.0033050936 -1.2894859e-06 -4.084123e-07
000020 ab cf 01 b7 6b 9e 04 3b be 32 c2 b4 74 b8 5b b6
       -7.737351e-06 0.0020236026 -3.6172236e-07 -3.274091e-06
000030 74 81 6c 37 89 d1 2a 36 0e 81 d2 36 2f 05 94 b4
       1.4096837e-05 2.545394e-06 6.2735116e-06 -2.757092e-07
000040 b8 0d a9 b5 4b 63 84 35 b9 95 0a 36 35 92 3e b5
       -1.2595474e-06 9.863664e-07 2.0650753e-06 -7.0993275e-07
000050 5c 97 07 3b 4f 8d 9c b5 cf e9 8a b5 5f d6 82 b6
       0.0020689582 -1.1664032e-06 -1.0349848e-06 -3.899258e-06
000060 54 bf 15 36 dd 4b d1 35 f4 b2 f6 35 5e d1 fb 3b
       2.2314098e-06 1.5593793e-06 1.838051e-06 0.0076848706
000070 03 0a 4e b6 55 47 17 37 09 ba 28 36 95 52 37 37
       -3.070222e-06 9.01691e-06 2.5142238e-06 1.0926878e-05
000080 5d d9 bb 32 49 61 f0 36 75 79 90 b6 90 51 ba 3a
       2.186851e-08 7.163883e-06 -4.305674e-06 0.0014214981
000090 82 58 48 3b 24 7e 84 36 9f 3e 19 36 07 c6 33 35
       0.0030570333 3.9485913e-06 2.2835227e-06 6.6970864e-07
0000a0 b1 4e c6 b4 40 af c2 35 f9 fd 9b b5 79 c4 df b6
       -3.693763e-07 1.4505131e-06 -1.1622316e-06 -6.6687903e-06
0000b0 b1 94 66 35 d3 d7 06 b5 ab ff e1 b5 63 23 19 38
       8.589805e-07 -5.0232956e-07 -1.6838216e-06 3.6511e-05
0000c0 56 2d 10 b6 31 55 41 35 b9 66 0f 35 d8 c4 a3 36
       -2.148406e-06 7.202207e-07 5.342113e-07 4.880694e-06
0000d0 dc 25 06 36 1e 47 be 34 74 0d c2 b5 ad 32 24 36
       1.9989593e-06 3.5442002e-07 -1.4458042e-06 2.4467402e-06
0000e0 7b 79 08 37 69 75 ae 3b c5 af fc b5 ae e7 6f 36
       8.134516e-06 0.005324055 -1.8826619e-06 3.574863e-06
0000f0 45 70 5e 3d c6 38 25 b6 e8 d1 a8 b5 ce 40 be 36
       0.054306287 -2.4619962e-06 -1.2578066e-06 5.6699855e-06
000100 b5 ba 8b b6 fb ed 09 b6 6e 0a 68 35 35 73 81 b6
       -4.1642584e-06 -2.0553114e-06 8.644191e-07 -3.8579115e-06
000110 fd 31 71 b6 ed 80 01 32 55 8a c2 b5 6f 1d 10 b6
       -3.5940895e-06 7.538103e-09 -1.4494386e-06 -2.1474805e-06
000120 81 88 ea 37 ae eb a1 35 5a 21 24 b5 98 2f 84 37
       2.7958538e-05 1.2064027e-06 -6.1143294e-07 1.5757789e-05
000130 df 6b d1 38 bd 9a 95 35 2f 68 d7 35 71 02 9e 35
       9.985989e-05 1.11464e-06 1.604907e-06 1.1772628e-06
000140 00 3a 6a 36 af 08 99 b5 37 53 5d 35 73 0a c2 36
       3.4902478e-06 -1.1401916e-06 8.245001e-07 5.782867e-06
000150 e1 f8 d5 b6 8a ee 77 b5 fc 6c 03 b4 dc d4 81 b6
       -6.376868e-06 -9.236179e-07 -1.2239974e-07 -3.8692797e-06
