STABLE2_6deg.pt (torch, 678788 bytes, 115 tensors)

tcn_layers.0.tcnblock.network.0.conv1.bias f4 [11]
0	0xb6490116	-2.9951966e-06
1	0xb644a853	-2.9304254e-06
2	0x369f5d6b	4.7494445e-06
3	0x373bd028	1.1194534e-05
4	0xb726d9e5	-9.945104e-06
5	0x3d6b59e1	0.057458762
6	0xb6154ee6	-2.2248655e-06
7	0xb5a79bc6	-1.2487806e-06
8	0xb74e61aa	-1.2301296e-05
9	0x367b698d	3.7463353e-06
10	0x3db03130	0.08603132

tcn_layers.0.tcnblock.network.0.conv1.weight_g f4 [11, 1, 1]
0	0x369a914e	4.6064733e-06
1	0x361a29f1	2.2972201e-06
2	0x36f3babc	7.263703e-06
3	0x37084834	8.123043e-06
4	0xb61c69d2	-2.3307407e-06
5	0x3e0cde7f	0.1375675
6	0x37107cac	8.612096e-06
7	0xb5321be0	-6.635073e-07
8	0xb6080f85	-2.0274613e-06
9	0xb6dbfc0d	-6.556051e-06
10	0x3e38f638	0.18062675

tcn_layers.0.tcnblock.network.0.conv1.weight_v f4 [11, 11, 4]
0	0x3634b248	2.6925863e-06
1	0x3581af78	9.662317e-07
2	0xb659589b	-3.2387095e-06
3	0x36496845	3.0012027e-06
4	0x3693139b	4.3832238e-06
5	0x36b9d2d9	5.5379755e-06
6	0xb7518351	-1.2487945e-05
7	0xb70a8fc1	-8.258911e-06
8	0x36c8c85e	5.9837903e-06
9	0x368c4fcb	4.1816143e-06
10	0xb704dd45	-7.919331e-06
11	0xb7078b90	-8.0791215e-06
12	0x3682fadc	3.903506e-06
13	0xb6c9eff2	-6.0182e-06
14	0xb6c68a0d	-5.916931e-06
15	0xb61354bf	-2.1954036e-06
16	0xb5e95570	-1.7384718e-06
17	0x35a5d265	1.2354691e-06
18	0xb5d82cfa	-1.6106344e-06
19	0x36f9fa66	7.4499285e-06
20	0xb758be0f	-1.2918855e-05
21	0xb66519dd	-3.4138714e-06
22	0x376d13e6	1.4130934e-05
23	0xb7b6f8e7	-2.1811995e-05
24	0xb72edb6b	-1.0422295e-05
25	0xb636b893	-2.722755e-06
26	0xb71a072d	-9.180786e-06
27	0xb61d6f19	-2.345949e-06
28	0xb534666b	-6.7204263e-07
29	0xb68cb1e1	-4.193033e-06
30	0x36067922	2.0038065e-06
31	0xb6df8c49	-6.6622492e-06
32	0x3692654d	4.362932e-06
33	0xb605cda8	-1.9938252e-06
34	0xb605ee0d	-1.9957108e-06
35	0xb66431f7	-3.400373e-06
36	0xb65c7f3e	-3.285662e-06
37	0xb5f98cfa	-1.8592975e-06
38	0x368ec1f1	4.2545075e-06
39	0xb63513bb	-2.6982586e-06
40	0xb6659e20	-3.42157e-06
41	0xb5cb8044	-1.5162009e-06
42	0xb718f210	-9.116266e-06
43	0xb5cb8c6f	-1.516555e-06
44	0x35492463	7.4931285e-07
45	0x35dba544	1.636487e-06
46	0xb48fdf9b	-2.679852e-07
47	0x36a64eb4	4.9563478e-06
48	0xb6928d96	-4.367622e-06
49	0x36fef5ba	7.598396e-06
50	0x363b2f89	2.789284e-06
51	0xb6162595	-2.2373617e-06
52	0x35e4e4c9	1.7053909e-06
53	0xb63a109d	-2.772583e-06
54	0x370df948	8.462295e-06
55	0xb7097a6b	-8.194339e-06
56	0x35425ad5	7.240281e-07
57	0xb675188d	-3.6522135e-06
58	0x36a1d8ed	4.8234274e-06
59	0x371ab9c2	9.222365e-06
60	0xb721bc95	-9.6402555e-06
61	0xb774dc20	-1.4594785e-05
62	0xb677a2f6	-3.6900724e-06
63	0x374b8636	1.2130991e-05
64	0x3612be34	2.1866408e-06
65	0x353a529e	6.9410623e-07
66	0xb775028f	-1.4603734e-05
67	0x36d37dcf	6.302936e-06
68	0x36489fbf	2.9895307e-06
69	0xb4c98617	-3.753673e-07
70	0x373550ab	1.0807223e-05
71	0xb67d3e22	-3.7736104e-06
72	0xb647215f	-2.9672735e-06
73	0x3767ec0a	1.382363e-05
74	0x36bdab7e	5.6526032e-06
75	0xb6f884fe	-7.4064583e-06
76	0x36f6fb48	7.3606243e-06
77	0xb6c97b6a	-6.004634e-06
78	0x361fa5f8	2.3789453e-06
79	0xb62168da	-2.4051901e-06
80	0x3648684b	2.986303e-06
81	0x36aec788	5.2088326e-06
82	0xb67c046e	-3.7553505e-06
83	0xb49702bf	-2.812794e-07
84	0x350bcc28	5.207862e-07
85	0xb6fea0e8	-7.588522e-06
86	0x35fe1988	1.8931905e-06
87	0xb547e953	-7.447281e-07
88	0xb6016d92	-1.9286276e-06
89	0x3605e41f	1.9951328e-06
90	0xb717ca0e	-9.047346e-06
91	0x362b5bf9	2.553452e-06
92	0xb6b9d397	-5.538062e-06
93	0x3418a61b	1.4216532e-07
94	0x32df3bbd	2.5987783e-08
95	0xb5d5f45d	-1.5940856e-06
96	0xb6ba87e2	-5.559051e-06
97	0xb49084a0	-2.6918588e-07
98	0x36aeaf6a	5.206025e-06
99	0x36c63a31	5.907634e-06
100	0xb755b236	-1.2737282e-05
101	0x365e48a5	3.3122863e-06
102	0x36c5c382	5.8938176e-06
103	0xb688cac8	-4.0767227e-06
104	0xb5f370b0	-1.8137707e-06
105	0xb5f8221b	-1.8487366e-06
106	0xb56cbcdb	-8.819167e-07
107	0xb601358d	-1.9253669e-06
108	0xb5de3f4a	-1.6558708e-06
109	0x35b73fea	1.3653164e-06
110	0xb57201e2	-9.0154765e-07
111	0x3635ad84	2.7072101e-06
112	0x3632954d	2.6610971e-06
113	0x359fe9d5	1.1914477e-06
114	0xb66112ef	-3.3538633e-06
115	0xb3570efe	-5.0072224e-08
116	0xb62b5d2e	-2.5535223e-06
117	0xb528d8d5	-6.290041e-07
118	0xb6b4c42f	-5.387257e-06
119	0xb5c3f3e9	-1.4599619e-06
120	0x3587ea55	1.0126483e-06
121	0x351aec20	5.771308e-07
122	0xb5c9d137	-1.5036557e-06
123	0xb3d3f36f	-9.8697335e-08
124	0xb65866fd	-3.2246455e-06
125	0xb5a9cb44	-1.2650639e-06
126	0x32ab9a17	1.9977092e-08
127	0xb6353656	-2.700273e-06
128	0xb6f48820	-7.2876137e-06
129	0xb59b2704	-1.1559755e-06
130	0xb6bcc6bc	-5.6259723e-06
131	0x368e1307	4.234145e-06
132	0x3499563c	2.8561215e-07
133	0x36c7697e	5.942943e-06
134	0x351671c9	5.6044934e-07
135	0x34ddf728	4.1344288e-07
136	0x3638dcf7	2.7546755e-06
137	0xb4e529d6	-4.2685014e-07
138	0xb6976285	-4.51162e-06
139	0xb698587c	-4.540254e-06
140	0xb59651bd	-1.119966e-06
141	0x35a7730a	1.247595e-06
142	0x35862336	9.994026e-07
143	0xb6ca5e59	-6.0310526e-06
144	0x3678372d	3.6986996e-06
145	0xb60e6c31	-2.1222625e-06
146	0xb6d2fadb	-6.287691e-06
147	0x373bad99	1.1186487e-05
148	0xb5e687ae	-1.7175823e-06
149	0xb6e399fa	-6.7830524e-06
150	0x36610d3f	3.3535323e-06
151	0xb62f993e	-2.616623e-06
152	0xb58cefd9	-1.0500618e-06
153	0xb6b77ff2	-5.46872e-06
154	0xb60ea242	-2.1254095e-06
155	0x36af3a9e	5.2222304e-06
156	0xb612bcf0	-2.1865671e-06
157	0xb62472af	-2.450466e-06
158	0x36f81c2b	7.394255e-06
159	0x3527e359	6.254318e-07
160	0xb2264a0b	-9.679307e-09
161	0x36254828	2.4628916e-06
162	0x36546381	3.164838e-06
163	0xb5c2e8e8	-1.4521911e-06
164	0x376df601	1.4183578e-05
165	0xb69bdc23	-4.6449873e-06
166	0xb6c19b15	-5.769902e-06
167	0xb686c18e	-4.016044e-06
168	0xb512c28a	-5.467233e-07
169	0x36f5c832	7.324875e-06
170	0x36dbe286	6.5530794e-06
171	0xb66cfb49	-3.5313008e-06
172	0xb48f2359	-2.6661544e-07
173	0x361a35da	2.2979134e-06
174	0xb719cc50	-9.167081e-06
175	0xb6fdb082	-7.560536e-06
176	0x356abc44	8.7445756e-07
177	0xb5b3465a	-1.3357014e-06
178	0xb65c0b31	-3.278907e-06
179	0xb5185704	-5.6751037e-07
180	0x35f357d5	1.8130473e-06
181	0xb5d73161	-1.603312e-06
182	0x35368ce1	6.800529e-07
183	0xb4c9590f	-3.7503966e-07
184	0x372ab82f	1.0175673e-05
185	0x3455024d	1.9838008e-07
186	0xb696c45a	-4.4932067e-06
187	0xb6814994	-3.853065e-06
188	0xb57080c9	-8.9594374e-07
189	0xb6035b0d	-1.957352e-06
190	0x35e2afd3	1.6889484e-06
191	0xb53ac54f	-6.957752e-07
192	0xb669024a	-3.4721038e-06
193	0x35e65360	1.7160601e-06
194	0x3615db1e	2.2330273e-06
195	0x35e9e29f	1.7425808e-06
196	0x353d029f	7.04118e-07
197	0xb49f38ef	-2.9657483e-07
198	0x3585d733	9.971903e-07
199	0xb5d999b9	-1.6212499e-06
200	0xb599ba6c	-1.1453644e-06
201	0xb4fbc2d7	-4.6894158e-07
202	0x3458c9fb	2.0190048e-07
203	0x363d5eb2	2.8218315e-06
204	0x35ccbc65	1.5254014e-06
205	0xb641356b	-2.8790334e-06
206	0xb684ee9b	-3.961684e-06
207	0xb601c76a	-1.9338572e-06
208	0x35ba770e	1.3892729e-06
209	0xb5529917	-7.845387e-07
210	0xb42d9b63	-1.616841e-07
211	0x358ce5f1	1.0497735e-06
212	0xb66591e8	-3.4208588e-06
213	0xb4525fcb	-1.9592623e-07
214	0xb4d5ec8f	-3.984646e-07
215	0x363a5872	2.7767642e-06
216	0x355b3002	8.165372e-07
217	0x3413e657	1.3774239e-07
218	0x36f15408	7.192142e-06
219	0xb737e089	-1.0959929e-05
220	0xb85d4ac1	-5.2760126e-05
221	0xb849a326	-4.807408e-05
222	0xb81f170a	-3.793001e-05
223	0xb80f1563	-3.4113775e-05
224	0xb9e3675b	-0.0004337382
225	0xb9e17414	-0.0004300183
226	0xb9e02027	-0.00042748565
227	0xb9dfca36	-0.00042684533
228	0xba009bb0	-0.0004906012
229	0xba017349	-0.00049381383
230	0xba027b20	-0.00049774535
231	0xba038210	-0.0005016634
232	0x39c08b42	0.0003672485
233	0x39c64989	0.0003782029
234	0x39cb1ae4	0.00038739212
235	0x39cfaef1	0.00039612458
236	0xb8eff1c6	-0.00011441442
237	0xb8ed82a8	-0.00011325377
238	0xb8f3702a	-0.00011608035
239	0xb8f00aed	-0.00011446127
240	0xba72bb58	-0.0009259484
241	0xba74533a	-0.0009320263
242	0xba76abc1	-0.00094097486
243	0xba78da6d	-0.0009492997
244	0xba5290b1	-0.0008032425
245	0xba5464c1	-0.00081021717
246	0xba568aa6	-0.00081841124
247	0xba594907	-0.0008288775
248	0xb9b18260	-0.00033857208
249	0xb9b3b2ad	-0.00034274664
250	0xb9b63651	-0.00034754214
251	0xb9b84b93	-0.00035151522
252	0xb9b2d149	-0.00034106735
253	0xb9b94cd2	-0.00035343185
254	0xb9c0d892	-0.0003678245
255	0xb9ca1a3d	-0.0003854799

tcn_layers.0.tcnblock.network.0.conv2.bias f4 [11]
0	0x377dc9eb	1.5126988e-05
1	0x376abab7	1.399096e-05
2	0x36e1b1ef	6.7262367e-06
3	0x3e00e4fd	0.12587352
4	0x3dc2a865	0.09504775
5	0x369f6501	4.7503277e-06
6	0xb706b4c8	-8.029114e-06
7	0xb38f570e	-6.6747916e-08
8	0xb652715b	-3.135842e-06
9	0x374a0f1c	1.2043656e-05
10	0xb747b8d8	-1.1904362e-05

tcn_layers.0.tcnblock.network.0.conv2.weight_g f4 [11, 1, 1]
0	0x34424be0	1.8095261e-07
1	0xb6e7504a	-6.8936833e-06
2	0x34085613	1.26973e-07
3	0x3e4ea717	0.20180927
4	0x3e352a85	0.17692001
5	0x3745da6c	1.179297e-05
6	0x37050f56	7.930988e-06
7	0xb5edb0c0	-1.7709317e-06
8	0x3d9254e5	0.071450986
9	0xb48b9181	-2.5996636e-07
10	0xb63942bd	-2.7605995e-06

tcn_layers.0.tcnblock.network.0.conv2.weight_v f4 [11, 11, 4]
0	0xb69bc66a	-4.6424584e-06
1	0x35946294	1.1055549e-06
2	0x368fcff3	4.2859406e-06
3	0x36a2919c	4.8449274e-06
4	0xb6824cb3	-3.883231e-06
5	0xb4e1d1e9	-4.2062246e-07
6	0xb6e206c8	-6.7361143e-06
7	0x369dada5	4.6991795e-06
8	0x36880737	4.0539558e-06
9	0xb6bed5aa	-5.687315e-06
10	0x375a4cfc	1.3011737e-05
11	0xb71f0e0e	-9.480411e-06
12	0x35813367	9.626209e-07
13	0xb4da2048	-4.0629152e-07
14	0xb62082e6	-2.391805e-06
15	0xb696ad5b	-4.4905296e-06
16	0xb68805e7	-4.053803e-06
17	0x3585435c	9.928876e-07
18	0x3627206c	2.4903811e-06
19	0x3640dc01	2.8738289e-06
20	0x36534350	3.1480631e-06
21	0xb6c950eb	-5.999687e-06
22	0x364f9937	3.0934586e-06
23	0xb69274b7	-4.3647265e-06
24	0x36bf2a92	5.6971994e-06
25	0xb589a877	-1.0256325e-06
26	0xb68d85d3	-4.2177066e-06
27	0x32a59d05	1.9279932e-08
28	0x36b66370	5.4355987e-06
29	0x35d75674	1.604391e-06
30	0x3595e731	1.1168651e-06
31	0x35e94d9c	1.738244e-06
32	0x36d36f54	6.3012503e-06
33	0x360239aa	1.9405074e-06
34	0xb5c2b2a7	-1.4506121e-06
35	0xb6aad134	-5.0907493e-06
36	0x366ae878	3.5004032e-06
37	0xb593693a	-1.0982978e-06
38	0x35df6bd3	1.6646176e-06
39	0x36bc65b7	5.614678e-06
40	0x3702b165	7.789907e-06
41	0x36535469	3.1490583e-06
42	0x36c08dec	5.738568e-06
43	0x35e23cb8	1.6855984e-06
44	0xb53f1073	-7.117698e-07
45	0x35bba4e6	1.3980577e-06
46	0xb6911515	-4.323791e-06
47	0xb5a93278	-1.260617e-06
48	0x3669c604	3.4834966e-06
49	0x367c5ce6	3.7605e-06
50	0xb7023e92	-7.763172e-06
51	0xb70de63f	-8.457863e-06
52	0xb6f5837e	-7.3168767e-06
53	0x348bc627	2.6034942e-07
54	0x369a260b	4.5939864e-06
55	0x3683fb2e	3.9333454e-06
56	0x36d80c0b	6.4387036e-06
57	0xb608e607	-2.0399473e-06
58	0xb6a211f8	-4.830068e-06
59	0x3710403e	8.598026e-06
60	0x3541588a	7.2026944e-07
61	0x3596e2e3	1.1241904e-06
62	0xb6f1a26a	-7.201267e-06
63	0xb749c52d	-1.2026442e-05
64	0x369f68a0	4.750749e-06
65	0x378043b4	1.5290316e-05
66	0x370c2d29	8.355165e-06
67	0x35b2179e	1.3268907e-06
68	0x356c58df	8.8046176e-07
69	0xb6ecd5a0	-7.0582173e-06
70	0xb69aa131	-4.608323e-06
71	0xb70629cb	-7.996753e-06
72	0x36e8f1ab	6.9422726e-06
73	0x36919cc5	4.339587e-06
74	0xb68d1b65	-4.2053166e-06
75	0xb6ff252a	-7.6039187e-06
76	0x36231bc0	2.4305045e-06
77	0x35e22fbd	1.6852206e-06
78	0x3741e254	1.1556393e-05
79	0xb7a98de0	-2.0212436e-05
80	0xb7abce85	-2.0480957e-05
81	0x370c1dfe	8.351633e-06
82	0x36e3df93	6.7911546e-06
83	0xb748365c	-1.19335855e-05
84	0x378edc24	1.703023e-05
85	0x36c675be	5.914567e-06
86	0x376f34e0	1.4257821e-05
87	0x35b2f6fe	1.3333918e-06
88	0x370f481d	8.540254e-06
89	0xb706dc09	-8.038253e-06
90	0xb6812a24	-3.8494054e-06
91	0xb68180e3	-3.859504e-06
92	0x3791cbec	1.7380306e-05
93	0x3791e282	1.7390823e-05
94	0x33ab5c52	7.979601e-08
95	0x364e78d9	3.0766735e-06
96	0xb6c35feb	-5.822619e-06
97	0x3789dde0	1.6434991e-05
98	0x359effe7	1.1846395e-06
99	0xb60999fd	-2.0504224e-06
100	0x36b6f559	5.452585e-06
101	0xb6ed4915	-7.0716583e-06
102	0x35e71009	1.7215508e-06
103	0x369c9f4e	4.667708e-06
104	0x35f2aa42	1.8079957e-06
105	0x36c9cc16	6.0140255e-06
106	0x35e36025	1.69408e-06
107	0xb6f9b896	-7.442267e-06
108	0xb75a795e	-1.3022071e-05
109	0xb79cebfd	-1.870654e-05
110	0xb75a5ff4	-1.3016153e-05
111	0x360880d0	2.0340558e-06
112	0x375a19ef	1.2999851e-05
113	0xb7ad91f1	-2.0691166e-05
114	0xb6f12a64	-7.1872946e-06
115	0xb69d3e59	-4.686223e-06
116	0xb74aff92	-1.2099643e-05
117	0x355b9595	8.180153e-07
118	0xb69d166e	-4.681576e-06
119	0x363b05c4	2.7868527e-06
120	0x3661f7d4	3.3671868e-06
121	0x36093d09	2.0450118e-06
122	0x37916759	1.7333472e-05
123	0xb5c900d1	-1.4975905e-06
124	0xb63bd11e	-2.7986894e-06
125	0x36937f60	4.39577e-06
126	0x363787ac	2.7348096e-06
127	0x368bc688	4.165635e-06
128	0x3688ffbb	4.082887e-06
129	0xb79122f2	-1.730162e-05
130	0x37919101	1.735287e-05
131	0x368fd35f	4.286339e-06
132	0xb8a642ee	-7.9279635e-05
133	0xb884436a	-6.306807e-05
134	0x384be319	4.8610473e-05
135	0x35ab2bb2	1.275321e-06
136	0xb4e2cdb0	-4.2245438e-07
137	0x35012c6d	4.8120893e-07
138	0x34ccd418	3.815228e-07
139	0x356666c8	8.5831243e-07
140	0x33e3e666	1.06124205e-07
141	0x358df6ba	1.0577126e-06
142	0xb6285428	-2.5082936e-06
143	0x371bf4af	9.29569e-06
144	0xb796f13b	-1.7993725e-05
145	0xb5449d81	-7.324489e-07
146	0x354abb4a	7.5523405e-07
147	0xb85dda1f	-5.2893647e-05
148	0xb5bfcf2e	-1.4290906e-06
149	0x348b3165	2.5926707e-07
150	0x34eb282f	4.3801398e-07
151	0xb47a21e8	-2.32954e-07
152	0x3aa39f80	0.0012483448
153	0x3aa0ad7d	0.0012258735
154	0x3aa30c39	0.0012439556
155	0x3aa6f264	0.0012737033
156	0xb55f91e2	-8.328626e-07
157	0xb5ceaee8	-1.53991e-06
158	0x35d21304	1.5651754e-06
159	0x347d0047	2.3562562e-07
160	0xb8383d5a	-4.3926157e-05
161	0x38b44dda	8.59757e-05
162	0x35556b06	7.9504423e-07
163	0x37390750	1.1028562e-05
164	0xb48e2d52	-2.6482536e-07
165	0x364ab19e	3.0203732e-06
166	0xb5119751	-5.4236904e-07
167	0x3707eccc	8.101761e-06
168	0xb7252708	-9.843854e-06
169	0x35da60ac	1.6270401e-06
170	0x36312c64	2.6400894e-06
171	0xb6760af1	-3.6663225e-06
172	0x3ae38edd	0.0017361302
173	0x3aeb7285	0.0017963207
174	0x3ae8c9e2	0.0017760361
175	0x3ae6c59c	0.00176065
176	0xb55b8907	-8.178326e-07
177	0x3666df0a	3.4402497e-06
178	0xb68e3652	-4.2382535e-06
179	0x34b8cc17	3.4421166e-07
180	0xb50def37	-5.2874697e-07
181	0xb4c6b17f	-3.700952e-07
182	0xb5ba0086	-1.3858232e-06
183	0x35fc94da	1.8818785e-06
184	0x360e55bd	2.1209555e-06
185	0xb6c33d59	-5.8185947e-06
186	0xb68724a1	-4.0275777e-06
187	0x3605dfd0	1.994882e-06
188	0x353bd796	6.997665e-07
189	0x35f80fa3	1.8481991e-06
190	0x3497280d	2.8155083e-07
191	0x35c012c2	1.4310574e-06
192	0x365b9b86	3.272407e-06
193	0xb4d90d3b	-4.0429026e-07
194	0xb60cdd00	-2.0990265e-06
195	0x353b037a	6.966799e-07
196	0x3a1573e2	0.0005701167
197	0x3a114c7a	0.0005542707
198	0x3a14390b	0.0005654252
199	0x3a11888c	0.0005551658
200	0x35b12cd5	1.3200575e-06
201	0xb6152305	-2.2223114e-06
202	0x357a9cb9	9.336032e-07
203	0x3525a593	6.170823e-07
204	0x3510b683	5.390977e-07
205	0x35e57145	1.7094795e-06
206	0xb50df204	-5.287877e-07
207	0xb62f398b	-2.6110527e-06
208	0xb6075f05	-2.0171876e-06
209	0x35804e22	9.559483e-07
210	0xb54ad1dc	-7.555625e-07
211	0x357ced05	9.4222224e-07
212	0x35a420c6	1.222849e-06
213	0xb650310a	-3.102296e-06
214	0x354ae41d	7.558281e-07
215	0xb592e0be	-1.0943256e-06
216	0x3a4cc629	0.00078115106
217	0x3a4aa79e	0.00077306654
218	0x3a53b521	0.00080760015
219	0x3a53e9ea	0.0008083867
220	0xb71cf346	-9.354966e-06
221	0xb79d1eb5	-1.8730158e-05
222	0xb6f48fdb	-7.2885136e-06
223	0x35e97545	1.7393983e-06
224	0xb68be68d	-4.1693625e-06
225	0xb791c844	-1.7378603e-05
226	0x3741b97b	1.1546882e-05
227	0xb663e738	-3.3960223e-06
228	0xb6c16f2f	-5.7647917e-06
229	0x36ddd23a	6.610787e-06
230	0x37956f02	1.7813876e-05
231	0xb60090f2	-1.9157856e-06
232	0xb6c5bc14	-5.8929527e-06
233	0x370f2eb4	8.534338e-06
234	0xb55af002	-8.1560586e-07
235	0xb59f1aec	-1.1854258e-06
236	0xb6071764	-2.0130183e-06
237	0xb70f6156	-8.546127e-06
238	0xb70f2772	-8.532648e-06
239	0xb63125ce	-2.639706e-06
240	0x3565b3e2	8.557091e-07
241	0x36e3239f	6.769274e-06
242	0xb550323a	-7.755913e-07
243	0xb71ce5b5	-9.351807e-06
244	0xb4096b17	-1.2798078e-07
245	0xb6044648	-1.9710442e-06
246	0x35d67bb3	1.5980244e-06
247	0xb609a4fa	-2.051062e-06
248	0x3730307e	1.0501708e-05
249	0xb3ab6659	-7.981425e-08
250	0x368bf19d	4.1706503e-06
251	0x3663e46d	3.3958597e-06
252	0xb7107bea	-8.61192e-06
253	0x360b318f	2.074146e-06
254	0x3606e4d1	2.0100745e-06
255	0x36fbebc6	7.5078306e-06

tcn_layers.0.tcnblock.network.0.net.0.bias f4 [11]
0	0xb6490116	-2.9951966e-06
1	0xb644a853	-2.9304254e-06
2	0x369f5d6b	4.7494445e-06
3	0x373bd028	1.1194534e-05
4	0xb726d9e5	-9.945104e-06
5	0x3d6b59e1	0.057458762
6	0xb6154ee6	-2.2248655e-06
7	0xb5a79bc6	-1.2487806e-06
8	0xb74e61aa	-1.2301296e-05
9	0x367b698d	3.7463353e-06
10	0x3db03130	0.08603132

tcn_layers.0.tcnblock.network.0.net.0.weight_g f4 [11, 1, 1]
0	0x369a914e	4.6064733e-06
1	0x361a29f1	2.2972201e-06
2	0x36f3babc	7.263703e-06
3	0x37084834	8.123043e-06
4	0xb61c69d2	-2.3307407e-06
5	0x3e0cde7f	0.1375675
6	0x37107cac	8.612096e-06
7	0xb5321be0	-6.635073e-07
8	0xb6080f85	-2.0274613e-06
9	0xb6dbfc0d	-6.556051e-06
10	0x3e38f638	0.18062675

tcn_layers.0.tcnblock.network.0.net.0.weight_v f4 [11, 11, 4]
0	0x3634b248	2.6925863e-06
1	0x3581af78	9.662317e-07
2	0xb659589b	-3.2387095e-06
3	0x36496845	3.0012027e-06
4	0x3693139b	4.3832238e-06
5	0x36b9d2d9	5.5379755e-06
6	0xb7518351	-1.2487945e-05
7	0xb70a8fc1	-8.258911e-06
8	0x36c8c85e	5.9837903e-06
9	0x368c4fcb	4.1816143e-06
10	0xb704dd45	-7.919331e-06
11	0xb7078b90	-8.0791215e-06
12	0x3682fadc	3.903506e-06
13	0xb6c9eff2	-6.0182e-06
14	0xb6c68a0d	-5.916931e-06
15	0xb61354bf	-2.1954036e-06
16	0xb5e95570	-1.7384718e-06
17	0x35a5d265	1.2354691e-06
18	0xb5d82cfa	-1.6106344e-06
19	0x36f9fa66	7.4499285e-06
20	0xb758be0f	-1.2918855e-05
21	0xb66519dd	-3.4138714e-06
22	0x376d13e6	1.4130934e-05
23	0xb7b6f8e7	-2.1811995e-05
24	0xb72edb6b	-1.0422295e-05
25	0xb636b893	-2.722755e-06
26	0xb71a072d	-9.180786e-06
27	0xb61d6f19	-2.345949e-06
28	0xb534666b	-6.7204263e-07
29	0xb68cb1e1	-4.193033e-06
30	0x36067922	2.0038065e-06
31	0xb6df8c49	-6.6622492e-06
32	0x3692654d	4.362932e-06
33	0xb605cda8	-1.9938252e-06
34	0xb605ee0d	-1.9957108e-06
35	0xb66431f7	-3.400373e-06
36	0xb65c7f3e	-3.285662e-06
37	0xb5f98cfa	-1.8592975e-06
38	0x368ec1f1	4.2545075e-06
39	0xb63513bb	-2.6982586e-06
40	0xb6659e20	-3.42157e-06
41	0xb5cb8044	-1.5162009e-06
42	0xb718f210	-9.116266e-06
43	0xb5cb8c6f	-1.516555e-06
44	0x35492463	7.4931285e-07
45	0x35dba544	1.636487e-06
46	0xb48fdf9b	-2.679852e-07
47	0x36a64eb4	4.9563478e-06
48	0xb6928d96	-4.367622e-06
49	0x36fef5ba	7.598396e-06
50	0x363b2f89	2.789284e-06
51	0xb6162595	-2.2373617e-06
52	0x35e4e4c9	1.7053909e-06
53	0xb63a109d	-2.772583e-06
54	0x370df948	8.462295e-06
55	0xb7097a6b	-8.194339e-06
56	0x35425ad5	7.240281e-07
57	0xb675188d	-3.6522135e-06
58	0x36a1d8ed	4.8234274e-06
59	0x371ab9c2	9.222365e-06
60	0xb721bc95	-9.6402555e-06
61	0xb774dc20	-1.4594785e-05
62	0xb677a2f6	-3.6900724e-06
63	0x374b8636	1.2130991e-05
64	0x3612be34	2.1866408e-06
65	0x353a529e	6.9410623e-07
66	0xb775028f	-1.4603734e-05
67	0x36d37dcf	6.302936e-06
68	0x36489fbf	2.9895307e-06
69	0xb4c98617	-3.753673e-07
70	0x373550ab	1.0807223e-05
71	0xb67d3e22	-3.7736104e-06
72	0xb647215f	-2.9672735e-06
73	0x3767ec0a	1.382363e-05
74	0x36bdab7e	5.6526032e-06
75	0xb6f884fe	-7.4064583e-06
76	0x36f6fb48	7.3606243e-06
77	0xb6c97b6a	-6.004634e-06
78	0x361fa5f8	2.3789453e-06
79	0xb62168da	-2.4051901e-06
80	0x3648684b	2.986303e-06
81	0x36aec788	5.2088326e-06
82	0xb67c046e	-3.7553505e-06
83	0xb49702bf	-2.812794e-07
84	0x350bcc28	5.207862e-07
85	0xb6fea0e8	-7.588522e-06
86	0x35fe1988	1.8931905e-06
87	0xb547e953	-7.447281e-07
88	0xb6016d92	-1.9286276e-06
89	0x3605e41f	1.9951328e-06
90	0xb717ca0e	-9.047346e-06
91	0x362b5bf9	2.553452e-06
92	0xb6b9d397	-5.538062e-06
93	0x3418a61b	1.4216532e-07
94	0x32df3bbd	2.5987783e-08
95	0xb5d5f45d	-1.5940856e-06
96	0xb6ba87e2	-5.559051e-06
97	0xb49084a0	-2.6918588e-07
98	0x36aeaf6a	5.206025e-06
99	0x36c63a31	5.907634e-06
100	0xb755b236	-1.2737282e-05
101	0x365e48a5	3.3122863e-06
102	0x36c5c382	5.8938176e-06
103	0xb688cac8	-4.0767227e-06
104	0xb5f370b0	-1.8137707e-06
105	0xb5f8221b	-1.8487366e-06
106	0xb56cbcdb	-8.819167e-07
107	0xb601358d	-1.9253669e-06
108	0xb5de3f4a	-1.6558708e-06
109	0x35b73fea	1.3653164e-06
110	0xb57201e2	-9.0154765e-07
111	0x3635ad84	2.7072101e-06
112	0x3632954d	2.6610971e-06
113	0x359fe9d5	1.1914477e-06
114	0xb66112ef	-3.3538633e-06
115	0xb3570efe	-5.0072224e-08
116	0xb62b5d2e	-2.5535223e-06
117	0xb528d8d5	-6.290041e-07
118	0xb6b4c42f	-5.387257e-06
119	0xb5c3f3e9	-1.4599619e-06
120	0x3587ea55	1.0126483e-06
121	0x351aec20	5.771308e-07
122	0xb5c9d137	-1.5036557e-06
123	0xb3d3f36f	-9.8697335e-08
124	0xb65866fd	-3.2246455e-06
125	0xb5a9cb44	-1.2650639e-06
126	0x32ab9a17	1.9977092e-08
127	0xb6353656	-2.700273e-06
128	0xb6f48820	-7.2876137e-06
129	0xb59b2704	-1.1559755e-06
130	0xb6bcc6bc	-5.6259723e-06
131	0x368e1307	4.234145e-06
132	0x3499563c	2.8561215e-07
133	0x36c7697e	5.942943e-06
134	0x351671c9	5.6044934e-07
135	0x34ddf728	4.1344288e-07
136	0x3638dcf7	2.7546755e-06
137	0xb4e529d6	-4.2685014e-07
138	0xb6976285	-4.51162e-06
139	0xb698587c	-4.540254e-06
140	0xb59651bd	-1.119966e-06
141	0x35a7730a	1.247595e-06
142	0x35862336	9.994026e-07
143	0xb6ca5e59	-6.0310526e-06
144	0x3678372d	3.6986996e-06
145	0xb60e6c31	-2.1222625e-06
146	0xb6d2fadb	-6.287691e-06
147	0x373bad99	1.1186487e-05
148	0xb5e687ae	-1.7175823e-06
149	0xb6e399fa	-6.7830524e-06
150	0x36610d3f	3.3535323e-06
151	0xb62f993e	-2.616623e-06
152	0xb58cefd9	-1.0500618e-06
153	0xb6b77ff2	-5.46872e-06
154	0xb60ea242	-2.1254095e-06
155	0x36af3a9e	5.2222304e-06
156	0xb612bcf0	-2.1865671e-06
157	0xb62472af	-2.450466e-06
158	0x36f81c2b	7.394255e-06
159	0x3527e359	6.254318e-07
160	0xb2264a0b	-9.679307e-09
161	0x36254828	2.4628916e-06
162	0x36546381	3.164838e-06
163	0xb5c2e8e8	-1.4521911e-06
164	0x376df601	1.4183578e-05
165	0xb69bdc23	-4.6449873e-06
166	0xb6c19b15	-5.769902e-06
167	0xb686c18e	-4.016044e-06
168	0xb512c28a	-5.467233e-07
169	0x36f5c832	7.324875e-06
170	0x36dbe286	6.5530794e-06
171	0xb66cfb49	-3.5313008e-06
172	0xb48f2359	-2.6661544e-07
173	0x361a35da	2.2979134e-06
174	0xb719cc50	-9.167081e-06
175	0xb6fdb082	-7.560536e-06
176	0x356abc44	8.7445756e-07
177	0xb5b3465a	-1.3357014e-06
178	0xb65c0b31	-3.278907e-06
179	0xb5185704	-5.6751037e-07
180	0x35f357d5	1.8130473e-06
181	0xb5d73161	-1.603312e-06
182	0x35368ce1	6.800529e-07
183	0xb4c9590f	-3.7503966e-07
184	0x372ab82f	1.0175673e-05
185	0x3455024d	1.9838008e-07
186	0xb696c45a	-4.4932067e-06
187	0xb6814994	-3.853065e-06
188	0xb57080c9	-8.9594374e-07
189	0xb6035b0d	-1.957352e-06
190	0x35e2afd3	1.6889484e-06
191	0xb53ac54f	-6.957752e-07
192	0xb669024a	-3.4721038e-06
193	0x35e65360	1.7160601e-06
194	0x3615db1e	2.2330273e-06
195	0x35e9e29f	1.7425808e-06
196	0x353d029f	7.04118e-07
197	0xb49f38ef	-2.9657483e-07
198	0x3585d733	9.971903e-07
199	0xb5d999b9	-1.6212499e-06
200	0xb599ba6c	-1.1453644e-06
201	0xb4fbc2d7	-4.6894158e-07
202	0x3458c9fb	2.0190048e-07
203	0x363d5eb2	2.8218315e-06
204	0x35ccbc65	1.5254014e-06
205	0xb641356b	-2.8790334e-06
206	0xb684ee9b	-3.961684e-06
207	0xb601c76a	-1.9338572e-06
208	0x35ba770e	1.3892729e-06
209	0xb5529917	-7.845387e-07
210	0xb42d9b63	-1.616841e-07
211	0x358ce5f1	1.0497735e-06
212	0xb66591e8	-3.4208588e-06
213	0xb4525fcb	-1.9592623e-07
214	0xb4d5ec8f	-3.984646e-07
215	0x363a5872	2.7767642e-06
216	0x355b3002	8.165372e-07
217	0x3413e657	1.3774239e-07
218	0x36f15408	7.192142e-06
219	0xb737e089	-1.0959929e-05
220	0xb85d4ac1	-5.2760126e-05
221	0xb849a326	-4.807408e-05
222	0xb81f170a	-3.793001e-05
223	0xb80f1563	-3.4113775e-05
224	0xb9e3675b	-0.0004337382
225	0xb9e17414	-0.0004300183
226	0xb9e02027	-0.00042748565
227	0xb9dfca36	-0.00042684533
228	0xba009bb0	-0.0004906012
229	0xba017349	-0.00049381383
230	0xba027b20	-0.00049774535
231	0xba038210	-0.0005016634
232	0x39c08b42	0.0003672485
233	0x39c64989	0.0003782029
234	0x39cb1ae4	0.00038739212
235	0x39cfaef1	0.00039612458
236	0xb8eff1c6	-0.00011441442
237	0xb8ed82a8	-0.00011325377
238	0xb8f3702a	-0.00011608035
239	0xb8f00aed	-0.00011446127
240	0xba72bb58	-0.0009259484
241	0xba74533a	-0.0009320263
242	0xba76abc1	-0.00094097486
243	0xba78da6d	-0.0009492997
244	0xba5290b1	-0.0008032425
245	0xba5464c1	-0.00081021717
246	0xba568aa6	-0.00081841124
247	0xba594907	-0.0008288775
248	0xb9b18260	-0.00033857208
249	0xb9b3b2ad	-0.00034274664
250	0xb9b63651	-0.00034754214
251	0xb9b84b93	-0.00035151522
252	0xb9b2d149	-0.00034106735
253	0xb9b94cd2	-0.00035343185
254	0xb9c0d892	-0.0003678245
255	0xb9ca1a3d	-0.0003854799

tcn_layers.0.tcnblock.network.0.net.4.bias f4 [11]
0	0x377dc9eb	1.5126988e-05
1	0x376abab7	1.399096e-05
2	0x36e1b1ef	6.7262367e-06
3	0x3e00e4fd	0.12587352
4	0x3dc2a865	0.09504775
5	0x369f6501	4.7503277e-06
6	0xb706b4c8	-8.029114e-06
7	0xb38f570e	-6.6747916e-08
8	0xb652715b	-3.135842e-06
9	0x374a0f1c	1.2043656e-05
10	0xb747b8d8	-1.1904362e-05

tcn_layers.0.tcnblock.network.0.net.4.weight_g f4 [11, 1, 1]
0	0x34424be0	1.8095261e-07
1	0xb6e7504a	-6.8936833e-06
2	0x34085613	1.26973e-07
3	0x3e4ea717	0.20180927
4	0x3e352a85	0.17692001
5	0x3745da6c	1.179297e-05
6	0x37050f56	7.930988e-06
7	0xb5edb0c0	-1.7709317e-06
8	0x3d9254e5	0.071450986
9	0xb48b9181	-2.5996636e-07
10	0xb63942bd	-2.7605995e-06

tcn_layers.0.tcnblock.network.0.net.4.weight_v f4 [11, 11, 4]
0	0xb69bc66a	-4.6424584e-06
1	0x35946294	1.1055549e-06
2	0x368fcff3	4.2859406e-06
3	0x36a2919c	4.8449274e-06
4	0xb6824cb3	-3.883231e-06
5	0xb4e1d1e9	-4.2062246e-07
6	0xb6e206c8	-6.7361143e-06
7	0x369dada5	4.6991795e-06
8	0x36880737	4.0539558e-06
9	0xb6bed5aa	-5.687315e-06
10	0x375a4cfc	1.3011737e-05
11	0xb71f0e0e	-9.480411e-06
12	0x35813367	9.626209e-07
13	0xb4da2048	-4.0629152e-07
14	0xb62082e6	-2.391805e-06
15	0xb696ad5b	-4.4905296e-06
16	0xb68805e7	-4.053803e-06
17	0x3585435c	9.928876e-07
18	0x3627206c	2.4903811e-06
19	0x3640dc01	2.8738289e-06
20	0x36534350	3.1480631e-06
21	0xb6c950eb	-5.999687e-06
22	0x364f9937	3.0934586e-06
23	0xb69274b7	-4.3647265e-06
24	0x36bf2a92	5.6971994e-06
25	0xb589a877	-1.0256325e-06
26	0xb68d85d3	-4.2177066e-06
27	0x32a59d05	1.9279932e-08
28	0x36b66370	5.4355987e-06
29	0x35d75674	1.604391e-06
30	0x3595e731	1.1168651e-06
31	0x35e94d9c	1.738244e-06
32	0x36d36f54	6.3012503e-06
33	0x360239aa	1.9405074e-06
34	0xb5c2b2a7	-1.4506121e-06
35	0xb6aad134	-5.0907493e-06
36	0x366ae878	3.5004032e-06
37	0xb593693a	-1.0982978e-06
38	0x35df6bd3	1.6646176e-06
39	0x36bc65b7	5.614678e-06
40	0x3702b165	7.789907e-06
41	0x36535469	3.1490583e-06
42	0x36c08dec	5.738568e-06
43	0x35e23cb8	1.6855984e-06
44	0xb53f1073	-7.117698e-07
45	0x35bba4e6	1.3980577e-06
46	0xb6911515	-4.323791e-06
47	0xb5a93278	-1.260617e-06
48	0x3669c604	3.4834966e-06
49	0x367c5ce6	3.7605e-06
50	0xb7023e92	-7.763172e-06
51	0xb70de63f	-8.457863e-06
52	0xb6f5837e	-7.3168767e-06
53	0x348bc627	2.6034942e-07
54	0x369a260b	4.5939864e-06
55	0x3683fb2e	3.9333454e-06
56	0x36d80c0b	6.4387036e-06
57	0xb608e607	-2.0399473e-06
58	0xb6a211f8	-4.830068e-06
59	0x3710403e	8.598026e-06
60	0x3541588a	7.2026944e-07
61	0x3596e2e3	1.1241904e-06
62	0xb6f1a26a	-7.201267e-06
63	0xb749c52d	-1.2026442e-05
64	0x369f68a0	4.750749e-06
65	0x378043b4	1.5290316e-05
66	0x370c2d29	8.355165e-06
67	0x35b2179e	1.3268907e-06
68	0x356c58df	8.8046176e-07
69	0xb6ecd5a0	-7.0582173e-06
70	0xb69aa131	-4.608323e-06
71	0xb70629cb	-7.996753e-06
72	0x36e8f1ab	6.9422726e-06
73	0x36919cc5	4.339587e-06
74	0xb68d1b65	-4.2053166e-06
75	0xb6ff252a	-7.6039187e-06
76	0x36231bc0	2.4305045e-06
77	0x35e22fbd	1.6852206e-06
78	0x3741e254	1.1556393e-05
79	0xb7a98de0	-2.0212436e-05
80	0xb7abce85	-2.0480957e-05
81	0x370c1dfe	8.351633e-06
82	0x36e3df93	6.7911546e-06
83	0xb748365c	-1.19335855e-05
84	0x378edc24	1.703023e-05
85	0x36c675be	5.914567e-06
86	0x376f34e0	1.4257821e-05
87	0x35b2f6fe	1.3333918e-06
88	0x370f481d	8.540254e-06
89	0xb706dc09	-8.038253e-06
90	0xb6812a24	-3.8494054e-06
91	0xb68180e3	-3.859504e-06
92	0x3791cbec	1.7380306e-05
93	0x3791e282	1.7390823e-05
94	0x33ab5c52	7.979601e-08
95	0x364e78d9	3.0766735e-06
96	0xb6c35feb	-5.822619e-06
97	0x3789dde0	1.6434991e-05
98	0x359effe7	1.1846395e-06
99	0xb60999fd	-2.0504224e-06
100	0x36b6f559	5.452585e-06
101	0xb6ed4915	-7.0716583e-06
102	0x35e71009	1.7215508e-06
103	0x369c9f4e	4.667708e-06
104	0x35f2aa42	1.8079957e-06
105	0x36c9cc16	6.0140255e-06
106	0x35e36025	1.69408e-06
107	0xb6f9b896	-7.442267e-06
108	0xb75a795e	-1.3022071e-05
109	0xb79cebfd	-1.870654e-05
110	0xb75a5ff4	-1.3016153e-05
111	0x360880d0	2.0340558e-06
112	0x375a19ef	1.2999851e-05
113	0xb7ad91f1	-2.0691166e-05
114	0xb6f12a64	-7.1872946e-06
115	0xb69d3e59	-4.686223e-06
116	0xb74aff92	-1.2099643e-05
117	0x355b9595	8.180153e-07
118	0xb69d166e	-4.681576e-06
119	0x363b05c4	2.7868527e-06
120	0x3661f7d4	3.3671868e-06
121	0x36093d09	2.0450118e-06
122	0x37916759	1.7333472e-05
123	0xb5c900d1	-1.4975905e-06
124	0xb63bd11e	-2.7986894e-06
125	0x36937f60	4.39577e-06
126	0x363787ac	2.7348096e-06
127	0x368bc688	4.165635e-06
128	0x3688ffbb	4.082887e-06
129	0xb79122f2	-1.730162e-05
130	0x37919101	1.735287e-05
131	0x368fd35f	4.286339e-06
132	0xb8a642ee	-7.9279635e-05
133	0xb884436a	-6.306807e-05
134	0x384be319	4.8610473e-05
135	0x35ab2bb2	1.275321e-06
136	0xb4e2cdb0	-4.2245438e-07
137	0x35012c6d	4.8120893e-07
138	0x34ccd418	3.815228e-07
139	0x356666c8	8.5831243e-07
140	0x33e3e666	1.06124205e-07
141	0x358df6ba	1.0577126e-06
142	0xb6285428	-2.5082936e-06
143	0x371bf4af	9.29569e-06
144	0xb796f13b	-1.7993725e-05
145	0xb5449d81	-7.324489e-07
146	0x354abb4a	7.5523405e-07
147	0xb85dda1f	-5.2893647e-05
148	0xb5bfcf2e	-1.4290906e-06
149	0x348b3165	2.5926707e-07
150	0x34eb282f	4.3801398e-07
151	0xb47a21e8	-2.32954e-07
152	0x3aa39f80	0.0012483448
153	0x3aa0ad7d	0.0012258735
154	0x3aa30c39	0.0012439556
155	0x3aa6f264	0.0012737033
156	0xb55f91e2	-8.328626e-07
157	0xb5ceaee8	-1.53991e-06
158	0x35d21304	1.5651754e-06
159	0x347d0047	2.3562562e-07
160	0xb8383d5a	-4.3926157e-05
161	0x38b44dda	8.59757e-05
162	0x35556b06	7.9504423e-07
163	0x37390750	1.1028562e-05
164	0xb48e2d52	-2.6482536e-07
165	0x364ab19e	3.0203732e-06
166	0xb5119751	-5.4236904e-07
167	0x3707eccc	8.101761e-06
168	0xb7252708	-9.843854e-06
169	0x35da60ac	1.6270401e-06
170	0x36312c64	2.6400894e-06
171	0xb6760af1	-3.6663225e-06
172	0x3ae38edd	0.0017361302
173	0x3aeb7285	0.0017963207
174	0x3ae8c9e2	0.0017760361
175	0x3ae6c59c	0.00176065
176	0xb55b8907	-8.178326e-07
177	0x3666df0a	3.4402497e-06
178	0xb68e3652	-4.2382535e-06
179	0x34b8cc17	3.4421166e-07
180	0xb50def37	-5.2874697e-07
181	0xb4c6b17f	-3.700952e-07
182	0xb5ba0086	-1.3858232e-06
183	0x35fc94da	1.8818785e-06
184	0x360e55bd	2.1209555e-06
185	0xb6c33d59	-5.8185947e-06
186	0xb68724a1	-4.0275777e-06
187	0x3605dfd0	1.994882e-06
188	0x353bd796	6.997665e-07
189	0x35f80fa3	1.8481991e-06
190	0x3497280d	2.8155083e-07
191	0x35c012c2	1.4310574e-06
192	0x365b9b86	3.272407e-06
193	0xb4d90d3b	-4.0429026e-07
194	0xb60cdd00	-2.0990265e-06
195	0x353b037a	6.966799e-07
196	0x3a1573e2	0.0005701167
197	0x3a114c7a	0.0005542707
198	0x3a14390b	0.0005654252
199	0x3a11888c	0.0005551658
200	0x35b12cd5	1.3200575e-06
201	0xb6152305	-2.2223114e-06
202	0x357a9cb9	9.336032e-07
203	0x3525a593	6.170823e-07
204	0x3510b683	5.390977e-07
205	0x35e57145	1.7094795e-06
206	0xb50df204	-5.287877e-07
207	0xb62f398b	-2.6110527e-06
208	0xb6075f05	-2.0171876e-06
209	0x35804e22	9.559483e-07
210	0xb54ad1dc	-7.555625e-07
211	0x357ced05	9.4222224e-07
212	0x35a420c6	1.222849e-06
213	0xb650310a	-3.102296e-06
214	0x354ae41d	7.558281e-07
215	0xb592e0be	-1.0943256e-06
216	0x3a4cc629	0.00078115106
217	0x3a4aa79e	0.00077306654
218	0x3a53b521	0.00080760015
219	0x3a53e9ea	0.0008083867
220	0xb71cf346	-9.354966e-06
221	0xb79d1eb5	-1.8730158e-05
222	0xb6f48fdb	-7.2885136e-06
223	0x35e97545	1.7393983e-06
224	0xb68be68d	-4.1693625e-06
225	0xb791c844	-1.7378603e-05
226	0x3741b97b	1.1546882e-05
227	0xb663e738	-3.3960223e-06
228	0xb6c16f2f	-5.7647917e-06
229	0x36ddd23a	6.610787e-06
230	0x37956f02	1.7813876e-05
231	0xb60090f2	-1.9157856e-06
232	0xb6c5bc14	-5.8929527e-06
233	0x370f2eb4	8.534338e-06
234	0xb55af002	-8.1560586e-07
235	0xb59f1aec	-1.1854258e-06
236	0xb6071764	-2.0130183e-06
237	0xb70f6156	-8.546127e-06
238	0xb70f2772	-8.532648e-06
239	0xb63125ce	-2.639706e-06
240	0x3565b3e2	8.557091e-07
241	0x36e3239f	6.769274e-06
242	0xb550323a	-7.755913e-07
243	0xb71ce5b5	-9.351807e-06
244	0xb4096b17	-1.2798078e-07
245	0xb6044648	-1.9710442e-06
246	0x35d67bb3	1.5980244e-06
247	0xb609a4fa	-2.051062e-06
248	0x3730307e	1.0501708e-05
249	0xb3ab6659	-7.981425e-08
250	0x368bf19d	4.1706503e-06
251	0x3663e46d	3.3958597e-06
252	0xb7107bea	-8.61192e-06
253	0x360b318f	2.074146e-06
254	0x3606e4d1	2.0100745e-06
255	0x36fbebc6	7.5078306e-06

tcn_layers.0.tcnblock.network.1.conv1.bias f4 [22]
0	0x3533efae	6.7031476e-07
1	0x3de25db2	0.11053027
2	0xb669338c	-3.474971e-06
3	0xb5bd0337	-1.4082533e-06
4	0xb6daabb3	-6.5168947e-06
5	0x37b9aacb	2.213325e-05
6	0x3716e9b4	8.99511e-06
7	0xb6e467ae	-6.8069994e-06
8	0x35400e58	7.1546447e-07
9	0x36a29175	4.8449097e-06
10	0x3705d6f8	7.977469e-06
11	0xb6fa4868	-7.45901e-06
12	0xb70dda90	-8.455143e-06
13	0xb6d2888e	-6.2743848e-06
14	0x36613a67	3.3561607e-06
15	0xb7281385	-1.0018125e-05
16	0x3cfbb422	0.030725542
17	0x3708c53d	8.152155e-06
18	0xb70204d6	-7.74973e-06
19	0x3705479c	7.944091e-06
20	0xb603c493	-1.9634942e-06
21	0xb6c8c78a	-5.983694e-06

tcn_layers.0.tcnblock.network.1.conv1.weight_g f4 [22, 1, 1]
0	0x361c7760	2.3315297e-06
1	0x3e96f3b4	0.29482806
2	0x354a560b	7.5376073e-07
3	0x36b46f81	5.377399e-06
4	0xb5476f55	-7.4295286e-07
5	0xb65f263f	-3.3251852e-06
6	0x36703ff6	3.5800017e-06
7	0xb77a4a00	-1.4918391e-05
8	0x3730175d	1.0495857e-05
9	0xb5b15fc2	-1.3215397e-06
10	0xb5e93619	-1.7375597e-06
11	0x369dfa3f	4.708097e-06
12	0x36bc2c9b	5.6080294e-06
13	0x37210718	9.597999e-06
14	0x368518b3	3.9665842e-06
15	0xb5921345	-1.0883456e-06
16	0x3de5f875	0.1122903
17	0x3634ad1a	2.6922849e-06
18	0x376e113f	1.4189921e-05
19	0x3600e09d	1.9204228e-06
20	0xb68cbf35	-4.1945846e-06
21	0x36da7937	6.5110175e-06

tcn_layers.0.tcnblock.network.1.conv1.weight_v f4 [22, 11, 4]
0	0xb75d3d68	-1.3186924e-05
1	0xb679ceed	-3.7224338e-06
2	0xb754d28d	-1.2685207e-05
3	0x374ebc7b	1.2322441e-05
4	0x35c40f85	1.4607655e-06
5	0xb41a10b6	-1.4348447e-07
6	0x35f3e1f6	1.8170674e-06
7	0xb5006f93	-4.784608e-07
8	0x3761749f	1.3438198e-05
9	0x33b335f9	8.3451546e-08
10	0x365856be	3.2236999e-06
11	0xb61da577	-2.3491136e-06
12	0x371579d1	8.909455e-06
13	0x37292544	1.0081862e-05
14	0x3639e169	2.7698354e-06
15	0x36b3b08e	5.3551694e-06
16	0x365eec79	3.3218223e-06
17	0x34e1ddb2	4.207082e-07
18	0x36459dbc	2.94471e-06
19	0x323e23a1	1.1067557e-08
20	0xb6a8cf79	-5.030943e-06
21	0xb3d39261	-9.852079e-08
22	0x351ba908	5.798797e-07
23	0xb665d029	-3.4244824e-06
24	0x365dc61a	3.3046877e-06
25	0x35ceb5c4	1.5401097e-06
26	0xb477489c	-2.3030083e-07
27	0x363c9c41	2.8105135e-06
28	0xb7138458	-8.7926965e-06
29	0x334b0e0d	4.72774e-08
30	0x368c5c97	4.183104e-06
31	0x35a87f56	1.2554035e-06
32	0xb29b67e7	-1.8091624e-08
33	0xb59484ce	-1.106551e-06
34	0x34ec4971	4.401186e-07
35	0xb46773ee	-2.1555726e-07
36	0xb5645585	-8.5061066e-07
37	0x354b8232	7.581285e-07
38	0xb5c830b4	-1.4915336e-06
39	0xb6260a66	-2.474198e-06
40	0x34584f65	2.0145451e-07
41	0x363c6b2c	2.8076565e-06
42	0x375f59c8	1.331274e-05
43	0x35b3323c	1.3351159e-06
44	0x39c2988f	0.00037116228
45	0x39d33aec	0.00040288956
46	0x39e3da51	0.00043459472
47	0x39f59057	0.00046837583
48	0xba8530e4	-0.0010161665
49	0xba8f21a2	-0.0010920058
50	0xbaa3c008	-0.0012493143
51	0xbabc91c8	-0.0014386708
52	0x36a6202a	4.95093e-06
53	0xb6a62e84	-4.9526006e-06
54	0x36a61fee	4.9509026e-06
55	0xb6a61fc5	-4.950884e-06
56	0x3bcec18c	0.0063096937
57	0x3bd3807f	0.006454527
58	0x3bd787cc	0.0065774675
59	0x3bdc728b	0.006727522
60	0x3b25e3e5	0.0025312838
61	0x3b2a3209	0.0025969765
62	0x3b2f7d9c	0.002677775
63	0x3b349ba1	0.0027558582
64	0xb6a63602	-4.953473e-06
65	0xb6a62cc1	-4.9523956e-06
66	0xb6a62040	-4.95094e-06
67	0xb6a62086	-4.9509717e-06
68	0xb924c0e0	-0.0001571211
69	0xb9442689	-0.00018706372
70	0xb9a00d5b	-0.0003052753
71	0xba0cc0d2	-0.00053693086
72	0xb7d99c9e	-2.5941346e-05
73	0xb7c008c8	-2.2892273e-05
74	0xb82ee79b	-4.1700532e-05
75	0xb75cd12b	-1.3161723e-05
76	0x354da9a1	7.6615294e-07
77	0xb8251665	-3.9359922e-05
78	0xb90ca9e6	-0.00013414733
79	0xb9a9fc04	-0.00032421958
80	0xba2c1f42	-0.0006565937
81	0xba346dc5	-0.0006882812
82	0xba3ac5e9	-0.0007124828
83	0xba419ebf	-0.0007386021
84	0xb69f2e47	-4.7439567e-06
85	0xb69ee8c4	-4.7358644e-06
86	0xb69e065c	-4.7095073e-06
87	0xb69de319	-4.7054023e-06
88	0xb6dcfbca	-6.585823e-06
89	0x3674752f	3.6427043e-06
90	0x36484771	2.9843907e-06
91	0x366fe618	3.5747707e-06
92	0x36a74a30	4.9856244e-06
93	0xb51eee1e	-5.920609e-07
94	0xb708dd63	-8.157777e-06
95	0x371d3974	9.371306e-06
96	0xb5e140fb	-1.6782718e-06
97	0x369d9a19	4.696904e-06
98	0x359ffb6d	1.1919598e-06
99	0x3712110d	8.706248e-06
100	0xb6ad8602	-5.1714023e-06
101	0xb7440444	-1.16835035e-05
102	0xb47ca5c5	-2.3529635e-07
103	0xb6956c19	-4.4531303e-06
104	0x36a0b54c	4.7894773e-06
105	0xb6b20157	-5.3049694e-06
106	0x37582ab0	1.2884542e-05
107	0x35a90a01	1.2594393e-06
108	0x36fc22a7	7.5142193e-06
109	0x369ac615	4.6126174e-06
110	0xb686a441	-4.012633e-06
111	0xb712bd71	-8.746386e-06
112	0x36afa843	5.2349947e-06
113	0xb50bec4b	-5.2125387e-07
114	0xb4149cfd	-1.3840686e-07
115	0x37865943	1.601561e-05
116	0x35559409	7.9564103e-07
117	0x360bf6ab	2.0856194e-06
118	0x37155493	8.9007835e-06
119	0xb661be31	-3.3638319e-06
120	0x36c9a872	6.0098764e-06
121	0x35243ebc	6.118605e-07
122	0x36774415	3.6845497e-06
123	0x36434b77	2.910119e-06
124	0x3687858c	4.0388604e-06
125	0x3680e5e9	3.8414623e-06
126	0xb6ad5969	-5.1662105e-06
127	0x36993bcb	4.566716e-06
128	0x36d89874	6.4550495e-06
129	0x36d017fe	6.201676e-06
130	0x360de8ee	2.114622e-06
131	0xb619359a	-2.2829977e-06
132	0x33aefd0c	8.1485354e-08
133	0x3712d48e	8.751767e-06
134	0xb74deb15	-1.22736865e-05
135	0x36d8aea0	6.4576307e-06
136	0x36d02870	6.2035906e-06
137	0xb444526f	-1.8283912e-07
138	0x36a1a354	4.817188e-06
139	0x35cc8e33	1.524057e-06
140	0x36c1afa9	5.7722978e-06
141	0xb7008f96	-7.662826e-06
142	0x373db0f6	1.130648e-05
143	0x36c1b970	5.773436e-06
144	0xb75507bb	-1.2697589e-05
145	0x34d712ca	4.0060542e-07
146	0x35c901f7	1.4976239e-06
147	0xb6f68774	-7.34714e-06
148	0xb35b0180	-5.0991275e-08
149	0xb692a42a	-4.3702503e-06
150	0x3692857d	4.366679e-06
151	0x36dd618a	6.5976683e-06
152	0x3673ef28	3.634903e-06
153	0xb68f9b77	-4.2798306e-06
154	0xb6c1b942	-5.773415e-06
155	0xb6a868f1	-5.019007e-06
156	0xb65e4a43	-3.3123804e-06
157	0xb70c481d	-8.36144e-06
158	0xb76589e8	-1.3681572e-05
159	0x3625a7b8	2.468454e-06
160	0x373cb24e	1.1247188e-05
161	0xb5301244	-6.559169e-07
162	0x36d16c16	6.2412682e-06
163	0xb65f0e63	-3.3237964e-06
164	0xb6a38bd7	-4.874058e-06
165	0x36fd93e6	7.557205e-06
166	0xb66a211d	-3.4887992e-06
167	0xb69cc3f3	-4.671974e-06
168	0xb70badc3	-8.325503e-06
169	0xb6d61022	-6.379575e-06
170	0x371a8bd3	9.211671e-06
171	0x3696fdbb	4.4998865e-06
172	0xb51a2e2a	-5.743665e-07
173	0xb625ee8f	-2.4725775e-06
174	0xb641efa7	-2.8898737e-06
175	0x35ff3cd0	1.9016679e-06
176	0x366c62ff	3.5224364e-06
177	0x36e3316f	6.770882e-06
178	0xb68949cf	-4.0915106e-06
179	0xb6b37197	-5.3478393e-06
180	0xb5f6e712	-1.8395679e-06
181	0x369b2ab7	4.6243326e-06
182	0xb42abbbd	-1.5900783e-07
183	0xb46c3116	-2.199707e-07
184	0xb6bbefac	-5.6009358e-06
185	0x366188cb	3.3607237e-06
186	0x36e92624	6.9483813e-06
187	0x3540d299	7.1832034e-07
188	0x36c758e8	5.941012e-06
189	0x37467175	1.1828136e-05
190	0xb5e3e4bc	-1.6979388e-06
191	0xb486f738	-2.513932e-07
192	0x370f9212	8.557474e-06
193	0x370d8597	8.435359e-06
194	0x3612a090	2.1849155e-06
195	0x36753bdc	3.6542688e-06
196	0xb62df1a2	-2.5919658e-06
197	0xb605f68a	-1.996205e-06
198	0x370b5afa	8.306228e-06
199	0x35ea991d	1.747892e-06
200	0x359db61d	1.1750413e-06
201	0x3598893b	1.1364822e-06
202	0xb71e4823	-9.4343295e-06
203	0xb413dfc9	-1.3771854e-07
204	0xb6f05394	-7.162287e-06
205	0xb70c13e3	-8.3492805e-06
206	0xb616b563	-2.2457323e-06
207	0x35a22032	1.2079311e-06
208	0x3648ef6a	2.994168e-06
209	0x3647612b	2.970987e-06
210	0xb69f2cd5	-4.7437884e-06
211	0x35d62c1a	1.5957078e-06
212	0x377ac25e	1.4946416e-05
213	0xb64dc3f3	-3.0661438e-06
214	0xb6b156f2	-5.285133e-06
215	0xb600395e	-1.9106878e-06
216	0xb681b432	-3.865477e-06
217	0xb689e606	-4.1096964e-06
218	0xb76aa460	-1.3985758e-05
219	0xb6198f27	-2.2882102e-06
220	0xb6ab8d33	-5.112635e-06
221	0x36a17d4a	4.8127595e-06
222	0xb70ae69e	-8.279136e-06
223	0x367d211e	3.7719215e-06
224	0x367fc18a	3.8110616e-06
225	0x36521d62	3.1309542e-06
226	0x36dc7dae	6.571142e-06
227	0xb569c89a	-8.709118e-07
228	0xb6323b8e	-2.6558732e-06
229	0xb4b6f6bb	-3.4079662e-07
230	0x36e4bcdc	6.8169156e-06
231	0xb573d18f	-9.08295e-07
232	0x371e43eb	9.433347e-06
233	0xb587b2bc	-1.0110302e-06
234	0xb52e757d	-6.499102e-07
235	0xb5b2d56d	-1.3324149e-06
236	0xb65991e7	-3.2420446e-06
237	0x36d58184	6.3629723e-06
238	0x3716e157	8.993163e-06
239	0x37183628	9.072515e-06
240	0xb6c76d5e	-5.943394e-06
241	0xb6bb86b4	-5.588716e-06
242	0xb6535364	-3.148999e-06
243	0xb6ffc5f8	-7.622639e-06
244	0xb5a67762	-1.2402709e-06
245	0x360fbb27	2.1417598e-06
246	0x35e962e9	1.738864e-06
247	0xb58b42a7	-1.0375705e-06
248	0xb5ea1995	-1.7441804e-06
249	0xb628d0aa	-2.515541e-06
250	0xb6bda85b	-5.652238e-06
251	0xb69dc0fa	-4.70143e-06
252	0x34d0c012	3.888277e-07
253	0x34a80acf	3.1300303e-07
254	0x34d8def7	4.0395363e-07
255	0xb51bbbae	-5.801511e-07

tcn_layers.0.tcnblock.network.1.conv2.bias f4 [22]
0	0xb7345d1c	-1.0750515e-05
1	0xb73acaa3	-1.1133644e-05
2	0x370f54b1	8.543183e-06
3	0xb6b808a7	-5.4846346e-06
4	0xb6f5add8	-7.321807e-06
5	0xb8422976	-4.6291818e-05
6	0x36e8ad9f	6.934351e-06
7	0x36cc80ca	6.094667e-06
8	0xb62fc9c6	-2.619448e-06
9	0x371ec7fe	9.464098e-06
10	0x3693bfe8	4.403282e-06
11	0xb7131954	-8.76778e-06
12	0x3d31621e	0.043306462
13	0xb8c92e12	-9.593008e-05
14	0xb6bf8ea5	-5.7088496e-06
15	0xb3db397b	-1.0208438e-07
16	0xb68e6ced	-4.2446104e-06
17	0xb671beb0	-3.6022793e-06
18	0xb621bc63	-2.4100525e-06
19	0xb6654d7e	-3.4168766e-06
20	0xb72a3e8e	-1.0147354e-05
21	0x3d25a64f	0.040441807

tcn_layers.0.tcnblock.network.1.conv2.weight_g f4 [22, 1, 1]
0	0xb70189e4	-7.721104e-06
1	0xb5ffaea4	-1.9049808e-06
2	0xb73eded9	-1.1376768e-05
3	0x35e9f7a3	1.7431925e-06
4	0xb6d198a5	-6.2464555e-06
5	0xb72e82d1	-1.0401666e-05
6	0x376bb79f	1.4049844e-05
7	0x3cc17cfa	0.023619164
8	0x376bac65	1.404723e-05
9	0xb714ee69	-8.876997e-06
10	0x363f6264	2.8518489e-06
11	0xb6f48e7a	-7.288353e-06
12	0x3e89baaf	0.2690024
13	0x36018872	1.930192e-06
14	0xb6d03104	-6.204589e-06
15	0xb64dd579	-3.0671638e-06
16	0xb6a6e39e	-4.9736836e-06
17	0x36ac8237	5.1411585e-06
18	0x3499651f	2.8572046e-07
19	0xb491aa40	-2.7132228e-07
20	0x36952c35	4.4456924e-06
21	0x3e655d3f	0.22398852

tcn_layers.0.tcnblock.network.1.conv2.weight_v f4 [22, 22, 4]
0	0xb69d1a4c	-4.682026e-06
1	0x375a8bd6	1.3026371e-05
2	0xb70dd68d	-8.454209e-06
3	0x37118fc4	8.6761465e-06
4	0xb67c6ca6	-3.7614168e-06
5	0x357db3d5	9.4511535e-07
6	0xb4ce61bc	-3.84416e-07
7	0x34ca9016	3.7730268e-07
8	0xb6dff40e	-6.6743296e-06
9	0x36ae4e9e	5.1947563e-06
10	0x371424bb	8.830039e-06
11	0xb7aded71	-2.0733774e-05
12	0x35eb087e	1.7511336e-06
13	0xb5904c51	-1.0751047e-06
14	0x3685c324	3.9864262e-06
15	0xb55a59e7	-8.1342154e-07
16	0xb6e10e75	-6.7072056e-06
17	0xb750c1fe	-1.2442933e-05
18	0xb791c9b1	-1.7379267e-05
19	0x371cdb45	9.349377e-06
20	0x3791c596	1.7377355e-05
21	0x36ed332a	7.0691067e-06
22	0xb5159bc6	-5.5733506e-07
23	0xb68a0a2a	-4.1139037e-06
24	0xb5ffee2c	-1.9068298e-06
25	0xb710cde5	-8.631007e-06
26	0x36ec24f3	7.0376495e-06
27	0xb7173bcc	-9.014224e-06
28	0x3654e415	3.1723223e-06
29	0xb647ae10	-2.9754628e-06
30	0x369da150	4.697744e-06
31	0xb7139bdd	-8.7981725e-06
32	0xb74b1235	-1.2103982e-05
33	0xb6543da3	-3.162634e-06
34	0xb63a098a	-2.7721712e-06
35	0xb72f3a4a	-1.0444384e-05
36	0x36c5e05a	5.8971755e-06
37	0xb7958e3e	-1.782842e-05
38	0x37154fba	8.899655e-06
39	0xb604b879	-1.977691e-06
40	0x3584819a	9.872485e-07
41	0xb6c19550	-5.7692305e-06
42	0xb6a24503	-4.8360102e-06
43	0x375b1887	1.3059128e-05
44	0x36f17dbf	7.1969985e-06
45	0x368a552d	4.1226363e-06
46	0x35393943	6.90012e-07
47	0xb5c1fb4a	-1.4452755e-06
48	0x360f0f28	2.1317483e-06
49	0xb45f655f	-2.0805372e-07
50	0xb5e9e084	-1.7425195e-06
51	0xb795229c	-1.77783e-05
52	0x3734f577	1.0785988e-05
53	0xb5b1ae00	-1.3238168e-06
54	0x371c950d	9.333028e-06
55	0xb5907af4	-1.076462e-06
56	0x369b5c4b	4.6301043e-06
57	0x36f2bf34	7.234421e-06
58	0xb75abd36	-1.3037867e-05
59	0x35667d89	8.5864355e-07
60	0xb73ae503	-1.1139785e-05
61	0xb6ddd75e	-6.6113853e-06
62	0x3572f21f	9.050436e-07
63	0x3679a7ef	3.7201642e-06
64	0x361425e9	2.2075785e-06
65	0xb704ffcf	-7.927373e-06
66	0xb70c75e6	-8.372101e-06
67	0x36d66238	6.389131e-06
68	0xb7951964	-1.7774008e-05
69	0x36fad601	7.475494e-06
70	0x36102409	2.1478647e-06
71	0x375ac822	1.304041e-05
72	0xb69b1ff6	-4.6230807e-06
73	0xb69c5953	-4.659561e-06
74	0xb5f693c2	-1.8371431e-06
75	0xb60fbbb3	-2.1417916e-06
76	0xb56f5eb5	-8.9172255e-07
77	0xb71cade6	-9.3388135e-06
78	0xb6b95761	-5.523602e-06
79	0x372aaf91	1.0173667e-05
80	0x3755c346	1.2741255e-05
81	0xb6c1659d	-5.7636776e-06
82	0x3706bb57	8.030641e-06
83	0x369ccf6a	4.6733085e-06
84	0xb6c108c5	-5.752869e-06
85	0xb610256c	-2.1479455e-06
86	0x36e51479	6.827115e-06
87	0xb63e091d	-2.831751e-06
88	0xb70f337d	-8.535452e-06
89	0xb74f7de4	-1.2367473e-05
90	0xb6e9f40d	-6.9723524e-06
91	0xb5578dba	-8.029998e-07
92	0xb6dd4224	-6.594013e-06
93	0x34dcbc58	4.111523e-07
94	0x35c7b755	1.4880012e-06
95	0xb65c36e3	-3.2814503e-06
96	0x371c5709	9.318589e-06
97	0x36ebb875	7.0250194e-06
98	0x3749d72e	1.2030634e-05
99	0xb6a0f61c	-4.7970225e-06
100	0x363e3cd0	2.8347604e-06
101	0xb6f201d0	-7.212373e-06
102	0xb6a97db6	-5.051227e-06
103	0x36ca9513	6.0374236e-06
104	0x36972e4d	4.505541e-06
105	0x373e899c	1.1356922e-05
106	0x371ba457	9.276983e-06
107	0xb70eedaa	-8.519195e-06
108	0xb5b42a8f	-1.3423431e-06
109	0xb721543b	-9.615959e-06
110	0xb63a4274	-2.775484e-06
111	0x36a46857	4.8997276e-06
112	0xb7123071	-8.713557e-06
113	0x36810f7d	3.8463027e-06
114	0x366b9b05	3.5107962e-06
115	0xb6a78818	-4.9928312e-06
116	0x37412515	1.151233e-05
117	0xb6fcceb7	-7.53425e-06
118	0x375680fd	1.2785426e-05
119	0x36d6f514	6.406228e-06
120	0x35f87a8b	1.8513105e-06
121	0x369b7a03	4.633564e-06
122	0x3715a173	8.918682e-06
123	0xb7103004	-8.594248e-06
124	0x3680556c	3.8246417e-06
125	0xb64e7286	-3.0763053e-06
126	0x368055b8	3.8246762e-06
127	0x3706ef6e	8.042769e-06
128	0xb7b1dfdd	-2.1204289e-05
129	0x374adc56	1.2091439e-05
130	0xb75ad7c8	-1.3044053e-05
131	0x36332bae	2.6698503e-06
132	0x36c9c30c	6.0129732e-06
133	0x378adc7c	1.6553553e-05
134	0xb6f94718	-7.4290547e-06
135	0xb59133d7	-1.0818429e-06
136	0xb65cee6d	-3.2921337e-06
137	0xb71ae8cf	-9.23332e-06
138	0x369c9b40	4.6672358e-06
139	0xb6fbe27e	-7.50675e-06
140	0x36ed1276	7.0652995e-06
141	0x37415198	1.1522694e-05
142	0xb6138afb	-2.1985604e-06
143	0x36e54d03	6.833697e-06
144	0xb69c9227	-4.6661767e-06
145	0x37ae05da	2.0745141e-05
146	0xb4e0107c	-4.1735245e-07
147	0x35b9a217	1.3830748e-06
148	0x35610bd2	8.383623e-07
149	0xb79d38b4	-1.8742263e-05
150	0x36dbd076	6.5509767e-06
151	0xb6d5bbf4	-6.3697753e-06
152	0xb5ebb811	-1.7562435e-06
153	0x34bfb08e	3.5704983e-07
154	0xb5a919e9	-1.2599022e-06
155	0xb683d1a6	-3.9285105e-06
156	0xb5f07cef	-1.7917754e-06
157	0xb6e8141f	-6.916481e-06
158	0x371b94ed	9.273394e-06
159	0xb6a12d08	-4.8034162e-06
160	0xb5ac9d8e	-1.2860853e-06
161	0xb57d3b62	-9.433626e-07
162	0xb6ed96e2	-7.0807155e-06
163	0xb5b28b45	-1.3302566e-06
164	0x36124d93	2.180085e-06
165	0xb69d4df3	-4.688039e-06
166	0x3577ba64	9.2285904e-07
167	0x37b244a3	2.1251215e-05
168	0x37456ccc	1.1767446e-05
169	0x3723665f	9.739392e-06
170	0xb5ea5c6e	-1.7461259e-06
171	0x37b28cc1	2.1284797e-05
172	0xb4d57dce	-3.9765877e-07
173	0x3693b358	4.4018198e-06
174	0x3667977d	3.450986e-06
175	0xb6f9ce10	-7.444767e-06
176	0xb74b19ab	-1.2105719e-05
177	0x3712a6a3	8.741076e-06
178	0x369dd693	4.7039443e-06
179	0xb6802ff1	-3.8202784e-06
180	0x3679d20d	3.7226157e-06
181	0x3694ffa2	4.4405033e-06
182	0x366ce481	3.5299747e-06
183	0xb6bb7e54	-5.587741e-06
184	0xb4023700	-1.2127202e-07
185	0x369d1131	4.680966e-06
186	0x370dc0fd	8.4491885e-06
187	0xb72b40d7	-1.0207491e-05
188	0xb550c911	-7.777863e-07
189	0xb7701869	-1.4310798e-05
190	0x36fc06fe	7.5109992e-06
191	0xb7871664	-1.610368e-05
192	0x355eb703	8.296776e-07
193	0x374f4a10	1.23554055e-05
194	0x369b9ef6	4.6378655e-06
195	0xb5288642	-6.278025e-07
196	0x36eb079a	7.0044307e-06
197	0xb6e06851	-6.6878642e-06
198	0xb6051caa	-1.983523e-06
199	0xb69e2f46	-4.7142703e-06
200	0x369d73c2	4.6924406e-06
201	0xb779dd1a	-1.4893036e-05
202	0x36897eaf	4.097666e-06
203	0x36bc1f46	5.6064773e-06
204	0xb71dbd04	-9.401938e-06
205	0xb6c3ad20	-5.8316073e-06
206	0x34c00f49	3.5773908e-07
207	0xb55ac9e1	-8.15051e-07
208	0xb6cbffb1	-6.079638e-06
209	0x37640378	1.3590667e-05
210	0xb7b21998	-2.1231172e-05
211	0xb6d6192a	-6.3806265e-06
212	0x36239e66	2.4381093e-06
213	0xb6192b0f	-2.282384e-06
214	0xb6a4b1f7	-4.9082987e-06
215	0x372a1aae	1.01390015e-05
216	0xb689ff25	-4.112621e-06
217	0xb6bd9317	-5.6497624e-06
218	0x371c2778	9.307514e-06
219	0xb5487930	-7.4682157e-07
220	0xb744e8eb	-1.1736741e-05
221	0xb6802664	-3.8191665e-06
222	0x367f9a5f	3.8087817e-06
223	0xb55c69db	-8.2110427e-07
224	0x355ae17b	8.1539446e-07
225	0x373366ac	1.0693137e-05
226	0x371558e2	8.901787e-06
227	0x3791e09d	1.738994e-05
228	0xb6c0ddcd	-5.747867e-06
229	0xb6567804	-3.1958343e-06
230	0x36b09cb9	5.2634537e-06
231	0xb60927dd	-2.0437794e-06
232	0x36298351	2.5259399e-06
233	0xb546d347	-7.4068197e-07
234	0xb5be41fa	-1.4175305e-06
235	0xb71504a5	-8.8821735e-06
236	0x372ada28	1.0183583e-05
237	0x36de8bed	6.632405e-06
238	0xb48c2c6c	-2.6109353e-07
239	0xb7172728	-9.009418e-06
240	0xb66cfbf6	-3.53134e-06
241	0xb6c82278	-5.964477e-06
242	0x3706269a	7.99601e-06
243	0x3692ecb4	4.378695e-06
244	0x3616e4db	2.2484953e-06
245	0x3686e1db	4.0198042e-06
246	0x3615ff86	2.2351464e-06
247	0x37951c2f	1.7775308e-05
248	0xb518280f	-5.6682705e-07
249	0xb341fc9b	-4.5166058e-08
250	0x375b9fe3	1.3090644e-05
251	0x35b78127	1.3672151e-06
252	0xb6f9e144	-7.4470026e-06
253	0xb6a1e7c3	-4.8251545e-06
254	0xb57b0cd0	-9.352343e-07
255	0x35246aa2	6.124993e-07

tcn_layers.0.tcnblock.network.1.net.0.bias f4 [22]
0	0x3533efae	6.7031476e-07
1	0x3de25db2	0.11053027
2	0xb669338c	-3.474971e-06
3	0xb5bd0337	-1.4082533e-06
4	0xb6daabb3	-6.5168947e-06
5	0x37b9aacb	2.213325e-05
6	0x3716e9b4	8.99511e-06
7	0xb6e467ae	-6.8069994e-06
8	0x35400e58	7.1546447e-07
9	0x36a29175	4.8449097e-06
10	0x3705d6f8	7.977469e-06
11	0xb6fa4868	-7.45901e-06
12	0xb70dda90	-8.455143e-06
13	0xb6d2888e	-6.2743848e-06
14	0x36613a67	3.3561607e-06
15	0xb7281385	-1.0018125e-05
16	0x3cfbb422	0.030725542
17	0x3708c53d	8.152155e-06
18	0xb70204d6	-7.74973e-06
19	0x3705479c	7.944091e-06
20	0xb603c493	-1.9634942e-06
21	0xb6c8c78a	-5.983694e-06
